mlruns/335624475037764607/models/m-6c09d6030a7440d1b2a5b5af9b6f21e8/artifacts/data/model.pth (torch, 82621 bytes, 5 tensors)

weight f4 [66, 25]
00000000: b073 1fbe ecf9 043e 7d7a 1e3d 59ef d2bd
00000010: 27f7 69be 3969 c13d 8bac 53bd 884c 5abd
00000020: 2c11 4bbe b0a7 1b3e 33e4 593e 83cf c53d
00000030: 1025 90bc f52b 30be c10e 03be 47db 0bbe
00000040: 052f 373d 6659 063d 38b2 80be dc06 dbbd
00000050: b0a4 8abd 2283 41bd 3c3e eebd 2d69 b03b
00000060: 972a 173e c217 0dbe 25c5 1cbe ef23 4ebd
00000070: 6ce9 6abd 7a12 23be f67e 01bc 790e 11be
00000080: e1e5 31be 9e80 0e3e c230 103e d231 1f3d
00000090: 3f58 a4bd 2cf7 9a3c b5e1 d4bd bd11 903d
000000a0: f590 823c f962 f5bd 0023 0a3e f9cb a3bd
000000b0: aa88 62be 6f05 013e 3528 973d ae2f d3bd
000000c0: aae4 8f3b a9f5 98bb 7cbb d03c d4e4 12ba
000000d0: 601f 1a3e 2da0 b53d 0f7d e13d ebe0 343e
000000e0: 2bc0 10be 78a7 453e cd7c fd3c 0179 ecbd
000000f0: f87d 9c3b 6a8e 323e 0510 e2bb a098 84bd
00000100: f653 dfbd dfb5 973d 3229 2b3c 7680 f7bd
00000110: 794c 843d 191f ec3d 1834 96bd 8761 3f3b
00000120: d4ba 953b 3d67 a83d 9929 d63d 5fa1 5e3d
00000130: 1a09 1a3e a532 cebd 9b82 1bbd 992d 1dbc
00000140: bfa4 0bbe e18f 223e 3379 043e ca9d 87be
00000150: 36c5 adbd 69ef 563e ec46 cabd 0a28 b73c
00000160: 43cd edbd 5418 8fbd 8040 f9bc 5970 dfbd
00000170: bba0 70bd ca27 7dbe 90f1 89bd 8b1e d73c
00000180: f62a 5cbd 28bd 183e 8c03 11ba 6645 753d
00000190: d2fa ec3d a6da 03be 6591 343e 951d a33d
000001a0: 38ec 7bbd 42d6 13be 0dd7 1cbd 651e c03d
000001b0: 54bb b33d cefa 5b3c 759b 50be e239 d63d
000001c0: 4712 adbd 1023 bd3d 866e 053e 9d9c af3d
000001d0: 51d4 a2bd a17f 0bbe b43d 333e 3fa1 3d3e
000001e0: e095 1a3e e64c 2f3e b0bf a4bd 53b5 4b3e
000001f0: 640c 10ba 3b3c dcbd 053e 24be 5b38 243d
00000200: 64fb 80bd 2781 263e a973 d83d 6d55 95bd
00000210: 11e0 1fbe a216 fcbd d7fb 483e b235 2abe
00000220: 2048 14be 4710 0c3d fac3 23bb 5bf0 9c3d
00000230: d707 12be ee3b 0fbe 8ce5 00be 0cbf b4bd
00000240: 7114 313e 32b8 25bd 64c2 a5bd 1504 35bd
00000250: f8cd b0ba 31ef f03d d752 423e dd38 a93d
00000260: 7236 a8bc 669a 13be b245 0e3d d19f 36bb
00000270: cc2c ad3d cdf6 1e3e dca9 f23b c19e 1d3e
00000280: be8f e63d 4a21 b83d c43d 51bd 42b2 18be
00000290: 5802 12be 2efd 063e b5b1 023c 52fa 493e
000002a0: e6dc 4fbe 1428 dfbd 16b1 893d e921 1f3d
000002b0: 48c8 383e 87a7 113e 8365 463d 51af 313e
000002c0: 1c33 79bd 0449 303e 29a5 dabb b4b2 583e
000002d0: 927c 1abe cdac 1e3e a1d1 55be 45d6 b93c
000002e0: debb 193e 66c2 0c3e 0cea 513e e64b 14be
000002f0: 739a c73b 7f8a 77bd 779c 223e 41a3 30be
00000300: d033 8f3c 1a79 e03d 8d4b 74bd 973f c3bd
00000310: 1baa bebc 3f66 b2bd 0947 3dbb 4e83 1e3e
00000320: 4935 b73d d2da 3e3e e38b 2a3e 1739 1b3e
00000330: 06f0 4a3e 6909 3abe cfd7 8bbd fedf 25bb
00000340: 14a9 bfbd 287c 34be af4c d83c cf06 603d
00000350: 3963 143e 2d75 253e 3b2e 15be d002 c4bd
00000360: cc9b 80bd ca33 de3d 390f 803b c27b d8bd
00000370: 47e7 073d 3776 c3bc 7405 33be 3079 3fbe
00000380: 7591 4bbe a4b0 f13c ecca f73c a4ad 943d
00000390: abd2 46be 52bb 373c dcfa 3abc 2667 2abe
000003a0: 5051 803d 220c 85bc baf1 313e 8e8a e1bd
000003b0: 3d2d 403e e67b 36be 2e80 e03d 5f14 0dbd
000003c0: ae14 b13c 1b41 dfbd d2b3 2fbd 24e9 babd
000003d0: 4a3e 293e 1e8e ec3d 5a1d a5bd 7f23 11bc
000003e0: 1180 373e ed59 463d 3fc7 36be 13fa dabd
000003f0: 136a 883c 4126 36be f358 cabc 8105 0b3e
-0.15571475 0.12985963 0.038691033 -0.10299558 -0.22848187 0.09443898 -0.05167822 -0.053295642
-0.1983077 0.15200686 0.21278457 0.0965872 -0.017595798 -0.17204268 -0.12798597 -0.13657866
0.044722576 0.0328001 -0.2513597 -0.10694668 -0.06769693 -0.0472442 -0.11632964 0.0053836317
0.1476234 -0.13778594 -0.1530958 -0.050327238 -0.057351515 -0.15925017 -0.007903805 -0.14165677
-0.17372848 0.13916251 0.140811 0.03886587 -0.08024644 0.018916689 -0.10394613 0.07034633
0.015938262 -0.11981768 0.13489914 -0.07997889 -0.22122446 0.12599729 0.07380716 -0.103118286
0.0043912726 -0.004667957 0.025480025 -0.0005603556 0.15051031 0.08868442 0.11010181 0.17663924
-0.14135806 0.19302166 0.030943299 -0.11546517 0.004775759 0.17437139 -0.0068988823 -0.064744234
-0.10904686 0.07407736 0.010446833 -0.12085049 0.064598985 0.11529369 -0.07334155 0.0029202418
0.004569391 0.08222816 0.10457153 0.054353114 0.15042534 -0.100682534 -0.037966352 -0.009593391
-0.13637064 0.15875198 0.12936859 -0.2648757 -0.084848806 0.20989765 -0.098768085 0.02235796
-0.11611416 -0.06987062 -0.030426264 -0.109101005 -0.058747035 -0.2472221 -0.067355275 0.026259681
-0.05375191 0.14915907 -0.00055318396 0.059880637 0.11571278 -0.12876377 0.17633589 0.07964627
-0.061504573 -0.14437202 -0.038291026 0.09380797 0.087759644 0.013426496 -0.20371802 0.10460259
-0.08450752 0.09235203 0.13030443 0.085747935 -0.079506524 -0.13622905 0.17504007 0.18518542
0.15096235 0.17119178 -0.08044374 0.19893388 -0.00054950104 -0.107536756 -0.16039284 0.040092807
-0.06297949 0.16260205 0.105689354 -0.07291684 -0.15612818 -0.12309004 0.1962732 -0.16622046
-0.14480639 0.03419521 -0.0024988637 0.07663032 -0.14260803 -0.13987705 -0.12587565 -0.08825502
0.17292954 -0.040458865 -0.08093718 -0.044193346 -0.0013489118 0.11764372 0.18976913 0.08262799
-0.020533774 -0.14414367 0.034734435 -0.0027866254 0.0845581 0.15523835 0.0074055027 0.15392591
0.112578854 0.089907244 -0.051084295 -0.1491175 -0.14258707 0.13182518 0.007976939 0.19724396
-0.2029911 -0.10896316 0.067232296 0.0388507 0.18045151 0.14224063 0.048436653 0.17352034
-0.060839757 0.17215353 -0.0066725207 0.2116192 -0.15086582 0.15495606 -0.20880748 0.02268518
0.15013072 0.13746032 0.20499438 -0.14482078 0.00609141 -0.060434815 0.15879999 -0.17249776
0.01748076 0.10960598 -0.059642363 -0.09533613 -0.023274472 -0.08710908 -0.0028881452 0.15479776
0.0894571 0.18638161 0.16654925 0.15158497 0.19818124 -0.18167652 -0.068282716 -0.0025310512
-0.09358421 -0.17625487 0.026403753 0.054693993 0.14490975 0.1615798 -0.14568417 -0.09570849
-0.06279716 0.10849722 0.0039080647 -0.1057048 0.033179548 -0.02386008 -0.17482549 -0.18698573
-0.19879706 0.029503174 0.030248128 0.07259682 -0.19416301 0.011214094 -0.011412349 -0.1664091
0.06265509 -0.016241137 0.17377368 -0.11012755 0.18767257 -0.17820701 0.10961948 -0.034443256
0.021616306 -0.1090109 -0.0428961 -0.09126499 0.16527668 0.11550544 -0.08062239 -0.008858561
0.17919947 0.048425604 -0.17849444 -0.10692229 0.016652143 -0.1778803 -0.024700617 0.13576318

bias f4 [66]
00000000: 7b91 7dbd 3214 e4bc 912f cdbd 3551 1cbd
00000010: e205 b23c 7cdc 8ebd 7f4f b43c f9e4 bc3d
00000020: a5c6 0a3e 1fb0 9f3d 22f0 3a3d 4fd7 2fbe
00000030: 421a 303e 3cee 283e e1b6 17bc 2b25 2c3e
00000040: 8f16 eabb 8f1c 3dbc 84e1 843d 7dda 903d
00000050: 3ce9 db3d 6c92 97bc b51c 233e b84c aebd
00000060: 3a66 3bbe b380 88bc ae0d ec3d 7779 043e
00000070: 74ae 70bd ff73 9e3d 1dd7 d1bd d7e0 3abe
00000080: b535 2f3e 1882 f13d 96a5 283e eb02 f93d
00000090: bf3f 093e fb42 3c3e 522a ecbd 79fb dabd
000000a0: 7d36 3e3b c575 623c dedf 013e 1767 8f3d
000000b0: bb9b 3e3e 3a04 293d 8872 23be 860c 34bd
000000c0: 7e4e ca3d b37f 303c d121 123e 22f8 113e
000000d0: ffab 6b3d cfff c7bd 6251 dc3d 4184 41bb
000000e0: 6acf 03be a447 c9bd 36ab fb3d cac4 08be
000000f0: 2fb2 1f3e 9d2a 20be d9e0 243d 7eda 99bd
00000100: a179 2dbe 3248 3cbc
-0.06190632 -0.027841661 -0.10018838 -0.038163383 0.02173132 -0.06975648 0.022010563 0.092233606
0.1355234 0.07797264 0.045639165 -0.17171977 0.17197517 0.16497129 -0.00925991 0.16811053
-0.0071438025 -0.011542453 0.06488326 0.07072923 0.10737845 -0.018502437 0.1592892 -0.08510727
-0.18300715 -0.016662931 0.11526047 0.1293696 -0.05876012 0.07736968 -0.10246108 -0.18249832
0.17110331 0.117923915 0.16469416 0.1215876 0.13403223 0.18384926 -0.115315095 -0.10692496
0.0029024177 0.013822024 0.12683055 0.07002085 0.18614094 0.041263796 -0.15961659 -0.043957256
0.098782524 0.010772633 0.14270712 0.14254811 0.057537075 -0.097655885 0.1075771 -0.0029528292
-0.12872091 -0.098281175 0.12288515 -0.13356319 0.15595315 -0.15641256 0.040253494 -0.07512377
-0.16940929 -0.011491822

weight f4 [248, 66]
00000000: 33ee 1a3d 1b36 adbd 0d6a 103e 0720 c4bd
00000010: cf32 4c3d 6ab2 b8bc 4909 c33c c396 aa3d
00000020: 128c 4ebc b8c6 613d 82bb debc 2983 a53c
00000030: 6877 b2bc 8c7c b43c 32a6 65bb eec0 e4bd
00000040: a7aa 1e3e 2c85 1f3e fa91 2ebd 040d 433d
00000050: 956f babb aefc 37bd 6362 da3c b244 9dbd
00000060: addc ad3d e234 6ebd d0d0 7fbd 8ce3 c93d
00000070: 5f8f 9cbc 47ea e23d d4db b83c d762 483b
00000080: c1e9 96bd febd a33d 1f26 c4bc 9247 5d3c
00000090: 407e e8bd 1b5a db3d 3da0 2c3c f687 2b3e
000000a0: 4e57 f53d 0e35 a53d 3c65 babd 055f f6bb
000000b0: 3ff5 06be 232d d83d dd11 64bc 6e7d 0abc
000000c0: e3ac 97bc af17 e43d a242 92bd efd3 0f3d
000000d0: 1a07 10bd 3c75 d63d e7e6 cb3b 2bf0 9c3d
000000e0: d4e0 02bc 7977 163e d150 eb3c 35aa 98bd
000000f0: a448 71bd 5fb8 92bc 399a cb3c 0e11 b93d
00000100: b370 2b3e 76da b73d 0642 43bd a026 a5bd
00000110: d030 c9bb f3d0 3b3d f97e 45bd 7469 fabd
00000120: e19d 4f3d 35ed 4cbc 0387 edbc 10fc 0d3c
00000130: 54fe 8d3d 6931 c8bd 656d 263d 498b e93d
00000140: 7110 78bc 2608 e23d 284e acbc 7fe2 54bd
00000150: 1264 573d c446 003d ffcd ce3c 966a 60b9
00000160: 91e0 f43c 1c9d 363d 5015 5dbd 0383 743d
00000170: d353 cb3d 601b 76bc 26e5 8c3d 7379 ba3d
00000180: 22d6 81bd 3dca 75bd 216d d5bc f712 5f3d
00000190: 7dc6 e0bc 0cc9 3ebd 3556 1b3d ea45 76bd
000001a0: 95fe c63d 5c4e 8ebd f084 4a3c d34b 26bd
000001b0: b73b c1bd daf3 46bb 6823 213d e7cd da3d
000001c0: 27ba dfbd d548 03be fc30 77bd 5a5e cdbd
000001d0: d904 f03d d03d d63d c956 953c 44ce 4539
000001e0: dd24 d9bd 63cf 893d fd00 803c 43aa 563d
000001f0: 9c5a e6bd 90fa d3bd 7d0b d7bd 09eb 28bd
00000200: e642 9c3b b042 b93c 1407 debc 4489 0abc
00000210: d164 b6bb 4e12 973c 29b9 ef3b c843 a03c
00000220: 01f9 7dbc 05de 8e3d 82d1 e5bc 46ba 39bc
00000230: fbce cfbd 7629 ab3d e497 acbd d498 d93d
00000240: dd4f e53d 26e4 dfbd 2ce7 e9bd 6cb7 4cbd
00000250: 06ad 2cbc 5ce5 96bd a680 033d 7271 4b3d
00000260: 0303 94bd 4131 713b c2fd f53d 48fd d93d
00000270: dfae b33d 69f0 3bbd 16fb 85bd af6f 783d
00000280: 7598 aebd fa43 093d 6403 193e accf d0bc
00000290: 7432 0d3e ace1 063d 3c1b 6abd 1f0b d13d
000002a0: 51ac d8bb 24c0 4a3c bada c6ba 0b5a 2e3d
000002b0: 71e5 f0bc e599 113e ec5d e03c 2d5c 843b
000002c0: 7657 e7bd 8eba aa3d 252b 083e 2d3f 05bd
000002d0: 0297 63bc 5a8b 82bc 1dd1 95bd d894 903c
000002e0: 3274 b2bd 05b1 07bd 2624 2bbd 0a02 dfbd
000002f0: 8bdd 1bbd b62c 2d3d 448b 68bd 4951 5dbc
00000300: 734a 0d3d 7de6 a23d 8a48 ce3d 57d0 113d
00000310: 7b54 b7bb 0e65 0ebe 158d b63c a475 76bd
00000320: 4b34 c33d b335 fb3d b8e6 893d 7d4b 0abe
00000330: 5241 cf3d 8ab6 e2bd e462 b8ba 3668 c7bd
00000340: fee8 bcbd 6b0c be3d f02e bd3d 87c1 073c
00000350: a1aa 2bbd 53f6 e03b 5cb3 d8bd 1e7e b43c
00000360: 4d2a fdbc d702 64bc 7452 e8bd 7930 99bd
00000370: 3b87 3b3d 2c16 0ebe 1524 47ba 31e4 83bd
00000380: 54c7 013e a589 d3bd d76d 0fbd ae94 c7bd
00000390: bb12 cd3d 2dea fabc d46b 543c aa78 5e3d
000003a0: 76e3 b4bc ddac c9bd 11bd 4d3d 8a12 0f3d
000003b0: 1f4a cabb bd6c d83c 912d 4dbd c855 dabd
000003c0: 35cf f9bc 4477 8e3c 6a12 503d 44ce f5bd
000003d0: c9ff b2bc befb 26bd 697c 77bd d233 92bc
000003e0: 82ba 16bd 01d0 46bc 09c2 c03b e1a6 bbbd
000003f0: 1ba8 89bd bd63 5abd 46ab 91bc c8a5 973d
0.03782482 -0.084575854 0.14102955 -0.09576421 0.049853142 -0.022546012 0.023808138 0.08329537
-0.012606638 0.055121154 -0.02718902 0.020204144 -0.021785453 0.022032045 -0.0035041687 -0.11169611
0.15494786 0.15578145 -0.042619683 0.047619835 -0.005689571 -0.04491871 0.026658243 -0.07679118
0.08489356 -0.0581559 -0.062455 0.09857854 -0.019111333 0.11079841 0.02256576 0.0030576491
-0.07368804 0.079952225 -0.023943959 0.013505833 -0.11352205 0.10710546 0.010536251 0.16751084
0.11979543 0.0806676 -0.0910134 -0.0075186514 -0.13179491 0.10555484 -0.013920275 -0.008452756
-0.018515056 0.1113733 -0.071416155 0.035114225 -0.035163023 0.104715794 0.006222594 0.07662996
-0.0079881735 0.14694013 0.02872506 -0.074543394 -0.058907166 -0.01791018 0.024853813 0.09036456
0.1674221 0.08977215 -0.047670387 -0.08064008 -0.006139852 0.045853566 -0.048216794 -0.12227145
0.050687674 -0.012507726 -0.028995043 0.008666053 0.06933275 -0.09775049 0.04063167 0.1140352
-0.015140639 0.110367104 -0.021033362 -0.051973816 0.05258567 0.031317487 0.025244711 -0.00021402011
0.029892238 0.044583425 -0.053975403 0.059695255 0.099280976 -0.015021175 0.06879644 0.09105196
-0.06339671 -0.060007323 -0.026053013 0.054461446 -0.027438397 -0.046578452 0.03792401 -0.06012527
0.097165264 -0.069485396 0.012360796 -0.040599655 -0.09435218 -0.003035775 0.039340407 0.10683804
-0.109241776 -0.12820752 -0.06034945 -0.10027762 0.117196746 0.104610085 0.018229859 0.00018864224
-0.10602734 0.06729009 0.015625471 0.052408468 -0.11247751 -0.103505254 -0.10500238 -0.041239772
0.004768717 0.022614807 -0.027102984 -0.008455578 -0.0055662175 0.018441346 0.007315774 0.01956357
-0.015501262 0.069759406 -0.028054003 -0.011335915 -0.101469 0.083575174 -0.08427408 0.10624853
0.11196873 -0.10932188 -0.11421046 -0.049979612 -0.010539299 -0.073679656 0.03210511 0.049668737
-0.07227137 0.003680304 0.12011291 0.10644013 0.087735884 -0.04588357 -0.065420315 0.060653385
-0.085251726 0.033512093 0.149427 -0.02548965 0.13788778 0.03293006 -0.05715488 0.10207199
-0.0066123386 0.012374911 -0.0015171387 0.04256634 -0.029406281 0.14218862 0.027388535 0.0040393085
-0.11295979 0.08336364 0.13297708 -0.032530952 -0.013890984 -0.015935589 -0.07315276 0.0176491
-0.08713569 -0.033127803 -0.04178252 -0.10889061 -0.038053077 0.042278968 -0.05677344 -0.013508149
0.03449483 0.079541184 0.100724295 0.03559908 -0.0055947877 -0.13905737 0.02228407 -0.060170785
0.095314585 0.12266102 0.06733459 -0.13505359 0.10119881 -0.11069973 -0.0014067558 -0.097366735
-0.09224127 0.09279712 0.09237468 0.008285887 -0.04191077 0.0068653016 -0.10581085 0.022032794
-0.03090396 -0.013916693 -0.11343852 -0.074799486 0.045783263 -0.13875645 -0.0007596624 -0.064400084
0.12673694 -0.10328988 -0.03501686 -0.09745155 0.10013338 -0.030629242 0.012965161 0.054314293
-0.022081118 -0.09847424 0.050229136 0.03492979 -0.0061733867 0.026419038 -0.050092284 -0.10660893
-0.030494312 0.017390855 0.05079881 -0.12002233 -0.021850483 -0.040767424 -0.06042138 -0.017846975
-0.03679896 -0.012134553 0.005882506 -0.09162689 -0.06721517 -0.053317774 -0.017781865 0.07404667

bias f4 [248]
00000000: 524b c83d 9c4a 233d 05e0 b73d 4c57 bb3d
00000010: 796b c1bd 14dc b1bd 5ed1 973d 0676 01bc
00000020: 4443 75bd ed3e ccbc 293d b6bd 2850 89bd
00000030: 3da0 053d 7523 f3bd 7b64 15bd adb0 80bd
00000040: ff45 07bd ed34 abbd 52ed 833d 0527 e1bd
00000050: 4cf8 94bc f32c 19bd fa46 b23d 32d9 6dbd
00000060: 4aa4 ccbd 9c9d ddbc 1651 873c 6189 cfbd
00000070: 7352 2dbc 91d9 153d e612 ddbd 8c1b 56bd
00000080: 63ac 0d3b 6ddb cebd 702e c23d ab69 963d
00000090: 38aa a03c 8a45 c3bc 5226 95bd 5f9b 4c3d
000000a0: c293 113b e3ef 85bd 56fd 9cbd 6ced 083e
000000b0: 16f1 9a3c d7b5 023e ed0e d0bd d083 d5bd
000000c0: 7e39 cb3d a23d 08bd 0b70 bc3c aa97 c5bd
000000d0: 7ee0 9b3d 5373 1cba b545 bfbd 15df 8cbd
000000e0: e700 313c 8f93 903d 9f99 e73d cb24 17bc
000000f0: 5c35 0a3e adb1 e03d 0940 c23d 94f1 8cbd
00000100: 818c 5b3d e48b cdbd 2a3e 283c b078 58bd
00000110: 8cd1 0a3d 8817 a13d 57b3 413d c95e 4cbd
00000120: 400a 073e 2526 a3bd d1e8 9ebd d49d a33b
00000130: d998 dd3d 5cb0 373d 57a9 ee3d cd13 103d
00000140: 8c10 543d 5376 8d3c ba0e 12bd ce02 f13c
00000150: df90 693d 827c 963d 55ac 633d ec5e bbbd
00000160: 7d48 5cbd 5f3c d53d 9b66 83bc b6e0 8a3b
00000170: f8a3 b9bc 0eba e93b b516 a83d 84ad a63d
00000180: e6c6 6cbd 322f 91bd 4e64 4d3c 66a3 70bd
00000190: a783 c2bd 6b14 7e3d 282d 5f3d 5c96 3dbc
000001a0: bf07 b1bc 1ece c63d 19a4 ef3d 2081 083e
000001b0: 4ea3 013e 3c02 6e3d c85b 17bd 2b0f 333d
000001c0: f315 17bd b884 48bd c31f 9fbb d6b0 b03d
000001d0: b35c eebc 78c5 9dbd 2bab fd3a 15b8 d8bd
000001e0: 24c9 8abd 6453 b6bd d585 41bd 8a9c bd3d
000001f0: f740 d53d 37c0 133d c334 6abd b1a1 a7bd
00000200: c328 98bc 0d7c 933c 7b7a 8bbc 25e1 2bbd
00000210: 5f7f 873d 6035 053e b089 4c3d 86f6 323d
00000220: f3b5 a03c 54fa c13d 5ada 4bbc bbfa 983d
00000230: 2c21 8dbd 761b d03c 2ef7 c6bc 64af 9ebd
00000240: 89e0 7abd d5ad 06bd aeac 213d 67e8 903d
00000250: 0c67 96bd 2099 e6bd 9807 30bd a01c 043d
00000260: b82f 003e 353b 663d f37a 49bd 1626 313d
00000270: b68e 0d3e 3080 053e 3de5 8a3c d6d0 213d
00000280: 5ab7 853d d5d4 f23c d2d2 473d 6715 9bbd
00000290: 973b ba3c ad56 003d 2441 923c 68c4 833d
000002a0: a089 05bd ae41 c03d 5c5c d83c 14cd e63d
000002b0: fb82 c93d 2471 5d3d c85c 7939 009d 4bbd
000002c0: 3c91 573c f0e0 933b bc03 ff3d cb13 49bd
000002d0: 18f0 e83c 812a bd3d dc51 eabc 93a4 a13c
000002e0: 7e33 843b 1263 18bd 6f44 7d3d 4702 fb3c
000002f0: 6631 abbd 1e4d 93bd 263d 003d 3bd1 4b3d
00000300: 6609 b83d 7f73 88bc d02c 8cbd 2b8b 853d
00000310: b94d 57bd 5bf5 9c3d 7089 b9bd a08a 0e3d
00000320: 59d3 86bd 9359 7a3d 8e94 693d ba97 543d
00000330: 8138 1d3d 113a 933d e6e5 72bc 08e7 9abd
00000340: 696a 06bd fc70 cf3d 63a1 ccbd 7fc2 043e
00000350: 9e41 d0bd 38a3 52bd 39b6 413d a430 bfbd
00000360: 9a18 c43d b9cb 6abd dd81 523d f79e bc3c
00000370: 991d ebbc 12e9 61bb 7a42 ed3c 2189 a43d
00000380: 1df1 68bc 3e81 403d 2e4d cbbd 06b0 c83d
00000390: 8ea5 90bd 3346 4bbd e535 7dbd a9b2 933d
000003a0: f12f bb3d f917 963d e2d4 9fbc 7f49 cfbd
000003b0: efe0 cfbd 541d 7e3d 71c1 a8bd 605c 8d3d
000003c0: 6e00 683d ea5c afbd 11f9 a33d 3dde cfbd
000003d0: e848 55bc 3835 923d 7b54 453d 9316 b1bd
0.09779991 0.039866075 0.08978275 0.0914751 -0.09444327 -0.08684555 0.074129805 -0.007901674
-0.059878603 -0.02493235 -0.08898384 -0.06704742 0.03262352 -0.11871997 -0.03647278 -0.06283698
-0.033025738 -0.08359704 0.0644175 -0.109937705 -0.018184803 -0.037396383 0.08704944 -0.05806846
-0.09992273 -0.027052693 0.016518157 -0.10133625 -0.010578739 0.03658444 -0.1079462 -0.052272364
0.0021617643 -0.10100446 0.094815135 0.07344373 0.019612417 -0.02383687 -0.072827 0.04995286
0.0022213315 -0.065398954 -0.076655075 0.1337182 0.018913787 0.12764679 -0.10159097 -0.10425532
0.09923075 -0.033261903 0.023002645 -0.09648068 0.07611178 -0.00059681124 -0.093394674 -0.06878487
0.010803438 0.070593946 0.11308598 -0.009225081 0.13496917 0.10971389 0.0948487 -0.06882015
0.05360079 -0.10036448 0.010268727 -0.05284947 0.033891246 0.07865816 0.047290172 -0.04989508
0.13187504 -0.0796626 -0.0775925 0.00499318 0.10820169 0.044845924 0.11653393 0.035175133
0.051773593 0.017268335 -0.035658576 0.029420283 0.057022925 0.07347967 0.05558427 -0.09148964
-0.053780068 0.104119055 -0.016040137 0.0042382134 -0.022661194 0.007132775 0.08207456 0.08138564
-0.05780687 -0.0708908 0.0125361215 -0.05874958 -0.09497767 0.06203119 0.054486424 -0.011571493
-0.021610139 0.097072825 0.11701221 0.13330507 0.12659952 0.0581076 -0.036952764 0.043715637
-0.036886167 -0.048954695 -0.004856081 0.08627479 -0.029096937 -0.0770368 0.001935338 -0.10581986
-0.06776646 -0.08902624 -0.047246773 0.09258373 0.10412782 0.036071982 -0.057179224 -0.08185137
-0.018574124 0.018003488 -0.017026177 -0.04196276 0.06616091 0.13008642 0.049935997 0.043692134
0.01961801 0.094715744 -0.012442196 0.07469698 -0.06891093 0.02540372 -0.024287786 -0.07748297
-0.06124929 -0.032880623 0.03947132 0.07075577 -0.073438734 -0.11259675 -0.042975992 0.03225386
0.12518203 0.056208808 -0.04918952 0.043249212 0.13823971 0.13037181 0.016955012 0.039505802
0.06529112 0.029642502 0.04878504 -0.075724415 0.022733493 0.03133266 0.017853327 0.06433946
-0.032601953 0.093875274 0.026411228 0.11269584 0.09839436 0.054062977 0.00023781054 -0.049710274
0.013157185 0.0045128986 0.12451884 -0.04909114 0.028434798 0.092366226 -0.028603487 0.019731795
0.0040344587 -0.037203856 0.06183284 0.030640734 -0.083590314 -0.07192443 0.031308316 0.049760085
0.089861676 -0.016656635 -0.06844485 0.06520685 -0.052564356 0.07663985 -0.09059417 0.03480017
-0.0658328 0.06112058 0.05702644 0.05190251 0.038383964 0.0718881 -0.01482532 -0.07563597
-0.032816324 0.10128972 -0.099917196 0.1296482 -0.101687655 -0.05142519 0.04729292 -0.09335449
0.09575005 -0.05732319 0.05139338 0.02302502 -0.028700637 -0.0034471196 0.028962363 0.08033968
-0.014217642 0.046998255 -0.0992683 0.09799199 -0.07062827 -0.049627494 -0.061818976 0.07211811
0.091400035 0.07328791 -0.01951069 -0.1012144 -0.101503246 0.06203969 -0.08240021 0.06902385
0.056641035 -0.08562644 0.0800649 -0.101498105 -0.0130178705 0.07139057 0.04817627 -0.08646884

weight f4 [1, 248]
00000000: ec64 08bd 9cdf 793d e22a 77bd 5b61 9c3d
00000010: 93d9 48bd e7b0 4ebd d3a8 853b 3edf 06bb
00000020: db92 0dbd 8e39 4abd ab82 8fbd b5d6 0fbd
00000030: 6825 6c3d 307e 3a3d b393 3d3d 7dc0 3d3d
00000040: e8c0 88bd 432f 84bd 9dfd 11bd f907 5cbd
00000050: f1c0 1dbd d40e 023d 3e86 42bd 2937 acbc
00000060: aa15 12bd aac9 1dbd f457 87bd 6441 f23c
00000070: a4b4 ad3d 11cf 283d d074 eabc 0312 6a3d
00000080: 550c 833d 6290 753d ef54 353d 50f4 ccbc
00000090: 50c0 97bd d86b 6cbc aed6 693c 2d9f 10bd
000000a0: d0c4 6e3d 7eb3 133d 9f7e 9a3c 481a 0bbd
000000b0: 0f17 943c 3449 92bd 4290 2cbc b994 563c
000000c0: 6a3c 673d f8a7 5e3c e8ef c4bc c3a1 84bd
000000d0: 67d4 63bd 60a8 ed3c 58f3 5fbd 1eed 0b3d
000000e0: c555 74bd dd30 33bd 254b 8cbc f44a f4bc
000000f0: 615b 9abd 9c07 71bd 00d7 0e3c 0ceb fb3c
00000100: 0bd5 583d 2191 a23c b11b bebc 587a 693d
00000110: 7a49 adbd aaac 42bd e598 65bd 15e5 d13b
00000120: 2ba5 56bd ec45 5fbd d128 81bc 452f 31bd
00000130: 8185 80bd 9c86 4cbc 8de5 823d 77ad bb3c
00000140: 502d 60bd 5fca 83bd 90d1 0e3d e803 bd3c
00000150: f0cc b53c 6efc 043d 0afe 49bd b2a2 3f3d
00000160: a7ee 0a3d 643f 07bd f145 80bc fddc c43c
00000170: 0195 99bd 20c8 6b3c 40b5 dd3c e5e9 0ebd
00000180: a70e 89bd d080 c7bc 5d7e 91bd 7e36 18bd
00000190: 7601 4bbb 26e9 d9bc 869a 69bd da61 ba3c
000001a0: 17a3 b53c 6aa8 8bbd 2184 933d cb76 62bd
000001b0: e3bb 5b3d 5a2c e93c f3f3 1d3d 42ba 11bd
000001c0: 9577 7f3d d009 4e3d 4272 25bd b073 b23c
000001d0: 5b9d 083d 1e91 253d 6bd8 663d a718 c43c
000001e0: 7243 7dbd 8ab9 183d 347e 5fbc 3ef7 01bd
000001f0: a976 2d3d 30aa 6b3d 43a0 873d 9ae0 1bbd
00000200: 600c 733d 8c5e 483d 08d4 443d 756a 15bd
00000210: c93d 4b3d 2d9f a5bd f52b 64bd c006 a6bd
00000220: bcda 923d 86f0 91bd b9b2 5dbd 05b6 b73c
00000230: fa8d c53c 4f85 2bbd 6c7b 58bd 8a8a 5e3d
00000240: 04a9 33bd ed02 b93c 08f1 173d 83e1 643d
00000250: 2cc3 423d 5d73 0e3d 81ba 31bd d8a1 8ebd
00000260: 2438 32bd 62ee ec3c 8dea 8abd f29c 3bbd
00000270: e6e7 98bd 3a9e 2bbd 37a5 273d 87d1 753d
00000280: 4ab4 56bc 4b5b 93bc 0fd4 183d ebb9 3f3d
00000290: e09e 98bd a141 593d 92c2 603d b6f7 373d
000002a0: ca9a efbc 7039 a3bd 0277 a63c cb1d b03c
000002b0: e67e 153d 6005 a83c 3fca 373d ceaa 6bbd
000002c0: 154e b83c 1ba1 21bc 7cb2 303d dd40 afbd
000002d0: 3447 f63c 411d 17bd 1ced 343d 8db7 1abd
000002e0: 5fa6 b1bb e0b2 1d3d 9926 3c3c 5581 ed3c
000002f0: 0cfc 36bd 67b4 b4bd 74bf 6d3d 4a3d 2c3d
00000300: f8e1 62bd e022 89bd 9bda f9bb 17cb 2b3d
00000310: 2dbb 27bd d9bf b7bd 2645 df3c 7acf 9fbd
00000320: 88fc 7b3d 50a9 183c a60a 73bd a363 ec3c
00000330: 17c2 1ebd 804a 3b3d 1a2b c43b c482 3e3d
00000340: f6db 2bbd dbe0 0e3d 9d52 153c 230b 5ebd
00000350: 2dae 8bbd 9115 10bc f16e 32bd 145e 1f3d
00000360: bd76 173d edbc 5b3d 2e19 16bd 11f7 e43c
00000370: 02e7 1fbd 908f 493d 1322 90bd 242b 51bd
00000380: d54c 26bd 9f26 393d c2a1 6abd b499 533d
00000390: 3720 28bc 101c 8c3d f08d 783d 5f19 963d
000003a0: 629b 86bd 9f5d 8ebd 6469 563c 7c2f c4bc
000003b0: 12e2 303d 7af5 fdbc fb16 49bd 9fa6 09bd
000003c0: 2c51 a93d 8b72 aebd 3820 6e3d 8edd 3d3b
000003d0: 899f 52bc 71a0 f13c 9130 26bd 67f3 2fbd
-0.03329937 0.061004266 -0.06034363 0.076357566 -0.04903562 -0.050461676 0.0040789633 -0.002057984
-0.03456388 -0.049371295 -0.07007345 -0.03511687 0.05765286 0.045530498 0.046283435 0.04632615
-0.06677419 -0.06454327 -0.035642255 -0.05371854 -0.03851408 0.031752422 -0.047491305 -0.021022396
-0.03566519 -0.0385224 -0.066085726 0.029572196 0.0848172 0.0412131 -0.028620154 0.057146084
0.063988365 0.059952147 0.044270452 -0.025018841 -0.074097276 -0.014430009 0.014272375 -0.03530805
0.058293164 0.03605985 0.018859206 -0.03396061 0.018077401 -0.07142869 -0.010532441 0.013096982
0.0564541 0.013589852 -0.024040177 -0.06476166 -0.055622485 0.029010952 -0.05467543 0.03416168
-0.05965211 -0.04374777 -0.017125675 -0.029820897 -0.075369604 -0.058845147 0.008718252 0.030751728
0.05293755 0.019844593 -0.023206564 0.05700144 -0.0846128 -0.047527947 -0.056054015 0.0064054825
-0.05240361 -0.054510042 -0.015766533 -0.04325797 -0.06275464 -0.012483265 0.063914396 0.022909863
-0.054730713 -0.064350836 0.034867823 0.023073152 0.022192448 0.0324673 -0.049314536 0.046786018
0.033919003 -0.03301944 -0.01565835 0.024031157 -0.07499123 0.014390975 0.027063966 -0.034891028
-0.06692248 -0.024353415 -0.0710418 -0.037161343 -0.0030976213 -0.026600432 -0.05703213 0.022751737
0.022172494 -0.06819232 0.07202936 -0.05528907 0.05364598 0.028463531 0.038562726 -0.03557802
0.0623699 0.050302327 -0.040392168 0.02178368 0.03335319 0.040421598 0.056358736 0.023937536
-0.0618319 0.03728632 -0.013640929 -0.03172993 0.04234949 0.05753535 0.06622364 -0.038055994
0.059337974 0.048918292 0.04805377 -0.03647848 0.04961947 -0.08087001 -0.055705983 -0.08106756
0.071706265 -0.07125954 -0.05412552 0.02242566 0.024115551 -0.04187518 -0.05285208 0.05433134
-0.043862358 0.022584403 0.0370951 0.055879127 0.04754941 0.034777988 -0.043390755 -0.06964463
-0.04351057 0.028922264 -0.06783018 -0.04580397 -0.07466106 -0.041898943 0.040929046 0.060014274
-0.013104508 -0.017987868 0.03731161 0.046808165 -0.07452178 0.053041104 0.054873057 0.04491397
-0.029248614 -0.0796994 0.02032042 0.021498581 0.036497973 0.020510375 0.04487061 -0.05753594
0.02249817 -0.009865071 0.043138966 -0.085572936 0.03006325 -0.036893133 0.044171438 -0.037772704
-0.0054214443 0.038500667 0.011483812 0.028992334 -0.044673964 -0.088234715 0.058043912 0.042050637
-0.05539128 -0.06696105 -0.0076249368 0.04194173 -0.04094999 -0.08972139 0.027254652 -0.07803245
0.06152013 0.009317711 -0.059336327 0.028856104 -0.038759317 0.045725346 0.0059865834 0.046511427
-0.041957818 0.034882408 0.009113935 -0.05420984 -0.06820331 -0.008794204 -0.043562833 0.03890808
0.036978472 0.05364697 -0.036645107 0.027949842 -0.039038666 0.049209177 -0.07037749 -0.051066533
-0.040600616 0.045202848 -0.05728317 0.051660255 -0.010261587 0.0684129 0.060682237 0.07329058
-0.06572606 -0.069514506 0.0130866505 -0.023948424 0.043184347 -0.031000841 -0.04909418 -0.033606168
0.082674354 -0.08517941 0.058136195 0.0028971168 -0.012855419 0.02949545 -0.04057366 -0.042956736
