mlruns/335624475037764607/models/m-2e5e94727d464ecdaad2163eb3228806/artifacts/data/model.pth (torch, 30781 bytes, 5 tensors)

weight f4 [64, 25]
0	0x3e87816c	0.2646593
1	0x3e4acbc1	0.19804288
2	0xb9a1a40a	-0.00030830532
3	0x3eb54dfb	0.35411057
4	0xbd11d64c	-0.03560476
5	0xbcf53c1b	-0.029935887
6	0x3c3ad834	0.011404086
7	0x3d8483fc	0.064704865
8	0x3e2bf758	0.16793573
9	0xbd662717	-0.056189623
10	0x3ddefc57	0.10887974
11	0x3e6eed37	0.23332678
12	0x3e92f6d4	0.2870394
13	0x3e1c79b2	0.15280798
14	0x3d5ea20c	0.05435376
15	0xbd78c37f	-0.060733315
16	0x3d96980b	0.07353219
17	0x3da581e9	0.08081419
18	0xbd261911	-0.04055125
19	0x3e792493	0.24330358
20	0xbe49e021	-0.19714405
21	0x3e0f2cc8	0.13981926
22	0xbdf2d0cb	-0.1185623
23	0x3ea83a4f	0.32856986
24	0xbdb35d4a	-0.08758028
25	0xbccc9ad7	-0.024976177
26	0x3cea3a43	0.028592234
27	0x3b2a8e28	0.0026024673
28	0xbe501890	-0.2032187
29	0xbd816134	-0.06317368
30	0x3d969223	0.07352092
31	0xbea54f8f	-0.3228726
32	0x3de5b6d4	0.11216512
33	0x3de2c219	0.110721774
34	0xbd29075a	-0.041266777
35	0x3db38a4c	0.087666124
36	0x3e0d3e5b	0.13793318
37	0x3e8927a1	0.26788047
38	0x3d896e14	0.06710449
39	0xbc5fdd52	-0.013663607
40	0xbd82fca0	-0.06395841
41	0xbde198a1	-0.1101544
42	0x3da69ad9	0.081350036
43	0x3e86fa3e	0.26362795
44	0x3e36c8f7	0.178501
45	0xbdc6cb78	-0.09706777
46	0x3e13139e	0.14362952
47	0x3cbac3bc	0.022798412
48	0x3e555463	0.20832972
49	0xbc727cd4	-0.014800269
50	0xbdde157b	-0.10843941
51	0xbdb8e09c	-0.09027216
52	0xbd134638	-0.035955638
53	0x3d3852ef	0.045000967
54	0x3e53684a	0.20645252
55	0xbca46d6e	-0.020071711
56	0x3e53101e	0.20611617
57	0xbd5bbff8	-0.053649873
58	0x3e8594fb	0.26090226
59	0xbd00458f	-0.031316336
60	0xbddcd515	-0.1078283
61	0xbe17e1e8	-0.1483227
62	0x3dfa8b33	0.122335814
63	0x3b81d60b	0.0039622835
64	0x3dac868d	0.08424101
65	0xbd2b22a2	-0.041781075
66	0x3d971a99	0.0737812
67	0xbe2d1987	-0.16904269
68	0xbe40f4d7	-0.18843399
69	0xbb01d35c	-0.0019809818
70	0x3e340d5c	0.17583221
71	0x3e23d971	0.16000916
72	0x3ec90b56	0.3926646
73	0xbe351d64	-0.17686993
74	0xbdc380ee	-0.09546076
75	0xbe26feff	-0.16308211
76	0xbe4fb963	-0.20285563
77	0x3e1a10af	0.15045427
78	0xbdf9ba4c	-0.121937364
79	0x3e0f5599	0.13997497
80	0xbdafdd52	-0.085871354
81	0xbe504a7c	-0.20340914
82	0x3d98bbbb	0.07457682
83	0xbe177a66	-0.14792785
84	0x3e3d6a96	0.1849769
85	0xbe2030de	-0.15643641
86	0x3e5a11bd	0.21295829
87	0xbe91c1f0	-0.28468275
88	0xbd5fc2fd	-0.054629315
89	0x3d3ce506	0.04611685
90	0x3e09f6f3	0.1347311
91	0xbd7b474d	-0.061347295
92	0x3e559c5d	0.20860429
93	0x3da25fd0	0.07928431
94	0xbe84a7bb	-0.25909218
95	0xbe4f6ec9	-0.20257105
96	0x3e28acaf	0.16472124
97	0xbe51e637	-0.20497976
98	0x3ce27a77	0.027646286
99	0xbe57feae	-0.21093246
100	0xbe189d03	-0.14903645
101	0x3e0395de	0.12850139
102	0xbdf15a3b	-0.11784788
103	0xbe58b471	-0.21162583
104	0xbe78aa20	-0.24283648
105	0xbe304894	-0.17215186
106	0xbe1041b7	-0.14087568
107	0xbd3b5c00	-0.045742035
108	0xbe9c1262	-0.30482775
109	0xbe2d9bbf	-0.16953944
110	0x3e978775	0.29595533
111	0x3c9ec3cc	0.019380473
112	0x3e5bd0ad	0.21466322
113	0xbd2d0c0e	-0.042247824
114	0xbd86f4c2	-0.065896526
115	0x3d0529a6	0.032510422
116	0x3d44a016	0.048004232
117	0xbe2523e8	-0.16126978
118	0xbe949fcb	-0.29028162
119	0xbe32478b	-0.17410104
120	0x3e244f7c	0.16045946
121	0xbd96590d	-0.07341204
122	0x3d41daaa	0.047327675
123	0xbe1d9d63	-0.1539207
124	0xbdd05ebc	-0.10174319
125	0xbdc2268b	-0.09480008
126	0xbd9f722a	-0.07785447
127	0xbe6f8367	-0.2338997
128	0x3e21b420	0.15791368
129	0xbddaa904	-0.106767684
130	0x3e7ea396	0.2486709
131	0xbb8d0484	-0.004303517
132	0xbe734a11	-0.23758723
133	0x3d9f4b6b	0.07778057
134	0x3d40a505	0.047032375
135	0xbe279dab	-0.1636874
136	0xbe0ea8aa	-0.13931528
137	0xbe3592bf	-0.1773176
138	0x3dd08340	0.10181284
139	0xbdede733	-0.116163634
140	0x3d2af360	0.041736007
141	0xbe5481de	-0.20752665
142	0x3d1a8296	0.037722193
143	0xbdc937ce	-0.09825097
144	0x3dc5a05a	0.09649725
145	0x3d87967f	0.06620502
146	0x3e86a0c9	0.26294544
147	0x3deacdbf	0.11465024
148	0x3e55e76e	0.20889065
149	0xbe70d1fa	-0.235176
150	0x3c3d91dc	0.01157042
151	0xbdbd11c1	-0.09231902
152	0xbde20de0	-0.11037803
153	0xbe215298	-0.15754163
154	0x3e89f7aa	0.26946765
155	0xbddfefd1	-0.10934413
156	0x3e4ddd22	0.20103887
157	0x3dd9a77b	0.106276475
158	0x3de35500	0.11100197
159	0xbde244b7	-0.110482626
160	0x3e4afb0a	0.19822326
161	0xbcd24b5a	-0.025670696
162	0x3e0492c5	0.12946613
163	0xbe9cc6e8	-0.30620503
164	0x3da15954	0.07878366
165	0x3c533065	0.012889956
166	0xbe848b4e	-0.2588753
167	0x3e0b89f9	0.13626851
168	0x3e5b4f03	0.2141686
169	0xbe477a2d	-0.194802
170	0xbd717c6c	-0.05895655
171	0xbe155fbb	-0.145873
172	0x3deb6f02	0.114957824
173	0xbdf73fee	-0.120727405
174	0xbe1b32cc	-0.15156096
175	0xbde10630	-0.10987508
176	0xbe29a4a5	-0.16566713
177	0x3d543e3f	0.051817175
178	0x3e806b41	0.25081828
179	0xbe90060c	-0.28129613
180	0x3dd5abe6	0.10433178
181	0x3e713804	0.23556525
182	0x3d92f213	0.07175078
183	0xbda10a5c	-0.07863304
184	0x3dbd81ec	0.09253296
185	0x3e0edbc0	0.13951015
186	0x3d86b4c7	0.06577449
187	0xbdc82385	-0.097724
188	0xbe0b14e1	-0.13582183
189	0x3d22e0af	0.039765056
190	0x3cad5f26	0.021163534
191	0x3dc03270	0.0938462
192	0x3e5d7b2c	0.21629018
193	0x3e269a58	0.16269815
194	0x3d7bee08	0.0615063
195	0xbd1643d5	-0.036685783
196	0xbcace906	-0.021107208
197	0xbb2ffffe	-0.0026855464
198	0x3d20095b	0.039071422
199	0xbaf08334	-0.0018349648
200	0xbe5fa512	-0.21840313
201	0xbc3494cd	-0.011021805
202	0x3e33d3d4	0.17561275
203	0x3dc42a22	0.09578349
204	0x3d6ca5dd	0.057775367
205	0xbd6ef49c	-0.058338746
206	0xbdd0e86c	-0.10200581
207	0xbe32a3b7	-0.17445265
208	0xbc894a11	-0.01675895
209	0xbd93b23a	-0.072117284
210	0x3df17b40	0.11791086
211	0x3e15e8ff	0.14639662
212	0xbebb4277	-0.36574146
213	0x3d0252b1	0.031817142
214	0xbbd37908	-0.006453637
215	0x3e1fafdb	0.15594427
216	0x3e276b55	0.16349538
217	0xbe03a48d	-0.1285574
218	0x3e2af09f	0.16693352
219	0xbdaaf60a	-0.083477095
220	0xbe58e28d	-0.21180172
221	0x3e46a321	0.19398166
222	0xbe42a255	-0.19007237
223	0x3c64c833	0.013963747
224	0xbe85bc7a	-0.2612036
225	0x3d8ef185	0.0697966
226	0x3dd2c433	0.10291328
227	0x3e39518b	0.18097512
228	0xbe883456	-0.2660243
229	0xbe96d3ab	-0.29458365
230	0xbe6aea92	-0.22941044
231	0x3e0c88a8	0.13724005
232	0x3d6979ba	0.057000853
233	0x3e0b19d6	0.13584074
234	0x3dca00df	0.098634474
235	0x3d4da08e	0.050201945
236	0x3ce06c97	0.02739553
237	0xbe6f170b	-0.23348634
238	0xbde3dbe8	-0.11125928
239	0xbdfe9814	-0.1243135
240	0xbc8f23c3	-0.017473107
241	0xbddd7aa2	-0.10814406
242	0xbc897b76	-0.016782504
243	0xbe82571c	-0.25457084
244	0xbc8d718e	-0.017266061
245	0xbd68823e	-0.056764834
246	0xbdea008b	-0.11425885
247	0x3e121f7b	0.14269821
248	0xbcf67565	-0.030085275
249	0x3e430390	0.19044328
250	0x3c85337b	0.0162599
251	0xbdc74703	-0.09730341
252	0x3d485509	0.04890922
253	0x38f7e3e6	0.00011820327
254	0x3d185346	0.03718879
255	0xbe31ce2b	-0.17363803

bias f4 [64]
0	0xbe551be1	-0.20811416
1	0x3dc59175	0.09646884
2	0xbe9f9c1c	-0.3117379
3	0xbd25b044	-0.040451303
4	0xbcda4426	-0.026643824
5	0x3dde47cf	0.1085354
6	0xbda85b9f	-0.082206
7	0xbcb04614	-0.02151779
8	0x3d303bc2	0.04302574
9	0x3dfea270	0.12433326
10	0xbd93e955	-0.07222239
11	0x3ce5356c	0.027979575
12	0xbdb0a0bd	-0.086244084
13	0xbe078330	-0.13233638
14	0x3e2098d3	0.15683298
15	0xbd6313b1	-0.0554387
16	0xbe2c7ad7	-0.16843735
17	0x3ce91c9c	0.028456025
18	0x3e068727	0.13137494
19	0xbd43b498	-0.04777965
20	0xbdbb8a72	-0.09157266
21	0xbcc30034	-0.023803808
22	0x3e2f28c4	0.17105395
23	0xbc1c1897	-0.009527347
24	0x3e06eab9	0.13175477
25	0xbcc0b664	-0.02352447
26	0x3e1904e9	0.1494328
27	0xbe399e0a	-0.18126693
28	0x3c8b60ad	0.017013872
29	0x3d80f03d	0.06295822
30	0x3e73d1a3	0.23810439
31	0xbe532dc7	-0.20622931
32	0xbe2f3adf	-0.17112301
33	0xb816ed60	-3.598386e-05
34	0xbe6a8361	-0.2290168
35	0xbeaf2b7e	-0.3421287
36	0xbe46cd4d	-0.19414254
37	0xbd3bc0dc	-0.045838222
38	0x3d9fbb8e	0.07799445
39	0x3d0ffbf8	0.035152406
40	0xbd3a0731	-0.045417015
41	0x3dac3c0d	0.08409891
42	0xbe4f24bb	-0.20228855
43	0xbc6642fd	-0.014054057
44	0xbd9215db	-0.07133075
45	0xbe429b22	-0.19004491
46	0x3df5f73c	0.12010047
47	0xbe0fda53	-0.14048128
48	0xbd07063b	-0.032964926
49	0xbe183205	-0.14862831
50	0xbd32a7a5	-0.04361691
51	0xbe25f759	-0.16207637
52	0x3c9dece7	0.019278003
53	0xbe075bf9	-0.13218679
54	0x3de20cc3	0.1103759
55	0xbe80ebd2	-0.25179917
56	0x3df0d1c1	0.117587574
57	0xbe33532e	-0.175122
58	0x3c1afbea	0.009459475
59	0xbcd28f0e	-0.02570298
60	0x3ba3834d	0.0049900175
61	0xbce670e4	-0.028130002
62	0x3d85df2d	0.06536708
63	0x3d95e246	0.07318549

weight f4 [64, 64]
0	0xbe8a5722	-0.27019602
1	0x3c26e129	0.010185518
2	0xbd60b909	-0.054863963
3	0x3cb6f95c	0.0223357
4	0x3d613ecb	0.054991525
5	0x3d252692	0.040319987
6	0xbe34158a	-0.17586342
7	0x3e0201e1	0.12696029
8	0xbd11c247	-0.035585668
9	0x3d794bc6	0.06086328
10	0x3d394cb1	0.045239154
11	0x3d2bec76	0.041973554
12	0x3db918c9	0.090379305
13	0xbd8a2c85	-0.06746773
14	0x3db39d66	0.08770256
15	0xbd1f0aab	-0.038828533
16	0xba693c0e	-0.00088971935
17	0xbc56cc86	-0.013110286
18	0x3db6e27e	0.08929919
19	0x3db08a5e	0.086201414
20	0xbb29a572	-0.0025885967
21	0x3ceaebee	0.028676953
22	0xbe0bbdf8	-0.13646686
23	0xbc4606f2	-0.012086617
24	0xbdc748fa	-0.09730716
25	0x3d8c614d	0.06854496
26	0xbc6c9a9f	-0.014441161
27	0x3d96aa8d	0.07356749
28	0x3d1b4fd0	0.037917912
29	0x3e3837c1	0.17990018
30	0xbdee4bb5	-0.11635534
31	0xbde7f02a	-0.113251045
32	0xbcc09f59	-0.023513483
33	0x3d1a5e81	0.037687782
34	0x3d0454b2	0.032307334
35	0xbe0bd1ba	-0.13654223
36	0x3d28a423	0.041172158
37	0x3d488936	0.04895898
38	0x3e42737f	0.18989371
39	0xbe747252	-0.23871735
40	0x3e136fa7	0.1439806
41	0x3d53eb8c	0.051738307
42	0x3d7a264d	0.061071683
43	0xbd8fc707	-0.07020383
44	0xbd9ac072	-0.07556237
45	0x3c4de9ae	0.012567921
46	0x3debfc05	0.11522678
47	0x3e263992	0.16232899
48	0x3d20ebd7	0.039287414
49	0xbcb31a35	-0.021863082
50	0x3c8ac879	0.016941296
51	0xbe472a9e	-0.19449851
52	0x3d43cead	0.047804523
53	0xbdc3aa8f	-0.09554016
54	0x3de08388	0.109625876
55	0xbe134745	-0.14382656
56	0x3cbdcf99	0.02317028
57	0x3d9981ba	0.074954465
58	0xbdc454da	-0.09586497
59	0xbdd2eed7	-0.10299461
60	0x3d45d4da	0.048298694
61	0xbd9f1d41	-0.077692516
62	0x3e26d9f3	0.16294079
63	0xbd75f807	-0.06005099
64	0xbd801879	-0.06254668
65	0xbd9fc872	-0.07801904
66	0xbe97c97e	-0.29645914
67	0x3decb131	0.11557234
68	0x3e30b378	0.17255962
69	0x3d6e46b1	0.058172885
70	0xbe2bd3fd	-0.16780086
71	0x3dfbe165	0.1229885
72	0x3e3999cd	0.18125077
73	0x3cfce932	0.030872915
74	0xbc289c11	-0.010291115
75	0x3d56ee4e	0.05247336
76	0x3df702ca	0.12061079
77	0x3dd9781a	0.10618611
78	0xbcf6ed03	-0.030142313
79	0x3d66d0d3	0.056351494
80	0x3e01ccb9	0.12675752
81	0x3e01457c	0.12624162
82	0xbd0f84a0	-0.03503859
83	0x3d5cfed4	0.05395396
84	0xbe8692cf	-0.2628388
85	0xbcb5ccd8	-0.022192404
86	0x3d817fbb	0.06323191
87	0x3e0c54cc	0.13704222
88	0xbe62ef02	-0.22161487
89	0xbccda16a	-0.025101382
90	0x3d8abd4e	0.06774388
91	0xbc66983b	-0.0140743805
92	0x3e7022fb	0.23450844
93	0xbd2ae637	-0.041723456
94	0x3daab25e	0.08334802
95	0x3d8c36ca	0.06846388
96	0xbe164469	-0.14674534
97	0xbbdefdd1	-0.0068051596
98	0xbe6513a7	-0.22370778
99	0xbcee6b0c	-0.029103778
100	0xbe11df37	-0.14245306
101	0x3c09e2b4	0.008415867
102	0x3c9d35d0	0.019190699
103	0xbcab1c47	-0.020887507
104	0x3e31a496	0.17347941
105	0x3de2a6c1	0.11066962
106	0xbe129117	-0.1431316
107	0x3d863b27	0.06554251
108	0xbdf39fe9	-0.11895735
109	0x3cc130d2	0.02358285
110	0x3e5b5a17	0.21421085
111	0x3db71fd4	0.089416176
112	0xbca3a9a4	-0.019978352
113	0xbc19119a	-0.009342575
114	0xbe97cd32	-0.2964874
115	0xbe2627cd	-0.1622612
116	0x3e233b89	0.1594068
117	0xbe93757b	-0.28800568
118	0xbe944a47	-0.2896292
119	0xbe03c426	-0.12867793
120	0x3dd0a454	0.10187593
121	0xbc87ce30	-0.01657781
122	0x3d0c04e2	0.034184344
123	0x3e4a9012	0.19781521
124	0xbdebba7a	-0.11510177
125	0xbded8ba3	-0.11598899
126	0xbd944e62	-0.07241513
127	0xbe5c424b	-0.21509664
128	0xbdc20757	-0.09474056
129	0x3e27e030	0.16394114
130	0x3d0e60a3	0.03476013
131	0x3d0c0de0	0.03419292
132	0xbe0fe681	-0.14052774
133	0xbe1335e1	-0.14376022
134	0x3e3747dd	0.17898507
135	0xbe32fe5b	-0.17479841
136	0xbcf2fff0	-0.029663056
137	0xbdebe6f7	-0.115186624
138	0x3e10e702	0.14150622
139	0x3d4d1f60	0.05007875
140	0xbc9907e5	-0.018680522
141	0xbcdf8775	-0.02728627
142	0xbdcd3053	-0.10018983
143	0xbd717499	-0.058949087
144	0x3dba9acb	0.09111556
145	0xbd9b67bc	-0.07588145
146	0xbc73b54b	-0.014874767
147	0x3bbda4cc	0.0057874676
148	0xbd649c29	-0.05581299
149	0x3de71b1b	0.11284467
150	0xbdf937cc	-0.121688455
151	0x3df76dec	0.12081513
152	0xbc375feb	-0.011192302
153	0xbdb1c11a	-0.08679409
154	0xbce181e9	-0.027527766
155	0xbc12624a	-0.008934567
156	0x3cfb2add	0.030660087
157	0x3d9765a1	0.07392431
158	0x3b66a5c6	0.0035194024
159	0x3db34dd9	0.08755083
160	0x3e0fadc3	0.14031129
161	0xbcfef514	-0.031122722
162	0xbc837a12	-0.016049419
163	0xbc45d5ec	-0.012074929
164	0xbdfa91cf	-0.12234842
165	0x3e048e57	0.12944923
166	0x3d5dccfa	0.05415056
167	0x3c73f851	0.014890746
168	0xbcac0fd6	-0.021003645
169	0xbddb85c4	-0.10718873
170	0x3e184780	0.14871025
171	0x3db69778	0.08915609
172	0x3dfb6eb4	0.12276974
173	0x3d09e495	0.03366526
174	0x3dfcc4bf	0.12342214
175	0xbe28099c	-0.16409916
176	0xbe013f37	-0.12621771
177	0x3dc87a80	0.0978899
178	0x3e08ce90	0.13360047
179	0x3db6a880	0.089188576
180	0xbc4fcd20	-0.012683183
181	0x3d9352e5	0.07193545
182	0x3dd1b360	0.10239291
183	0x3daac928	0.08339149
184	0x3dd61769	0.10453684
185	0xbe26cd42	-0.16289237
186	0x3dda7289	0.10666377
187	0x3d245294	0.040117815
188	0xbc202a15	-0.009775658
189	0x3e6f09de	0.23343608
190	0xbc01011e	-0.0078738015
191	0x3dc52dbb	0.09627863
192	0xbde66aff	-0.11250877
193	0x3dcca05a	0.09991522
194	0xbeb04df4	-0.34434474
195	0xbe43fa39	-0.19138421
196	0x3db57475	0.08860103
197	0xbe055163	-0.13019328
198	0x3e1f5411	0.15559413
199	0x3e1e91d8	0.15485322
200	0xbea69294	-0.32533705
201	0x3e00f46e	0.12593243
202	0x3dd174da	0.10227366
203	0xbe7c1473	-0.24617176
204	0x3e13f084	0.14447218
205	0x3e3e1129	0.18561234
206	0x3b9126c0	0.004429668
207	0x3e0fea34	0.14054185
208	0x3dfa0054	0.12207094
209	0x3e76ed49	0.24113955
210	0xbda6b07f	-0.08139133
211	0x3deb3fd9	0.11486787
212	0xbebb7148	-0.36609864
213	0xbdb70b31	-0.089376815
214	0x3d8524bb	0.065011464
215	0x3c099086	0.0083962735
216	0xbe384ec6	-0.179988
217	0xbd92fd07	-0.071771674
218	0x3e4e6984	0.20157439
219	0x3e432db8	0.19060409
220	0x3e39d333	0.18146972
221	0x3d05286b	0.03250925
222	0xbeaf8119	-0.3427818
223	0x3d20c5a3	0.03925098
224	0xbd326f14	-0.043562964
225	0xbcae3ca0	-0.021269143
226	0x3de018f4	0.109422594
227	0xbe259d3c	-0.16173261
228	0x3cd0242c	0.025407873
229	0xbcfe1714	-0.031016864
230	0xbe3de525	-0.18544443
231	0xbe8f72e2	-0.28017336
232	0x3d57bf91	0.052672926
233	0xbc941d37	-0.018080337
234	0x3e2f3e31	0.17113568
235	0xbe58dc0a	-0.21177688
236	0x3db02d22	0.086023584
237	0xbd570ed5	-0.05250438
238	0xbe0c249c	-0.1368584
239	0x3d8e11e0	0.06937003
240	0x3e2f7386	0.17133912
241	0x3c6f9fc5	0.014625494
242	0x3bbc5437	0.005747344
243	0x3d9e83ef	0.07740008
244	0xbec7c2c1	-0.39015773
245	0x3dba4500	0.09095192
246	0xbeb8fa7f	-0.36128613
247	0xbd4685f5	-0.048467595
248	0x3cc1b017	0.023643536
249	0xbe85eb42	-0.2615605
250	0xbe2ee346	-0.17078885
251	0xbca9095b	-0.020634344
252	0x3ea2c36a	0.31789714
253	0xbe51cba0	-0.20487833
254	0x3e14a8ef	0.14517568
255	0xbd57fee7	-0.05273333

bias f4 [64]
0	0x3dc75659	0.097332664
1	0xbe3ac755	-0.18240102
2	0x3dea2679	0.11433119
3	0xbd1be7a1	-0.038062695
4	0xbdc283e4	-0.094978124
5	0x3e01c849	0.12674059
6	0xbd922f25	-0.07137898
7	0xbd045f58	-0.03231749
8	0x3dc2b53a	0.095072225
9	0x3d0872d5	0.033312637
10	0x3de851c6	0.11343722
11	0xbd2cb063	-0.042160403
12	0x3dbda71a	0.09260388
13	0x3d23c21e	0.039980046
14	0x3d8f122c	0.06985888
15	0x3cce56c0	0.02518785
16	0x3c15192f	0.0091002425
17	0x3dbef779	0.093245454
18	0x3e18af17	0.14910541
19	0xbdadc94b	-0.08485659
20	0xbda7f9a3	-0.08201911
21	0xbdb06173	-0.08612337
22	0x3b880d84	0.004152002
23	0xbdad5e17	-0.08465212
24	0xbc0c5928	-0.008566178
25	0xbde21a82	-0.11040212
26	0x3d418d73	0.047254037
27	0xbdb78e61	-0.089627035
28	0x3d9c7dbc	0.076411694
29	0xbe055ba1	-0.13023235
30	0xbdb15e03	-0.086605094
31	0x3dbb6a96	0.09151189
32	0xbdd0e1e5	-0.10199336
33	0x3d9522d3	0.07282033
34	0xbd3247df	-0.043525573
35	0xbe0302fd	-0.12794109
36	0x3df3f8a9	0.119126625
37	0x3bb0b486	0.005392614
38	0x3d98105c	0.07424995
39	0xbc6fd23e	-0.014637528
40	0x3d60b7cf	0.054862794
41	0x3dffad10	0.12484181
42	0x3e1264cf	0.14296268
43	0xbdb836f2	-0.08994855
44	0xbdbdf2af	-0.09274804
45	0xbcb0ea9e	-0.02159625
46	0x3d378832	0.04480762
47	0x3d75f813	0.060051035
48	0x3da116d4	0.07865682
49	0x3aa7f070	0.0012812745
50	0x3def475f	0.11683535
51	0xbd892c48	-0.06697899
52	0xbde2b5b4	-0.11069813
53	0xbd3a6d7b	-0.045514565
54	0x3d8d7455	0.06906954
55	0xbd3ee135	-0.046601493
56	0x3d90941f	0.07059502
57	0x3de63113	0.11239829
58	0x3da54206	0.080692336
59	0x3e043a25	0.12912805
60	0x3dcf37a7	0.10118037
61	0x3dc823f1	0.0977248
62	0xbb5ca5ec	-0.0033668233
63	0xbd1bea9c	-0.038065538

weight f4 [1, 64]
0	0x3d9cf2f9	0.07663531
1	0x3ea00829	0.31256226
2	0xbd6db144	-0.05803038
3	0x3ea35a22	0.31904703
4	0xbea9a641	-0.33134654
5	0xbe2d9de1	-0.16954757
6	0x3e2266d4	0.15859538
7	0xbe606845	-0.21914776
8	0x3f1a0dca	0.6017729
9	0x3ecb7587	0.39738104
10	0xbddebb8c	-0.108756155
11	0xbec9e22b	-0.39430365
12	0xbe288ae3	-0.16459231
13	0xbe366ac0	-0.1781416
14	0x3d0783c7	0.033084657
15	0xbea2f5cd	-0.31828156
16	0xbdffd10c	-0.124910444
17	0xbe0c9e79	-0.13732328
18	0xbddcc830	-0.1078037
19	0x3e81c7f8	0.25347877
20	0xbe8b5b7b	-0.27218232
21	0xbe3f6778	-0.18691814
22	0xbe6237be	-0.22091576
23	0xbe8bfe8c	-0.2734264
24	0x3e4d57ea	0.20053068
25	0xbf40eba7	-0.75359577
26	0x3e8f8350	0.2802987
27	0x3e8fe668	0.28105474
28	0x3ddced10	0.107874036
29	0x3e852c0e	0.26010174
30	0xbe9b9ff6	-0.30395478
31	0xbda93896	-0.08262746
32	0xbe7ac116	-0.24487719
33	0xbe282203	-0.16419224
34	0x3e8f9c56	0.28048962
35	0x3e5dc431	0.21656872
36	0xbe12f159	-0.1434988
37	0xbe3f38f5	-0.18674071
38	0xbe23bcff	-0.15990065
39	0xbdb3a71b	-0.08772107
40	0xbe98a477	-0.29812977
41	0xbe1f8102	-0.15576556
42	0xbe223392	-0.15839985
43	0x3dde68bd	0.10859821
44	0x3eca7d75	0.3954884
45	0xbe4616b9	-0.19344606
46	0x3e37a094	0.1793235
47	0x3dee0efd	0.116239525
48	0x3e577e44	0.2104426
49	0x3d183bf2	0.037166543
50	0xbddf5996	-0.10905759
51	0x3e058792	0.13039997
52	0x3e049ceb	0.12950484
53	0x3e2899de	0.16464946
54	0x3daf0e30	0.08547628
55	0xbdd1fbcf	-0.10253107
56	0x3e19e989	0.15030493
57	0x3ecf822c	0.40529
58	0x3e6b40dc	0.2297396
59	0x3e725b6d	0.23667689
60	0x3e3e0239	0.18555535
61	0x3e1a125c	0.15046066
62	0x3e0a82a3	0.13526396
63	0xbe21de08	-0.15807354
