mlruns/335624475037764607/models/m-9209215ac3f841f8ace32cbf65d5ae45/artifacts/data/model.pth (torch, 15433 bytes, 3 tensors)

weight f4 [77, 25]
000000 82 fb f2 bc 67 f5 f6 3d b5 6b a0 3c 2c 97 9c bc
       -0.029660944 0.120585255 0.019582609 -0.019115053
000010 67 70 31 3e 07 23 72 3c 0b 55 01 be e2 d1 0c 3e
       0.17328034 0.014778859 -0.12630098 0.13751939
000020 3a d2 f5 bd b2 c8 c0 bd 5a b8 15 3e 5f cd f9 bd
       -0.12002988 -0.094132796 0.14621106 -0.121973746
000030 2d 42 18 3e 24 75 fa bd f5 65 a1 3d a7 cd 60 3e
       0.14868994 -0.12229374 0.07880775 0.2195345
000040 f8 68 d0 3d e1 58 8b 3d c3 d8 34 be 8e cd 82 3d
       0.10176271 0.06804062 -0.17660813 0.06386863
000050 a7 a8 ec 3c ed 0e b1 bc 14 6c 19 3d 76 d3 52 bc
       0.028889013 -0.021613562 0.037456587 -0.012867799
000060 e5 2d 0f 3e 47 a4 0f 3e 83 03 0e be ea 7a 0e be
       0.13982351 0.1402751 -0.13868527 -0.13914075
000070 53 27 02 3d 98 e0 00 3e 2f d6 ef bd 6a 2c 20 be
       0.031775784 0.12585676 -0.11710774 -0.15641943
000080 40 12 55 bd 04 89 26 3e a5 5b 47 bd 20 82 a5 3d
       -0.052019358 0.16263205 -0.048671383 0.0808146
000090 a8 e2 9d 3d 7d 2f b8 3d 6f 42 27 3d d3 ad 0a be
       0.07709247 0.08993433 0.04083484 -0.13542871
0000a0 c8 ac 06 3d 3b 8c ec 3d 79 90 3b 3d fb c1 db bc
       0.03287962 0.11550184 0.045792077 -0.026825896
0000b0 61 60 c4 bd 9c 84 12 3d 83 01 86 bc 14 52 dc 3d
       -0.09588695 0.035770997 -0.016358143 0.10757843
0000c0 fb ca 09 bc 4c 18 03 3e fd df 8e 3d 0f 29 9a 39
       -0.008410211 0.12802237 0.06976316 0.0002940376
0000d0 04 b3 09 bd f2 25 91 bd 07 b2 da 3d a6 d4 9f bd
       -0.03361799 -0.070873156 0.10678487 -0.07804231
0000e0 c1 61 87 3d 2c 6d aa bd 54 9e 13 be 50 60 30 be
       0.06610442 -0.08321604 -0.14415866 -0.1722424
0000f0 69 b3 09 be 4c 91 c7 3d e9 ad a9 bd d6 67 5f bc
       -0.13447346 0.0974451 -0.08285124 -0.013635596
000100 2a 7f 18 3e 00 f7 c4 3d 3e b9 c8 3c bb 21 99 3d
       0.14892259 0.09617424 0.024502393 0.07477137
000110 57 26 ac bc f8 ad ae 3d 5c 73 ac 3d a4 98 2f 3c
       -0.021014376 0.08529276 0.084204406 0.010717545
000120 1b 41 32 be dd 27 1b be 23 18 e7 3c b2 65 1c 3e
       -0.17407648 -0.15151925 0.028209751 0.15273169
000130 af dc ee 3d 19 2c ae bd 8b e9 be bd bd da af bd
       0.11663186 -0.08504505 -0.093218885 -0.08586643
000140 78 27 b3 3b b7 5b 0b bd 88 2c c6 bd 2d 45 8e bd
       0.0054673515 -0.034023013 -0.096764624 -0.06946788
000150 4a 29 f9 bc 2e 05 f5 3d 7e a7 e6 3c c3 90 01 3d
       -0.030415196 0.119638786 0.028156038 0.031632196
000160 6c 4b cd bd 5d 42 b1 bd ae 02 d3 bc 09 c4 0d be
       -0.10024151 -0.08655236 -0.025758114 -0.13844313
000170 6e 0f eb 3d 66 48 3b 3c b7 8e e3 3d e6 ed 24 3b
       0.11477552 0.011430835 0.11111205 0.0025166213
000180 ce 93 43 3d e1 50 96 bd fa 5a 3d 3e cd c1 f3 3d
       0.04774838 -0.07339645 0.18491736 0.11902199
000190 83 49 d2 3d b1 27 3b 3e d1 80 24 3e f1 7b c4 bd
       0.102679275 0.1827686 0.16064765 -0.095939524
0001a0 2f 6c 2d be 5e 3b 1f 3d 6a f7 f2 bd f7 aa 9e 3d
       -0.169358 0.038874976 -0.11863597 0.07747453
0001b0 23 89 1d bc df 0c 79 3d 5a fd 5f 3d 34 23 1e 3e
       -0.0096152155 0.06080329 0.054684974 0.15443116
0001c0 c7 2e 12 3b 0e dc 14 3e 0a b5 44 3e 2b bd df 3c
       0.0022305714 0.14537069 0.19209686 0.027311882
0001d0 62 c4 d3 bd 39 7d 17 3d b3 52 7b bc f9 0e 54 bd
       -0.103401914 0.036984656 -0.015339541 -0.05177209
0001e0 9b a5 f6 3d 19 bc 22 3e e9 e3 ff 3d e2 34 7e bd
       0.120433055 0.15892066 0.12494642 -0.06206215
0001f0 63 69 df bd ef 67 ca 3d a3 ba d7 3d e3 f4 8e bd
       -0.10908773 0.09883105 0.10533645 -0.06980302
000200 69 ac 40 be 4d e4 26 3e 3f 50 bc bd b7 14 2a be
       -0.1881577 0.16298027 -0.09194993 -0.16609465
000210 14 d3 2b 3e ea 5b d4 bd 93 99 8c 3d e5 37 ab 3d
       0.16779739 -0.10369094 0.068652295 0.083602704
000220 58 f9 d7 3d a5 90 cc bd f0 72 c5 bd 84 e2 12 bd
       0.105456054 -0.09988526 -0.09641063 -0.035860553
000230 e7 e0 3c 3c fd eb 08 3d 21 43 29 bd 97 ef bd bd
       0.01152823 0.03342818 -0.041323785 -0.09274214
000240 87 1b 05 3c a5 d6 0c be ab b5 21 be 2b e0 8a 3d
       0.008124239 -0.13753755 -0.15791957 0.06781038
000250 36 ce be 3d dd b6 1f 3e e3 e9 c2 3d e4 14 32 3e
       0.09316675 0.155971 0.095172666 0.17390782
000260 45 ed 1c 3e 7f d8 05 be b8 c7 f3 bd e7 3e ac bd
       0.15324886 -0.13070868 -0.11903328 -0.08410435
000270 b8 ca 74 3c 26 57 d0 bd d4 a9 8f 3d 0f 14 b9 bc
       0.01494091 -0.10172872 0.07014814 -0.022592572
000280 3c 5b f3 bd 14 4f 2f be a7 8b 02 3e c6 3f e2 3d
       -0.11882636 -0.1712001 0.12748586 0.1104732
000290 2f 95 0c be 8b 17 f3 3b f4 e9 7b 3d 95 2e 87 bd
       -0.13728784 0.007418578 0.061502412 -0.06600682
0002a0 55 f4 c9 3d 62 cc 1e 3d d7 07 4b 3e ef 03 1a 3d
       0.09861056 0.038769133 0.1982721 0.037601408
0002b0 11 7a 32 be 7c 11 91 3d b3 13 1e 3e 34 ee 54 3d
       -0.17429377 0.07083413 0.15437202 0.05198498
0002c0 b0 83 3f be e2 8c 0e 3e aa 91 f2 bd 88 c1 01 3e
       -0.18702579 0.1392093 -0.118441895 0.12671483
0002d0 f9 91 3c 3e bd 83 2a 3e 94 7e 31 3c 58 0a ec bd
       0.18415059 0.16651817 0.010833401 -0.115254104
0002e0 6e 9a 1a be e3 7e 2f 3e 3e e4 cf 3d c6 6a 4f bd
       -0.15097973 0.17138247 0.101509556 -0.050638936
0002f0 47 5e 39 3e 42 79 88 bd 73 17 55 be 75 85 ec bd
       0.1810237 -0.06663753 -0.20809726 -0.115488924
000300 cd 8c be 3d c7 b9 33 be 36 e1 b3 bd a3 22 31 3e
       0.09304199 -0.17551337 -0.0878319 0.17298369
000310 d6 5e 2b be f3 e9 27 be 89 ed 0c be 4f 47 f5 3d
       -0.16735396 -0.16397838 -0.13762487 0.11976492
000320 d6 86 11 3d 6d 23 ea bd dc 57 f3 3c 3e 26 7c 3d
       0.03552898 -0.11432538 0.02970498 0.061559908
000330 f8 e8 ca bd fd 43 26 bd 6d 8a ad bd 1c aa 2d 3e
       -0.099077165 -0.040592182 -0.08473668 0.16959423
000340 11 61 23 3e d8 8c d7 3b b0 9d 9a bd d3 48 35 3d
       0.15954997 0.006578069 -0.07549608 0.044258904
000350 2e 4e e1 3d dd 01 11 3d 7b 75 f4 bc 84 8b c6 bd
       0.1100124 0.035402168 -0.029841175 -0.09694579
000360 64 c1 1b be c1 99 10 bd c4 3a 94 3d c9 f7 0f be
       -0.15210491 -0.03530288 0.07237771 -0.14059366
000370 74 d8 15 3b b3 fb 09 be 0f 1c 35 be 44 66 d5 bd
       0.0022864612 -0.13474922 -0.17686485 -0.10419896
000380 86 ca b5 bc 30 51 13 be e7 22 63 3c b4 77 63 3d
       -0.022191297 -0.1438644 0.013863302 0.05553408
000390 0f 1a 3d 3e 40 c9 5a 3e 0e 0e a1 3d 55 67 58 bc
       0.18466972 0.21365833 0.07864009 -0.01320823
0003a0 57 8e 93 3d e4 bb b1 3d 2b f2 5a 3d ec 33 d4 3d
       0.072048835 0.086784154 0.053453606 0.10361466
0003b0 d5 d0 1d 3e 77 62 7a bd 48 01 a1 bd 07 57 dd bd
       0.15411694 -0.06112906 -0.078615725 -0.10807615
0003c0 21 ae 25 be e9 29 a4 3d 29 fe 39 be 1d 10 aa bc
       -0.16179706 0.08015806 -0.1816336 -0.020759637
0003d0 cd a6 15 bc c9 99 78 3d 18 33 33 3e 9a b4 d4 bd
       -0.009134007 0.060693536 0.1749996 -0.103860095
0003e0 f7 fd 19 be 29 21 e4 3d 22 1b 49 be fa a5 98 3d
       -0.15038286 0.11139137 -0.19639257 0.074535325
0003f0 c8 a9 2c 3e fb f4 28 be ae c5 38 bd a7 60 6f 3d
       0.16861641 -0.16499703 -0.045110397 0.058441784

bias f4 [77]
000000 c4 3c 0b be bb 85 41 be 35 3c ba bc 89 88 54 bc
       -0.13597399 -0.1889867 -0.022733787 -0.012972006
000010 ec 70 c3 3d 28 2e b9 3d 2d df 2b be f7 10 04 3e
       0.095430225 0.09042007 -0.16784354 0.12897097
000020 26 da 0d 3e 7b 35 d1 3d 46 ad 58 3e 9e ad f8 bd
       0.13852748 0.10215279 0.21159849 -0.1214249
000030 4b 71 07 be 2e fa 8b 3d 55 bb fb 3d f0 8a 70 3d
       -0.13226812 0.06834827 0.1229159 0.05872625
000040 1e c2 9e bd d7 ab 2c be 6a da 3b 3e e9 95 04 3e
       -0.07751869 -0.16862427 0.18345037 0.12947811
000050 56 01 40 be fb d8 10 be 3f 69 c4 bc 0c b2 ca 3d
       -0.1875051 -0.14145271 -0.023975966 0.09897241
000060 51 cd 53 3e 05 99 ea 3d d9 b0 9e 3c f5 b9 2c be
       0.2068379 0.114549674 0.019371437 -0.16867812
000070 c8 cb 4a be 00 54 ff bc d2 ab c0 3d f3 e2 aa bc
       -0.19804299 -0.031167984 0.09407772 -0.020860171
000080 b9 2f 8e 3d c3 76 36 be e2 e8 23 3d 61 8d 87 3d
       0.06942696 -0.17818742 0.040017016 0.06618763
000090 6f 76 83 3d e2 6f 17 bd de 8d 0b 3e 1c d3 88 bd
       0.06419074 -0.036971934 0.13628337 -0.06680891
0000a0 ae 50 5a bc bb 4e bd bd e3 48 8a bc a1 8f 30 3e
       -0.0133249 -0.09243532 -0.016880458 0.1724229
0000b0 ac 75 96 3c 29 9c 69 bd 6b 0b 36 bd 20 fe 0a 3e
       0.018366657 -0.05703369 -0.044444483 0.13573503
0000c0 64 ea 25 3c b4 41 a9 3d df 49 5f bd 4a c3 96 bd
       0.010126684 0.08264485 -0.05451381 -0.07361467
0000d0 29 d4 10 be b0 6a 13 bc e4 cf 1d 3e 3f d1 43 3e
       -0.14143433 -0.008997604 0.15411335 0.1912279
0000e0 f1 14 7f 3d 05 19 3c bd 22 d0 30 3e 23 1d 15 bd
       0.06227583 -0.045922298 0.17266896 -0.03640474
0000f0 a3 7c 93 3d 68 98 2d be 2b 8f 08 3e 77 6f ea 3d
       0.07201507 -0.1695267 0.13335864 0.114470415
000100 82 00 a8 3b 1f 3c 21 be 77 6a 50 be b0 20 17 3e
       0.0051270137 -0.1574559 -0.20353113 0.14758563
000110 b2 dd d8 bc 0f e6 16 3e 5d 8e ea 3d b6 0d 50 bd
       -0.0264729 0.14736198 0.11452935 -0.050794326
000120 3c 78 3f be f7 b1 7d bd 87 d4 bd b9 a1 92 48 3e
       -0.1869821 -0.0619373 -0.00036207234 0.19587184
000130 12 20 44 be
       -0.19152859

weight f4 [1, 77]
000000 a6 23 31 bd 0c 2d 22 3c 72 39 86 bd 16 bf 99 bd
       -0.043246888 0.009898435 -0.065539256 -0.0750715
000010 00 c8 cc bc 07 c0 94 3c 66 c7 1a bd ae 7d 13 3c
       -0.024997711 0.018157972 -0.037787817 0.009002132
000020 28 de 81 bd d8 20 ce bc 01 a6 a8 3d ee 6b 4c 3d
       -0.06341201 -0.025162145 0.08234788 0.049907617
000030 2e 1a 72 3d 9e 00 9b 3c 90 60 09 bc 2a 9c 5f 3d
       0.059107 0.018921193 -0.008384839 0.05459229
000040 c8 38 30 bd 71 86 0a be 5f 00 a9 bd 43 11 71 bc
       -0.0430229 -0.13527848 -0.08252024 -0.014713588
000050 71 f8 43 3d b4 52 07 3e 29 66 cc 3d 88 28 be bd
       0.047844354 0.13215142 0.09980423 -0.092850745
000060 46 09 66 3d 0f fc 18 3d 77 a6 c2 bd 38 ae f6 bd
       0.056161188 0.037349757 -0.09504407 -0.12044948
000070 bb 46 59 3d c3 57 78 bd 5f b2 e8 3d 27 8b 1e 3d
       0.05304597 -0.06063057 0.113621466 0.038706925
000080 e2 2d cf bd 3f 8a bf bd 3c 33 a9 3c 38 81 f2 bd
       -0.10116173 -0.0935254 0.020654313 -0.11841053
000090 d0 d7 cc 3d dd b5 69 3d 73 9a 0a 3d 11 78 83 3d
       0.100021005 0.057058204 0.0338387 0.06419385
0000a0 74 84 fd 3d f4 ec fc 3d f0 9d f3 ba e8 13 a8 3b
       0.12378779 0.12349883 -0.0018586498 0.005129326
0000b0 22 df 09 bd af 0d d9 bd a9 78 e8 bd c1 40 02 be
       -0.03366006 -0.10598313 -0.11351139 -0.12720014
0000c0 38 68 40 3d 85 0e 69 3d 5e 9c f6 3c e2 bb 9a 3d
       0.04697439 0.056898613 0.030103859 0.07555367
0000d0 c0 52 b1 3d f4 08 c1 bd 8d e1 8f bd 89 88 bb 3d
       0.086583614 -0.09425536 -0.07025442 0.091569014
0000e0 0b a2 ab bd c4 7f d3 bd bc b4 0e 3d 6a 2a 25 bd
       -0.083805166 -0.10327104 0.03484033 -0.040323652
0000f0 62 b8 5a bd 52 35 cb bd e3 da 41 bb 6d d1 78 bd
       -0.053398497 -0.099222794 -0.002957993 -0.0607466
000100 d1 83 01 3d 30 85 dc 3c e4 01 5b bd 2c a6 7b bc
       0.03161985 0.026918977 -0.0534686 -0.015359443
000110 d4 19 ca bd f3 0b 60 3d 02 a1 37 3d bc 8b 7f bc
       -0.098682076 0.054698896 0.044831283 -0.01559728
000120 e5 ec 57 bd 62 6b 3c 3c a3 7d ce bd a2 e8 5a 3d
       -0.052716155 0.011500211 -0.10082557 0.053444512
000130 0e f5 a3 bd
       -0.08005725
