mlruns/335624475037764607/models/m-19fa9087a31748bd8fa4a9917ef804eb/artifacts/data/model.pth (torch, 204593 bytes, 7 tensors)

weight f4 [38, 25]
0.10365639 0.120667055 -0.07676117 0.12970659 0.0545972 0.1385363 0.003678934 -0.15867344
-0.0066317217 -0.1649878 -0.06631571 0.013190344 0.13762634 0.1559744 0.06388987 0.03653684
-0.05562378 -0.111460425 0.22516677 0.1257556 -0.008485546 -0.14357948 -0.086412765 0.045452964
0.054948 0.07911717 -0.12444095 0.14647065 -0.10289161 -0.076269284 -0.03915449 -0.032319225
0.104929484 0.033470936 0.0977617 -0.15605606 0.03773546 -0.018878575 -0.054778356 -0.04621219
0.0792361 0.06676508 -0.14325225 -0.07652876 0.25436237 0.06823915 -0.14105263 0.0059060478
-0.1543206 -0.14427254 0.08725189 0.17708063 0.026761152 0.007995779 -0.08035063 0.08473856
0.20041943 0.094101444 -0.11854156 -0.039834622 0.23810178 -0.07451419 -0.093005024 0.10832986
0.09770449 -0.12325596 0.13979284 -0.16891713 0.09499666 0.00022882325 0.121346295 0.02117506
0.09740479 -0.14728546 -0.17574537 0.15325849 0.111790195 -0.0729578 0.08964346 -0.013031245
0.076836035 0.03729659 -0.15049909 0.19177182 -0.059636068 -0.075545266 -0.13928542 0.14090118
0.059826087 0.13178304 0.081886746 -0.071321994 0.10178321 -0.014672547 0.09917756 0.009109439
0.11355696 -0.071805276 -0.04874125 -0.15554608 -0.0100527825 0.089339174 -0.00019634492 0.14517643
-0.12645285 -0.07487338 0.1552032 0.09434871 -0.12477508 0.04341831 -0.04960784 -0.070412114
-0.21648034 0.0746855 0.03637438 -0.19520874 0.17162962 -0.11599786 0.010845887 -0.0645524
-0.11429676 0.00210872 0.026763747 0.06641766 -0.023960693 0.13699841 -0.017286716 0.055827044
0.2024613 0.22544554 0.060251247 -0.12458115 0.008407086 0.08997465 -0.10750238 -0.15375291
-0.13623393 0.04505738 -0.1359218 0.122182555 0.062859304 -1.3163197e-05 0.010113207 -0.088504806
-0.099310584 -0.11062221 -0.10388198 -0.15788709 0.15048474 -0.042239893 0.18081665 -0.10861281
0.037820607 -0.18449792 0.04077684 0.17871569 -0.15597914 0.15674156 0.054555323 -0.12878783
-0.12558192 -0.15061325 0.12809744 0.1680373 0.027032014 0.11652126 -0.059794463 -0.16403529
-0.040368855 -0.09438649 0.0076774145 -0.086138174 -0.16115826 0.07661364 -0.1613586 0.008049762
-0.08683524 0.1289468 0.046731617 0.17284554 -0.07268158 0.14430131 -0.2338512 -0.10565074
0.14803211 -0.2805292 0.23047645 0.008559355 0.121363446 0.08586638 -0.08189818 0.11598596
0.09777869 0.023490855 0.10726499 0.04526313 0.03507861 0.04480148 -0.14314403 -0.09392368
0.145558 0.00072094915 -0.12735069 0.115482 -0.12082865 -0.021276074 0.049066078 0.12866159
-0.051955745 -0.07848056 0.19186711 -0.021157712 0.076464266 -0.13533564 0.16322966 -0.0009764801
0.045999434 0.07312202 -0.16007452 -0.07339781 0.058268312 0.060436133 0.072889455 0.12660001
-0.14063579 0.016084567 0.092699744 0.0009075904 0.07336121 0.16935752 0.013645349 -0.14129053
-0.08001797 0.09706287 0.14643684 -0.1373637 0.19777218 0.17568271 0.11403731 -0.03080238
-0.07252258 0.082550004 -0.18579578 -0.004333508 0.18700165 0.11079515 -0.1916493 0.099477105
-0.055120684 0.12991083 0.036956012 0.07975705 0.1877336 -0.018718889 -0.14014454 -0.1900132
00000000: cd49 d43d 4a20 f73d f634 9dbd ced1 043e
00000010: 50a1 5f3d 76dc 0d3e 451a 713b 4a7b 22be
00000020: ea4e d9bb 90f2 28be 88d0 87bd 501c 583c
00000030: ebed 0c3e c1b7 1f3e b1d8 823d a7a7 153d
00000040: c3d5 63bd 5d45 e4bd 1e92 663e 13c6 003e
00000050: f606 0bbc 8006 13be 2df9 b0bd e32c 3a3d
00000060: 2711 613d 2f08 a23d e6da febd 67fc 153e
00000070: d6b8 d2bd 1233 9cbd 7560 20bd 2a61 04bd
00000080: 45e5 d63d d218 093d 4937 c83d 29cd 1fbe
00000090: 7f90 1a3d 3ea7 9abc 455f 60bd fe48 3dbd
000000a0: 8946 a23d 21bc 883d b8b0 12be 1cbb 9cbd
000000b0: c93b 823e f8c0 8b3d 1a70 10be 8587 c13b
000000c0: 3806 1ebe 2ebc 13be 1eb1 b23d a054 353e
000000d0: 343a db3c ba00 033c df8e a4bd 698b ad3d
000000e0: c03a 4d3e 42b8 c03d ebc5 f2bd a129 23bd
000000f0: f4d0 733e e59a 98bd 6b79 bebd 0cdc dd3d
00000100: 4b19 c83d 9f6d fcbd db25 0f3e 9df8 2cbe
00000110: 9c8d c23d 46f0 6f39 6884 f83d 5277 ad3c
00000120: 2a7c c73d 00d2 16be 98f6 33be cbef 1c3e
00000130: 42f2 e43d e66a 95bd fe96 b73d 0181 55bc
00000140: 365c 9d3d 4fc4 183d 6f1c 1abe d55f 443e
00000150: f344 74bd 7ab7 9abd d6a0 0ebe 6648 103e
00000160: 330c 753d 22f2 063e 3db4 a73d 4411 92bd
00000170: b773 d03d 1f65 70bc 9b1d cb3d c23f 153c
00000180: 8d90 e83d a50e 93bd e8a4 47bd 7947 1fbe
00000190: 6db4 24bc 75f7 b63d f0e1 4db9 21a9 143e
000001a0: db7c 01be 3757 99bd 96ed 1e3e e539 c13d
000001b0: 148a ffbd 66d7 313d 9731 4bbd 3a34 90bd
000001c0: 06ad 5dbe b6f4 983d 4dfd 143d cde4 47be
000001d0: adbf 2f3e 4990 edbd f2b2 313c 0c34 84bd
000001e0: 6b14 eabd 7332 0a3b a53f db3c fb05 883d
000001f0: 3749 c4bc 5049 0c3e df9c 8dbc e6aa 643d
00000200: 0452 4f3e 32db 663e 03ca 763d 6724 ffbd
00000210: e0bd 093c a144 b83d 352a dcbd 6771 1dbe
00000220: e880 0bbe 168e 383d 162f 0bbe d93a fa3d
00000230: 61bc 803d 80d7 5cb7 ddb1 253c 0242 b5bd
00000240: 5963 cbbd e68d e2bd 13c0 d4bd 27ad 21be
00000250: ac18 1a3e bd03 2dbd 0028 393e 6570 debd
00000260: c8e9 1a3d 06ed 3cbe 9e05 273d 3f01 373e
00000270: ffb8 1fbe dc80 203e 6775 5f3d f5e0 03be
00000280: 8c98 00be 5c3a 1abe fa2b 033e f811 2c3e
00000290: 3e72 dd3c b3a2 ee3d 0aeb 74bd def8 27be
000002a0: d059 25bd b44d c1bd d292 fb3b 3669 b0bd
000002b0: ac06 25be 9de7 9c3d 303b 25be 26e3 033c
000002c0: add6 b1bd a10a 043e a769 3f3d 6cfe 303e
000002d0: 15da 94bd b9c3 133e b076 6fbe 6a5f d8bd
000002e0: bb95 173e 86a1 8fbe 0502 6c3e 893c 0c3c
000002f0: 668d f83d b6da af3d 3cba a7bd 0c8a ed3d
00000300: 3240 c83d e56f c03c bfad db3d d565 393d
00000310: 97ae 0f3d c281 373d 5994 12be 0f5b c0bd
00000320: 280d 153e 14fe 3c3a 3868 02be d481 ec3d
00000330: 0375 f7bd 294b aebc 83f9 483d ddbf 033e
00000340: 8ccf 54bd 6aba a0bd d078 443e f052 adbc
00000350: 4c99 9c3d 6d95 0abe ad25 273e 78fa 7fba
00000360: e769 3c3d ffc0 953d 93ea 23be 9751 96bd
00000370: c1aa 6e3d e18b 773d 1147 953d 6fa3 013e
00000380: d402 10be c8c3 833c 5dd9 bd3d 5ceb 6d3a
00000390: 673e 963d 0f6c 2d3e be90 5f3c 77ae 10be
000003a0: 76e0 a3bd e6c8 c63d 8af3 153e 12a9 0cbe
000003b0: ca84 4a3e 2be6 333e 658c e93d 4655 fcbc
000003c0: b886 94bd fa0f a93d 4041 3ebe 1a00 8ebb
000003d0: 5c7d 3f3e 91e8 e23d b73f 44be a7ba cb3d
000003e0: 3ac6 61bd 5807 053e 305f 173d aa57 a33d
000003f0: 3d3d 403e 5b58 99bc 0d82 0fbe d292 42be

bias f4 [38]
-0.055165146 0.07747604 -0.13040109 0.039028127 0.07795904 0.13170868 0.15568967 0.18184823
0.031413745 -0.12446978 -0.15433559 0.13496664 0.13091339 -0.024206785 0.1042947 -0.07276506
0.09207569 -0.16514093 0.18658338 0.020258615 0.08837954 0.15890044 -0.0043674395 0.055181507
-0.0919772 -0.025325555 0.12788495 0.09729153 -0.054790862 -0.06575447 -0.08405641 -0.08210021
-0.10713525 0.07264232 -0.025419537 0.15861915 0.06306398 -0.17023051
00000000: d9f4 61bd c2ab 9e3d dd87 05be f5db 1f3d
00000010: fda8 9f3d a4de 063e 1d6d 1f3e 6c36 3a3e
00000020: b3ab 003d 03ea febd 260a 1ebe b234 0a3e
00000030: 290e 063e 4f4d c6bc 7698 d53d d905 95bd
00000040: 2e92 bc3d b41a 29be b70f 3f3e 65f5 a53c
00000050: 5500 b53d ccb6 223e bd1c 8fbb 0106 623d
00000060: 8b5e bcbd 8a77 cfbc 46f4 023e c840 c73d
00000070: 626c 60bd 48aa 86bd c425 acbd 2824 a8bd
00000080: ba69 dbbd 7fc5 943d a23c d0bc 0f6d 223e
00000090: b027 813d e850 2ebe

weight f4 [162, 38]
0.015759544 -0.07041255 -0.16807951 -0.036331035 0.0032190452 -0.054313853 0.08143035 0.17365028
0.07975343 -0.09388436 0.0932053 0.061798856 0.02425956 -0.061474968 0.038949337 0.08704144
-0.020791385 0.08724913 0.09176774 -0.04256224 -0.13595533 -0.054646194 0.11961953 0.086353965
-0.01962559 -0.17220302 0.14802405 0.09126889 -0.13087586 -0.0538789 -0.027960861 -0.10536794
-0.02565444 0.034718666 0.029064406 0.09346938 -0.006529388 -0.081720665 -0.029602315 -0.12729725
0.0661626 -0.13674094 0.10634623 0.00069042476 -0.11445303 -0.13162722 0.09445564 -0.08491473
0.12842172 0.0052233594 0.16274232 0.061263356 0.04909476 -0.14564657 -0.040406737 -0.038227305
-0.09491132 0.14585868 0.059531815 0.05868058 -0.036350556 -0.017583149 0.1310969 -0.05253834
0.04088563 -0.061210185 -0.13011622 -0.08429161 0.14565583 0.062800914 0.036236763 0.15979232
0.07082705 -0.14632021 -0.022060344 -0.059900288 0.17856732 0.15162143 -0.076120384 0.062298413
-0.118603155 0.16544375 0.027230056 -0.07997165 0.03113659 0.063044384 -0.10964942 0.04795422
-0.030683164 -0.0539639 0.12404737 -0.013892855 0.032246508 0.049933743 0.12715727 -0.019583892
-0.112716176 -0.008802229 -0.11596202 0.0069907373 0.07230312 -0.14058687 0.13548936 -0.11227388
0.11493732 -0.06625125 0.17060645 0.11557008 0.032293484 -0.08194473 -0.034053568 0.088366926
-0.058522396 0.029604845 -0.035338692 -0.024787845 0.07991698 -0.15862693 0.022335501 0.045369707
0.047050018 -0.1379314 0.12816045 -0.043249186 0.13439903 0.15146732 -0.13881424 0.05353156
0.017574672 -0.09276573 0.102550894 -0.070611574 -0.009977613 0.03260991 0.04991731 0.11785898
0.04958661 -0.09399378 -0.12595391 0.07348729 -0.14976513 0.021225123 0.029534092 0.033243567
-0.10487101 0.15354788 -0.1690033 -0.018672407 -0.073770955 -0.006997519 -0.08650022 -0.0046109008
0.16719168 0.14953619 0.14068449 0.021825075 0.13464978 -0.13396499 -0.016073748 -0.10637127
-0.10115188 0.07543585 -0.081807844 0.033930734 0.027294777 -0.09701679 0.10967948 0.031186357
-0.0778487 -0.0023977426 -0.14175716 -0.13455825 0.068426505 0.0573045 -0.12918195 -0.06307478
-0.028327914 -0.11920437 0.105385795 0.026428685 -0.11330661 -0.16185759 -0.00078990764 0.1513368
-0.021657292 -0.04810947 0.00129606 0.13530727 -0.13741441 0.04548102 -0.05278061 -0.060622863
0.068296894 -0.091707796 -0.05192425 0.079657994 0.13903 -0.10512342 -0.032243785 -0.11140972
0.003604342 -0.095113285 -0.1409606 -0.091632016 -0.12909518 0.10854544 0.14306736 0.09649094
-0.1504233 -0.024589628 -0.013491281 -0.16629742 0.10606154 0.052548632 0.10999918 -0.08532647
-0.13957396 -0.06958946 0.06547846 -0.05620306 -0.005447199 0.11192771 0.076606296 0.013387228
0.02441951 -0.069724396 -0.15497667 0.013402288 0.17441858 0.03408849 0.033239484 0.123815596
-0.055405892 -0.1257879 0.10658506 0.15474144 -0.027285868 -0.028554626 -0.123073846 -0.10735965
0.004774265 0.13985172 -0.049448762 0.21293901 -0.04004699 -0.10608143 0.01698686 0.022386106
0.12367473 -0.13619833 0.16094841 0.1182216 0.1792116 0.028400663 -0.0359167 0.012092306
00000000: 291a 813c 7434 90bd 091d 2cbe dacf 14bd
00000010: 9ef6 523b 3478 5ebd f5c4 a63d 61d1 313e
00000020: c455 a33d 7146 c0bd 6ce2 be3d cc20 7d3d
00000030: fcbb c63c 2dcd 7bbd 5789 1f3d c842 b23d
00000040: b252 aabc acaf b23d baf0 bb3d be55 2ebd
00000050: e037 0bbe b0d4 5fbd 16fb f43d 59da b03d
00000060: d8c5 a0bc fd55 30be 9e93 173e 2feb ba3d
00000070: 5204 06be 1fb0 5cbd 2d0e e5bc 26cb d7bd
00000080: 4329 d2bc 2935 0e3d 7a18 ee3c e06c bf3d
00000090: 7af4 d5bb 2a5d a7bd 8e80 f2bc 365a 02be
000000a0: 4280 873d d105 0cbe 0dcc d93d 9ffd 343a
000000b0: 5a66 eabd 49c9 06be f571 c13d c6e7 adbd
000000c0: fc80 033e b728 ab3b eca5 263e 49ef 7a3d
000000d0: 9617 493d 6024 15be 8981 25bd 3c94 1cbd
000000e0: de60 c2bd fa5b 153e a2d7 733d 0c5b 703d
000000f0: 52e4 14bd 890a 90bc 443e 063e 7132 57bd
00000100: b177 273d 88b7 7abd 303d 05be 14a1 acbd
00000110: cd26 153e c49d 803d 006d 143d 99a0 233e
00000120: c60d 913d f7d4 15be e5b7 b4bc 015a 75bd
00000130: 5ada 363e a642 1b3e 01e5 9bbd 9f2c 7f3d
00000140: 36e6 f2bd 166a 293e 9111 df3c 2dc8 a3bd
00000150: 2912 ff3c 6a1d 813d e08f e0bd a56b 443d
00000160: 425b fbbc 4009 5dbd 8c0c fe3d db9e 63bc
00000170: ea14 043d 5387 4c3d 8435 023e 666e a0bc
00000180: bdd7 e6bd 3937 10bc 7f7d edbd 8e12 e53b
00000190: a813 943d 01f6 0fbe b9bd 0a3e d9ef e5bd
000001a0: 4264 eb3d bcae 87bd 75b3 2e3e 02b0 ec3d
000001b0: 2c46 043d a3d2 a7bd c17b 0bbd b8f9 b43d
000001c0: 2eb5 6fbd dc85 f23c 4ebf 10bd e10f cbbc
000001d0: 83ab a33d 196f 22be f1f8 b63c 96d5 393d
000001e0: 85b7 403d e43d 0dbe 7e3c 033e 0f26 31bd
000001f0: e69f 093e 401a 1b3e 5225 0ebe e943 5b3d
00000200: c2f8 8f3c f6fb bdbd 3406 d23d cd9c 90bd
00000210: 2479 23bc f891 053d 1876 4c3d 0d60 f13d
00000220: 541b 4b3d d07f c0bd 10fa 00be 8180 963d
00000230: 085c 19be 4fe0 ad3c 7bf1 f13c 682a 083d
00000240: 9dc6 d6bd a83b 1d3e 330f 2dbe e0f6 98bc
00000250: 3a15 97bd 724b e5bb 0727 b1bd 0a17 97bb
00000260: 4c34 2b3e 0420 193e 980f 103e 80ca b23c
00000270: a2e1 093e 1e2e 09be 18ad 83bc 2ed9 d9bd
00000280: b828 cfbd 1c7e 9a3d df8a a7bd f4fa 0a3d
00000290: 4c99 df3c bdb0 c6bd a39f e03d 887a ff3c
000002a0: 246f 9fbd 7223 1dbb ca28 11be a3c9 09be
000002b0: 3223 8c3d 20b8 6a3d 4648 04be 5a2d 81bd
000002c0: f10f e8bc 6c21 f4bd 82d4 d73d f880 d83c
000002d0: 4c0d e8bd ffbd 25be ce11 4fba 09f8 1a3e
000002e0: a26a b1bc 700e 45bd 8fe0 a93a fd8d 0a3e
000002f0: 5db6 0cbe 4e4a 3a3d 7b30 58bd ae4f 78bd
00000300: 3edf 8b3d 4cd1 bbbd 86ae 54bd bb23 a33d
00000310: e15d 0e3e f34a d7bd 0f12 04bd c72a e4bd
00000320: d336 6c3b c1ca c2bd fa57 10be 91a9 bbbd
00000330: 8731 04be 124d de3d 4080 123e 0b9d c53d
00000340: 9108 1abe 3070 c9bc 890a 5dbc df49 2abe
00000350: cb36 d93d 3c3d 573d 4047 e13d a5bf aebd
00000360: 7aec 0ebe eb84 8ebd 9219 863d 2e35 66bd
00000370: 6b7e b2bb 5b3a e53d c3e3 9c3d 1b56 5b3c
00000380: 6d0b c83c aacb 8ebd 34b2 1ebe 4595 5b3c
00000390: c99a 323e 5fa0 0b3d 2026 083d 0893 fd3d
000003a0: 4af1 62bd 8bce 00be 4549 da3d 8a74 1e3e
000003b0: 9d86 dfbc 64eb e9bc 240e fcbd 60df dbbd
000003c0: 7071 9c3b 4a35 0f3e c98a 4abd af0c 5a3e
000003d0: 5008 24bd 3941 d9bd 0728 8b3c 1163 b73c
000003e0: 2d49 fd3d 9377 0bbe a9cf 243e 2b1e f23d
000003f0: 3f83 373e 82a8 e83c 641d 13bd cf1e 463c

bias f4 [162]
0.035715997 0.029516304 0.15226729 -0.068023555 -0.09336746 0.093968965 0.17458993 -0.06016556
-0.019256435 -0.13894948 0.13506505 0.16053057 -0.15872376 0.07209013 0.039352573 0.010580724
-0.02528547 -0.020934127 0.13356432 -0.006285415 -0.14939539 0.07835429 -0.050281264 0.053020578
0.002440001 -0.0036012311 -0.094348535 -0.030425513 0.03430931 -0.1303037 -0.12554374 -0.12244855
0.015773037 0.07202194 -0.10507588 0.06686594 0.0027914855 -0.14215465 0.12988803 -0.0127788475
0.046559755 -0.07099914 -0.01762517 -0.030824212 -0.0077215317 0.055808704 0.13634233 0.14018038
0.15594631 -0.06500351 0.10290769 -0.011808189 -0.07859893 -0.08528213 -0.08040033 0.005040908
-0.051649813 0.07028822 0.10220026 0.0391715 -0.045603003 -0.11162958 -0.07411916 0.13256183
0.07578713 0.07579096 -0.09492644 -0.10879357 -0.06538203 -0.019256916 0.044245847 0.049355686
-0.0009281207 -0.03687494 0.09271964 0.07586834 -0.048048656 0.16625914 0.04125157 0.11929323
-0.14180563 -0.033903427 0.0902024 -0.006129171 -0.14565492 0.16136694 0.11206292 -0.15130068
0.06693426 0.04260171 -0.047501616 0.10886011 0.15802936 0.111772895 0.1673209 0.048237827
-0.12781014 -0.11583267 0.022109868 0.05450399 -0.05819041 0.025245626 -0.05063394 0.0033036023
0.10168271 0.09137815 -0.06284367 -0.06518684 -0.0029492017 0.1296182 -0.032649897 0.12325935
0.10588579 0.044898238 0.16121593 0.0659987 0.16223177 0.02381063 0.0857739 0.08381003
0.07731208 -0.07581624 -0.03724413 -0.061981376 -0.06688327 -0.14090233 0.022478366 0.010345222
0.09220592 0.10136905 -0.042948063 -0.09466824 0.053922687 0.00900574 -0.118162416 0.09436894
-0.12805128 0.0068810736 0.08139765 0.15294503 0.097716585 0.09431625 0.1258687 -0.051707905
-0.122783884 0.0055283676 0.11298395 -0.006678369 0.14460109 0.12596874 0.1354224 0.04961579
-0.024915574 0.06302833 0.110333376 -0.15479445 -0.0054825787 -0.07903013 0.041589316 0.1067686
0.018157411 0.14851372
00000000: f04a 123d 2dcc f13c f5eb 1b3e ef4f 8bbd
00000010: 7037 bfbd cd72 c03d b4c7 323e 2a70 76bd
00000020: acbf 9dbc c648 0ebe 7e4e 0a3e 2062 243e
00000030: 7b88 22be fda3 933d 2a30 213d c65a 2d3c
00000040: 7923 cfbc 0c7e abbc 16c5 083e e2f5 cdbb
00000050: 1bfb 18be 3778 a03d baf3 4dbd 1b2c 593d
00000060: 6ce8 1f3b a202 6cbb ce39 c1bd ed3e f9bc
00000070: eb87 0c3d 556e 05be 8a8e 00be 4ec6 fabd
00000080: 7536 813c 3d80 933d 0632 d7bd 03f1 883d
00000090: 5bf1 363b fd90 11be 5e01 053e 5f5e 51bc
000000a0: 71b5 3e3d ff67 91bd a962 90bc 0f83 fcbc
000000b0: e704 fdbb ab97 643d 539d 0b3e 728b 0f3e
000000c0: 64b0 1f3e 8f20 85bd 44c1 d23d 2277 41bc
000000d0: 7af8 a0bd 66a8 aebd eea8 a4bd 342e a53b
000000e0: c18e 53bd 45f3 8f3d 5f4e d13d 4b72 203d
000000f0: 37ca 3abd 0d9e e4bd c9cb 97bd 4abe 073e
00000100: 4836 9b3d 4a38 9b3d cb68 c2bd 2acf debd
00000110: 04e7 85bd aec0 9dbc 223b 353d 3029 4a3d
00000120: 204d 73ba 2d0a 17bd cbe3 bd3d dc60 9b3d
00000130: abce 44bd d63f 2a3e 68f7 283d 0250 f43d
00000140: 7f35 11be 52de 0abd 09bc b83d 36d7 c8bb
00000150: 9026 15be 603d 253e 3f81 e53d 91ee 1abe
00000160: d414 893d 217f 2e3d 0e91 42bd 0df2 de3d
00000170: 73d2 213e 30e9 e43d 2c56 2b3e 0795 453d
00000180: a9e0 02be ae39 edbd c11f b53c 933f 5f3d
00000190: 1159 6ebd eacf ce3c 8965 4fbd 4081 583b
000001a0: 063f d03d 7824 bb3d 2fb4 80bd ae80 85bd
000001b0: 6547 41bb a2ba 043e e6bb 05bd 666f fc3d
000001c0: a6da d83d 37e7 373d ca15 253e 542a 873d
000001d0: 1620 263e 830e c33c 3aaa af3d 98a4 ab3d
000001e0: cc55 9e3d 8b45 9bbd 4d8d 18bd 2fe0 7dbd
000001f0: 19fa 88bd b348 10be 8d24 b83c 027f 293c
00000200: 75d6 bc3d 949a cf3d 4fea 2fbd 6ce1 c1bd
00000210: 09de 5c3d d08c 133c 23ff f1bd 8144 c13d
00000220: e01f 03be a17a e13b d0b3 a63d 9f9d 1c3e
00000230: a21f c83d e128 c13d b9e3 003e abcb 53bd
00000240: 1e76 fbbd 4f27 b53b 2164 e73d 38d6 dabb
00000250: 4f12 143e f3fd 003e 2bac 0a3e ed39 4b3d
00000260: bf1b ccbc ff14 813d 77f6 e13d 7082 1ebe
00000270: 34a7 b3bb 8cda a1bd 8f59 2a3d 7fa9 da3d
00000280: dabe 943c fb13 183e

weight f4 [253, 162]
-0.0540779 0.050260756 0.05082781 0.007444946 0.08370223 -0.034880023 -0.026527882 -0.045404557
-0.023935022 0.006744623 -0.0045300894 0.09562854 0.053536545 0.07653784 -0.022792166 0.076672494
0.07702462 0.08387968 0.038846042 0.09472206 0.038091056 -0.00597896 0.09953 -0.00080253975
0.03056076 -0.046926703 0.08548868 -0.04587837 -0.03707423 0.09587883 0.038891528 0.013371018
0.06732131 0.06616604 0.061417155 0.0672925 0.07134242 0.07048184 -0.046857122 0.023258213
-0.05924869 0.010097485 0.0009721972 -0.06252817 -0.0249311 0.012583384 0.10060745 0.03196455
0.02932257 -0.0684216 0.012170776 0.08119111 0.0035951245 0.027270846 0.109350555 0.015075671
-0.0365363 0.045623597 -0.054733474 -0.05141325 0.09180304 0.030746842 -0.037282147 0.08896699
0.00980537 0.06875661 0.056757454 0.008435616 0.043487955 0.015806878 -0.07230813 -0.060048416
-0.027423576 0.057267606 0.07409501 -0.055440284 0.06007702 0.02136913 -0.018686324 -0.0054035163
-0.06023709 -0.018421065 -0.0004826991 0.0457129 -0.08826052 0.026309716 -0.043767788 -0.028486794
0.020227248 0.0136779025 0.009479775 0.08397669 0.023160283 -0.01503061 -0.035132185 -0.05121445
-0.04445448 -0.05144874 0.02217628 0.0059799505 0.029792363 -0.021315854 0.03193362 -0.047415078
-0.019562693 -0.0066469912 0.06486846 -0.05421986 -0.04336027 -0.02124292 -0.011396091 0.022814568
0.09390944 0.028895339 -0.040642563 0.021964775 -0.03733579 -0.019234972 0.016325532 0.015433347
-0.033280853 -0.031683195 -0.0054210355 0.06210323 -0.08403077 -0.018622676 0.05330588 0.050739553
-0.014856181 0.06258892 -0.022607207 -0.05403853 0.018228285 -0.017177932 -0.040440682 0.06329147
0.030042384 -0.03981472 -0.007186197 0.07011675 0.057878654 -0.050188888 0.014636371 -0.033289406
0.010121198 -0.027732415 -0.043335155 0.00574861 0.030889168 0.0050561735 -0.004596634 0.07636474
-0.06697612 -0.022444187 0.026763668 0.030739097 -0.0073695714 -0.03656549 0.10361125 0.024013853
-0.07729379 0.043370645 0.0424145 0.004584657 -0.07102915 0.05688923 -0.028826777 -0.033367828
-0.06543355 -0.037499912 -0.018847954 0.0897277 0.05058462 -0.03834273 -0.011846662 0.0541215
0.06802233 -0.03499694 0.07394336 -0.0139946835 0.025637954 -0.067779094 0.038315017 -0.002341858
0.030058404 0.060460657 -0.051803008 -0.008667766 0.028946985 0.03469524 -0.010227927 0.010022549
-0.02290248 -0.06594394 -0.04270818 0.054014333 -0.059361 0.050870925 0.017827813 -0.05974631
-0.032470018 -0.015273752 0.060613047 0.04153121 -0.06542246 -0.033631053 -0.034418244 0.033560835
0.020417705 0.033848453 -0.060829826 0.065951295 0.026917197 -0.062257797 -0.02138241 -0.045689445
-0.046165314 -0.039243326 -0.009168469 0.07507746 -0.056221873 0.073277324 0.024527993 0.040149964
-0.08992698 -0.019272715 0.005488906 -0.057331286 0.0003598646 -0.08431045 -0.072932795 0.05033817
0.025706457 -0.040112857 -0.0074070957 -0.021498347 -0.07818306 0.056503084 -0.039006904 0.06157569
-0.04118087 0.045527156 0.0663183 0.033659913 -0.05024478 0.0013589297 0.052572142 -0.05516276
-0.028021807 0.02068933 -0.050162412 0.030993579 -0.002434489 0.033355534 0.02280881 -0.04649805
00000000: ca80 5dbd 39de 4d3d d230 503d bcf4 f33b
00000010: 136c ab3d 5bde 0ebd 0051 d9bc 21fa 39bd
00000020: 6113 c4bc 0002 dd3b 2571 94bb e5d8 c33d
00000030: 2349 5b3d dfbf 9c3d a3b6 babc 7806 9d3d
00000040: 15bf 9d3d 1cc9 ab3d 071d 1f3d a4fd c13d
00000050: 5e05 1c3d 27eb c3bb 62d6 cb3d 8861 52ba
00000060: 8f5a fa3c 3736 40bd b014 af3d f5ea 3bbd
00000070: 26db 17bd 1f5c c43d b94c 1f3d 1d12 5b3c
00000080: c1df 893d 1082 873d 8e90 7b3d a6d0 893d
00000090: fa1b 923d c858 903d 41ed 3fbd 0288 be3c
000000a0: c1ae 72bd ec6f 253c 0ddb 7e3a c50e 80bd
000000b0: 4e3c ccbc 8a2a 4e3c 470b ce3d 43ed 023d
000000c0: e335 f03c a020 8cbd ef67 473c 8647 a63d
000000d0: 2e9c 6b3b 1c67 df3c 2ff3 df3d f2ff 763c
000000e0: 16a7 15bd cfdf 3a3d 3530 60bd b396 52bd
000000f0: 3b03 bc3d cde0 fb3c 2ab5 18bd 5334 b63d
00000100: b4a6 203c 44d0 8c3d 817a 683d 8a35 0a3c
00000110: 6d20 323d 6d7d 813c 4916 94bd 54f5 75bd
00000120: 68a7 e0bc 7091 6a3d 20bf 973d 5a15 63bd
00000130: 5213 763d 500e af3c 1014 99bc fb0f b1bb
00000140: 2bbb 76bd c6e7 96bc c712 fdb9 733d 3b3d
00000150: eec1 b4bd 7987 d73c da45 33bd 235d e9bc
00000160: 9db3 a53c 4819 603c 0f51 1b3c f9fb ab3d
00000170: a2ba bd3c f342 76bc c4e6 0fbd 3ec6 51bd
00000180: e715 36bd eabb 52bd 08ab b53c 76f3 c33b
00000190: 1d0f f43c 969e aebc d4cc 023d 5036 42bd
000001a0: f141 a0bc 01cf d9bb c1d9 843d a515 5ebd
000001b0: 8a9a 31bd a205 aebc acb6 3abc 9ee5 ba3c
000001c0: 9853 c03d ebb5 ec3c d178 26bd 79ef b33c
000001d0: 6aed 18bd a992 9dbc 1fbd 853c 26dc 7c3c
000001e0: 8151 08bd 3dc6 01bd f1a2 b1bb f55f 7e3d
000001f0: 5318 acbd 958e 98bc 4457 5a3d 47d4 4f3d
00000200: 5767 73bc 9f2e 803d c032 b9bc 8157 5dbd
00000210: 7c53 953c bcb8 8cbc 21a5 25bd f59e 813d
00000220: 721b f63c c314 23bd 317a ebbb 5f99 8f3d
00000230: 2b12 6d3d dd92 4dbd 64cd 6f3c 795a 08bd
00000240: 62d3 253c 172f e3bc 3480 31bd d65e bc3b
00000250: 480b fd3c 42ae a53b 5c9f 96bb 1e65 9c3d
00000260: c72a 89bd dfdc b7bc 7b3f db3c 8fd0 fb3c
00000270: 727c f1bb b2c5 15bd 2332 d43d b3b8 c43c
00000280: 354c 9ebd 6ba5 313d d4ba 2d3d e43a 963b
00000290: bb77 91bd ae04 693d 2226 ecbc b4ac 08bd
000002a0: 0602 86bd 8299 19bd 0667 9abc 28c3 b73d
000002b0: d231 4f3d 440d 1dbd 8018 42bc 82ae 5d3d
000002c0: 4b4f 8b3d f458 0fbd 9e6f 973d f549 65bc
000002d0: b006 d23c c4cf 8abd 35f0 1c3d dc79 19bb
000002e0: 0b3d f63c 98a5 773d 642f 54bd 3f03 0ebc
000002f0: 3a22 ed3c 991c 0e3d 0993 27bc 9e35 243c
00000300: fb9d bbbc 9e0d 87bd c6ee 2ebd 223e 5d3d
00000310: 8524 73bd 085e 503d a20b 923c 8cb8 74bd
00000320: 48ff 04bd c23e 7abc 6345 783d a11c 2a3d
00000330: 36fc 85bd b7c0 09bd 25fa 0cbd 1677 093d
00000340: 0843 a73c ada4 0a3d b228 79bd 7911 873d
00000350: 7481 dc3c 0802 7fbd 2a2a afbc db24 3bbd
00000360: d717 3dbd 9cbd 20bd 5937 16bc 36c2 993d
00000370: e848 66bd 6c12 963d eeee c83c 4a74 243d
00000380: a32b b8bd d0e1 9dbc 48dc b33b 36d4 6abd
00000390: 36ac bc39 f5aa acbd ca5d 95bd 662f 4e3d
000003a0: 5996 d23c 614d 24bd 39b7 f2bb 4d1d b0bc
000003b0: 711e a0bd c76f 673d b4c5 1fbd ca36 7c3d
000003c0: 46ad 28bd af7a 3a3d e4d1 873d fade 093d
000003d0: 78cd 4dbd 1d1e b23a e355 573d 59f2 61bd
000003e0: fd8d e5bc ab7c a93c 1a77 4dbd 3fe6 fd3c
000003f0: f38b 1fbb d09f 083d 8bd9 ba3c bd74 3ebd

bias f4 [253]
0.008137179 -0.010219613 0.046685174 -0.005080004 0.06664336 0.013495181 0.029557822 0.00093812984
-0.002297204 -0.0004669907 0.039980724 0.052571513 0.08958528 0.062253132 -0.037664015 -0.03735727
0.002331723 -0.017761426 -0.03147775 0.052792072 0.0813927 -0.04265497 -0.06683578 0.030476721
0.015528675 -0.048802692 0.055326913 -0.004094816 -0.050329685 -0.005972499 -0.016673202 0.0030185012
-0.021542193 0.057315387 0.011557188 -0.003662314 0.0017126885 0.05144413 0.025656672 0.010916815
0.036408175 0.07512363 0.064153746 -0.028369742 0.047618315 0.03391645 0.035371486 -0.047516495
-0.019430138 0.00561648 0.05426918 0.022670666 -0.01364623 0.068396494 -0.01984851 -0.057672564
-0.027836652 -0.025158158 0.0107241925 -0.024139501 0.044526048 0.053288016 0.08846976 0.07500887
0.034273654 -0.0055127637 0.0626549 0.05768765 0.025157658 0.055468485 0.0031590976 -0.021691505
0.039067745 0.018577479 0.03367398 0.05186571 0.018914113 -0.06385335 -0.07246363 0.043138985
-0.060967747 -0.042243563 0.054886863 0.06706154 0.063747704 0.01177822 -0.019373337 -0.052228924
0.054647405 -0.0063777217 0.05556359 -0.023957497 0.06362313 -0.02067935 -0.008873013 -0.05049295
-0.027963245 0.06728692 0.079542495 -0.06279553 -0.07250433 0.021004312 -0.013128743 -0.022920528
-0.061524536 0.040604006 0.030610297 0.06618503 0.028804826 0.017976288 0.022277046 -0.011582124
0.033115212 -0.030199945 0.018826634 -0.016911257 -0.047110755 0.06507652 0.01932068 -0.009474028
0.037912864 0.077789806 0.06304458 -0.020448156 0.049804196 -0.03161957 -0.01465526 0.034650072
0.04444732 0.07233517 0.034894664 0.101040706 -0.042788055 0.068467386 0.021586228 0.08005193
0.029242763 0.0563889 -0.02763347 -0.05433562 -0.04874856 0.036853813 0.046687853 -0.07236278
-0.041835923 0.08088615 0.019955572 -0.045854364 0.08094097 0.052883517 0.03801692 0.027802233
-0.06298395 0.03047133 0.065567754 0.049844168 0.023492724 0.055895876 0.091641255 0.003153883
0.016640509 0.044465635 -0.05462476 -0.031906713 -0.047257554 -0.011918619 -0.04863862 -0.048768297
-0.036628097 -0.027367862 0.07712424 0.065713786 -0.01525429 -0.018620878 -0.0257526 0.029420426
0.035107337 0.019290691 0.08957617 0.008084975 0.06764058 0.055669356 -0.049962528 0.05538793
-0.04139639 -0.020448795 0.0061742784 0.0744116 -0.058208622 -0.06113401 -0.0061420617 0.07489529
-0.05503978 -0.02923511 -0.036029745 -0.04946817 0.016152363 -0.031424377 0.012603253 -0.037540276
-0.020489587 0.058712278 0.05110568 -0.0135500515 0.059736535 -0.009025853 0.026850417 0.054323982
-0.026507007 -0.06599878 0.07180221 0.014931776 -0.0635134 -0.06003329 -0.018696658 0.0059736622
0.08150596 0.015971366 0.020745318 -0.04825529 -0.028251944 -0.026227398 0.08324835 -0.056059495
0.013234415 0.0775155 -0.0068705073 -0.028818633 -0.0012162712 -0.0122417305 0.0810486 0.041685108
-0.059100218 0.05073029 0.058980465 -0.024952257 0.04637855 0.09119418 0.0579761 0.039545037
0.0031052814 -0.056182235 -0.014762494 0.0025108384 0.0060058665 -0.038007267 0.019606804 -0.06504315
-0.033291534 0.03699804 0.05233173 -0.064263135 0.013658741
00000000: cd51 053c 2a70 27bc f438 3f3d 2a76 a6bb
00000010: 507c 883d e41a 5d3c 3f23 f23c d4ec 753a
00000020: b08c 16bb 6ed6 f4b9 d4c2 233d 3a55 573d
00000030: 7d78 b73d 24fd 7e3d 9545 1abd f003 19bd
00000040: d2cf 183b 6980 91bc d0ee 00bd 803c 583d
00000050: 37b1 a63d fab6 2ebd 33e1 88bd 51aa f93c
00000060: fc6b 7e3c 55e5 47bd 799e 623d ce2d 86bb
00000070: 8026 4ebd f4b4 c3bb 3d96 88bc 0cd2 453b
00000080: 4179 b0bc 8ac3 6a3d 5c5a 3d3c 6f03 70bb
00000090: 4a7c e03a 14b7 523d f12d d23c 71dc 323c
000000a0: bd20 153d 6bda 993d 0a63 833d a967 e8bc
000000b0: 6c0b 433d faeb 0a3d b1e1 103d a8a0 42bd
000000c0: f42b 9fbc 730a b83b 5c49 5e3d d5b7 b93c
000000d0: 7094 5fbc 7613 8c3d 5899 a2bc 113a 6cbd
000000e0: b109 e4bc 7b18 cebc 86b4 2f3c 34c0 c5bc
000000f0: f260 363d 8944 5a3d a22f b53d 409e 993d
00000100: 8862 0c3d 6aa4 b4bb 3651 803d e349 6c3d
00000110: 6f17 ce3c ec32 633d dd08 4f3b 62b2 b1bc
00000120: 8005 203d cc2f 983c baed 093d 2471 543d
00000130: c5f1 9a3c 8cc5 82bd d067 94bd 81b2 303d
00000140: 51b9 79bd 9607 2dbd 0cd1 603d 9057 893d
00000150: 288e 823d 6ff9 403c d5b4 9ebc ffed 55bd
00000160: f5d5 5f3d 35fc d0bb a696 633d 8342 c4bc
00000170: d84c 823d bd67 a9bc 1d60 11bc b2d1 4ebd
00000180: 2d13 e5bc bacd 893d 2de7 a23d f19a 80bd
00000190: 267d 94bd 3c11 ac3c f019 57bc d5c3 bbbc
000001a0: 2701 7cbd 6350 263d 72c2 fa3c 048c 873d
000001b0: 19f8 eb3c 0243 933c 5a7e b63c f3c2 3dbc
000001c0: d1a3 073d e065 f7bc 503a 9a3c 7a89 8abc
000001d0: 35f7 40bd d746 853d 6746 9e3c f438 1bbc
000001e0: 854a 1b3d 4350 9f3d 841d 813d e482 a7bc
000001f0: 7cff 4b3d 8683 01bd 9e1c 70bc 3ced 0d3d
00000200: 650e 363d 7624 943d b5ed 0e3d 6eee ce3d
00000210: 8742 2fbd a138 8c3d 9ad5 b03c 44f2 a33d
00000220: 858e ef3c 0cf8 663d 965f e2bc 078f 5ebd
00000230: 92ac 47bd 06f4 163d c33b 3f3d f032 94bd
00000240: 255c 2bbd a3a7 a53d de79 a33c c9d1 3bbd
00000250: 61c4 a53d 639c 583d a1b7 1b3d 82c1 e33c
00000260: bbfd 80bd 039f f93c 6348 863d 6629 4c3d
00000270: d073 c03c 13f3 643d 69ae bb3d 60b1 4e3b
00000280: ad51 883c 9921 363d 36be 5fbd 9db0 02bd
00000290: 2391 41bd 5046 43bc 4a39 47bd 44c1 47bd
000002a0: 5807 16bd 9132 e0bc 50f3 9d3d f394 863d
000002b0: 21ed 79bc d08a 98bc 1ef7 d2bc 1b03 f13c
000002c0: b6cc 0f3d 8307 9e3c b673 b73d d876 043c
000002d0: 2587 8a3d 8d05 643d 82a5 4cbd 74de 623d
000002e0: 438f 29bd 3b84 a7bc 9a51 ca3b 1c65 983d
000002f0: 2a6c 6ebd a867 7abd 5943 c9bb b462 993d
00000300: 6471 61bd 787e efbc ed93 13bd 239f 4abd
00000310: f651 843c d9b6 00bd e07d 4e3c d5c3 19bd
00000320: c7d9 a7bc 497c 703d 3154 513d 0901 5ebc
00000330: 4cae 743d 2ce1 13bc 68f5 db3c d382 5e3d
00000340: 3925 d9bc 5e2a 87bd 090d 933d 68a4 743c
00000350: 5013 82bd 78e5 75bd bc29 99bc b6be c33b
00000360: 99ec a63d 62d6 823c 16f2 a93c 57a7 45bd
00000370: 9f70 e7bc d7da d6bc 1c7e aa3d a49e 65bd
00000380: 29d5 583c 72c0 9e3d fe21 e1bb 0e15 ecbc
00000390: 4a6b 9fba 8a91 48bc cffc a53d 01be 2a3d
000003a0: 1213 72bd 91ca 4f3d 8095 713d ad68 ccbc
000003b0: 6ff7 3d3d 04c4 ba3d 5978 6d3d faf9 213d
000003c0: fa81 4b3b 581f 66bd 63de 71bc e18c 243b
000003d0: dccc c43b 82ad 1bbd 739e a03c 5835 85bd
000003e0: b45c 08bd 428b 173d cc59 563d 649c 83bd
000003f0: e9c8 5f3c

weight f4 [1, 253]
-0.033367354 0.028230585 -0.025008319 -0.03877884 0.042603232 -0.055883452 -0.012503002 -0.03960109
0.046083342 -0.024570119 -0.02146856 0.022330217 0.060074735 0.062447216 -0.056080475 -0.047015574
-0.042311512 0.02119495 0.017779078 -0.04365462 -0.027666101 -0.045807946 0.021037772 0.044292785
0.024772335 -0.04294542 0.04303485 0.039815452 -0.05130204 -0.015866293 0.062271684 0.04730366
0.033666447 -0.0701407 0.007869427 -0.048968475 0.04970415 0.06481952 0.060304053 -0.07135872
0.049990933 -0.061377518 0.073746346 -0.070450135 0.04996461 -0.026437148 -0.03659611 -0.06555458
0.06944437 0.03921198 0.0146182645 0.064062305 -0.074586295 -0.01946177 0.034456894 -0.04592508
-0.05196111 -0.047327083 0.029596424 0.05502979 -0.07916599 -0.048966188 -0.035627402 0.05005521
0.027320696 -0.06712587 -0.03441869 -0.046686426 0.020785509 0.029406238 -0.016185844 0.06988828
-0.038430728 0.024771739 0.051005013 -0.011167428 0.05949663 -0.07347868 0.018524319 -0.05333634
-0.025883943 -0.04869301 0.019790592 -0.07179634 -0.013920866 -0.043220934 -0.025674481 0.0099591
-0.055580437 0.045794226 0.018778171 0.069840156 0.048435144 -0.026185459 0.052565854 0.029114898
-0.060019597 0.04150258 -0.039797764 -0.036424458 -0.014334531 0.037454925 -0.019397473 0.040938333
0.008979251 -0.031155588 -0.055010635 -0.06366401 -0.04398393 0.07236176 -0.055452622 0.050099414
0.06594285 0.03531543 -0.045405164 0.051967226 -0.065505154 -0.07608818 -0.028766831 -0.0020497222
0.05088487 -0.07469795 -0.032352302 -0.0018678725 0.03469249 -0.05107431 -0.07032579 -0.028065758
0.024050951 -0.06708856 0.04336832 0.064797185 -0.029827742 -0.07423722 0.034212418 0.046387788
0.024207465 -0.05045979 -0.039386034 -0.029003402 -0.02540748 0.04381643 0.044431653 -0.0030422285
-0.079681896 -0.06368726 0.00029170612 0.064325206 -0.048023 0.041512012 0.03800316 -0.06910442
-0.008398685 -0.03719687 0.039150298 -0.065999724 0.039783094 0.06584587 0.028367247 0.035365283
-0.020045834 0.020806339 -0.034508508 -0.06996483 0.030897856 0.011836537 -0.011846758 -0.07627642
-0.04394936 0.023656309 0.010649692 -0.05562615 0.066855595 -0.029584274 -0.021938529 -0.057443045
-0.04506778 -0.05299531 -0.043905247 -0.031612765 0.049353573 -0.025603201 0.03401471 0.03694898
0.043557756 -0.003128965 0.0469453 -0.017324612 -0.013656476 -0.06948343 -0.03841222 -0.046698347
0.00447971 -0.03398568 0.03874269 0.03877588 -0.077995166 0.046155453 -0.056276742 0.064244814
-0.025597157 0.04014627 -0.038501553 -0.04955556 -0.06401875 0.050560933 -0.07773407 0.056641385
-0.045152925 0.025312632 0.05048942 -0.052856937 -0.072118066 -0.032104757 -0.0555469 -0.055496782
0.067796305 -0.048589945 0.057662778 -0.033481203 -0.032362904 0.025806373 0.04968506 0.022326475
-0.002693827 -0.04557431 -0.030927967 0.05968088 -0.05396799 -0.06261834 -0.07883877 -0.031361893
0.04399167 0.04656712 -0.06435209 -0.044074833 -0.06978873 0.048243556 0.0565318 0.067739435
-0.064179525 0.020107822 0.07270962 -0.057449564 -0.058541425 -0.015917169 0.035884395 -0.018718854
-0.07887081 -0.02845723 -0.053410467 -0.054962113 0.026724568
00000000: 35ac 08bd d443 e73c 3fde ccbc 90d6 1ebd
00000010: ba80 2e3d 0ce6 64bd 64d9 4cbc c134 22bd
00000020: e3c1 3c3d 4647 c9bc d5de afbc dced b63c
00000030: ed10 763d a7c8 7f3d a4b4 65bd 6793 40bd
00000040: d64e 2dbd 08a1 ad3c 6ea5 913c 30cf 32bd
00000050: 05a4 e2bc 1da1 3bbd 6857 ac3c 5a6c 353d
00000060: 5aef ca3c 89e7 2fbd 5045 303d 8715 233d
00000070: 1722 52bd 07fa 81bc 9810 7f3d 7cc1 413d
00000080: d4e5 093d eda5 8fbd c5ee 003c 2b93 48bd
00000090: 9496 4b3d 19c0 843d 6201 773d 8524 92bd
000000a0: 4bc3 4c3d fe66 7bbd 5308 973d 2948 90bd
000000b0: b1a7 4c3d b892 d8bc cde5 15bd 7b41 86bd
000000c0: da38 8e3d be9c 203d 7281 6f3c 1933 833d
000000d0: b3c0 98bd 4a6e 9fbc ac22 0d3d f01b 3cbd
000000e0: 2cd5 54bd 0bda 41bd 3374 f23c eb66 613d
000000f0: c721 a2bd c590 48bd 0aee 11bd b106 4d3d
00000100: a7cf df3c 4a79 89bd 9dfa 0cbd 443a 3fbd
00000110: 5f46 aa3c 5ae5 f03c 2d98 84bc 9621 8f3d
00000120: 8a69 1dbd 1aee ca3c a2ea 503d 97f7 36bc
00000130: bdb2 733d fd7b 96bd 50c0 973c 3577 5abd
00000140: 900a d4bc 5272 47bd e11f a23c f609 93bd
00000150: 5814 64bc 6f08 31bd 4a53 d2bc 7e2b 233c
00000160: 50a8 63bd ba92 3b3d aed4 993c 5b08 8f3d
00000170: ee63 463d e382 d6bc 4b4f 573d 5e82 ee3c
00000180: 1cd7 75bd 9cfe 293d fb02 23bd d031 15bd
00000190: 61db 6abc 566a 193d 73e7 9ebc f4ae 273d
000001a0: b51d 133c 013a ffbc d552 61bd 4762 82bd
000001b0: 7e28 34bd 6732 943d 4a22 63bd 0b35 4d3d
000001c0: 0c0d 873d eaa6 103d c4fa 39bd 96db 543d
000001d0: 9127 86bd 1fd4 9bbd 6ba8 ebbc a254 06bb
000001e0: a76c 503d 3dfb 98bd d983 04bd 67d3 f4ba
000001f0: b619 0e3d 4c33 51bd f806 90bd 29ea e5bc
00000200: 8006 c53c ba65 89bd fba2 313d 63b4 843d
00000210: 4f59 f4bc af09 98bd 5222 0c3d 1f01 3e3d
00000220: bc4e c63c edae 4ebd 4053 21bd 8b98 edbc
00000230: 5923 d0bc db78 333d f7fd 353d 2060 47bb
00000240: 4330 a3bd 776e 82bd 22f0 9839 efbc 833d
00000250: c4b3 44bd 8008 2a3d 34a9 1b3d 9e86 8dbd
00000260: a39a 09bc bf5b 18bd 105c 203d dd2a 87bd
00000270: 99f3 223d 33da 863d 6e62 e83c 30db 103d
00000280: 2937 a4bc 0e72 aa3c cb58 0dbd b949 8fbd
00000290: 801d fd3c 09ee 413c e818 42bc d036 9cbd
000002a0: 3e04 34bd e0ca c13c 0c7c 2e3c 3fd8 63bd
000002b0: 96eb 883d b85a f2bc 6eb8 b3bc 6649 6bbd
000002c0: fe98 38bd 9c11 59bd fdd5 33bd 637c 01bd
000002d0: f926 4a3d cebd d1bc 0253 0b3d d057 173d
000002e0: 9e69 323d 520f 4dbb b749 403d 58ec 8dbc
000002f0: 69bf 5fbc 544d 8ebd 2256 1dbd c446 3fbd
00000300: 88ca 923b 9234 0bbd a8b0 1e3d 75d3 1e3d
00000310: eebb 9fbd 800d 3d3d 7182 66bd c992 833d
00000320: 21b1 d1bc 6a70 243d ceb3 1dbd c5fa 4abd
00000330: 431c 83bd fb18 4f3d 0a33 9fbd cc00 683d
00000340: 46f2 38bd 705c cf3c fecd 4e3d 8480 58bd
00000350: a3b2 93bd 4780 03bd 2585 63bd 9850 63bd
00000360: cad8 8a3d 4006 47bd ce2f 6c3d 9623 09bd
00000370: f78e 04bd e367 d33c 9082 4b3d 03e6 b63c
00000380: eb8a 30bb 21ac 3abd a65c fdbc f073 743d
00000390: 8a0d 5dbd 0b3e 80bd 3976 a1bd 5475 00bd
000003a0: 9c30 343d 2abd 3e3d 07cb 83bd d087 34bd
000003b0: 65ed 8ebd 099b 453d e48d 673d f9ba 8a3d
000003c0: 8e70 83bd 29b9 a43c c8e8 943d 3c50 6bbd
000003d0: 22c9 6fbd b964 82bc 84fb 123d 4858 99bc
000003e0: 0587 a1bd 231f e9bc efc4 5abd f41f 61bd
000003f0: 7bed da3c
