mlruns/335624475037764607/models/m-7bbad18be20f4b5f9ded74448eb4a838/artifacts/data/model.pth (torch, 324401 bytes, 7 tensors)

weight f4 [252, 25]
0.100590914 0.06362875 0.1390985 -0.04998886 0.1599744 0.15187515 0.1532336 0.07321489
0.1972417 -0.16363041 -0.09970007 -0.01420316 -0.17651753 -0.016918816 0.13324992 0.1991992
-0.16484904 0.0018767692 -0.034414172 0.04092459 0.11677377 -0.19046767 0.14522535 0.1800215
-0.06445225 0.15816107 -0.054235082 -0.09185731 0.060324732 0.06946273 0.011854327 -0.1767638
-0.11648828 -0.11901525 0.0024149336 0.18784921 0.010564505 0.093135506 0.117069125 0.0016977001
0.01608541 0.105099775 0.10633678 -0.048492305 -0.004374286 0.047110625 -0.074536 -0.03500765
-0.08250049 0.009061704 -0.16716486 0.14317782 0.19136038 0.100476906 0.18336639 0.053855713
-0.19803776 0.17211545 -0.168093 0.19488223 -0.08245625 -0.066423595 0.11945944 -0.06929501
-0.06926387 -0.20743473 -0.11462455 -0.1657843 -0.04260201 -0.122266166 0.06517957 0.028912796
-0.057985555 0.10544416 -0.07772268 -0.20576221 0.13676499 -0.11742251 0.036961313 -0.15974605
0.03801158 -0.098090716 0.21020016 -0.14113814 -0.11444997 -0.030897144 -0.09857854 -0.16118053
0.053607386 0.14780147 -0.004208597 0.021089422 -0.14433779 -0.06018709 -0.08079565 -0.024230799
0.13230671 -0.1285434 0.07213265 -0.16188888 0.030171111 0.022014292 -0.11062531 -0.008205878
-0.20662381 -0.02406124 -0.08389574 0.13075295 0.09803926 0.094916634 0.012241787 -0.101408325
-0.19816156 -0.01947132 -0.030296676 -0.025281921 -0.017651968 0.19852208 0.17415546 -0.029001279
0.116081804 0.14512353 -0.15661396 0.13360384 0.025276884 -0.08641653 0.17859605 -0.1878011
-0.048375804 -0.14345405 -0.031159695 0.1687754 0.007407641 0.120941825 0.020457998 0.0058141258
-0.036154486 -0.09373582 0.04392944 0.09688689 -0.12913375 0.17317182 0.09959554 0.016827663
-0.06767189 -0.0690983 0.114416294 0.046609055 0.01078244 -0.05286935 0.0943207 -0.01923958
0.061990462 0.03685591 0.07080255 0.19173536 -0.0945826 -0.19064105 0.09075727 0.12983873
-0.15396175 0.12745182 -0.060274996 -0.06891139 0.19323929 -0.026968908 -0.14144349 -0.1798074
0.21693927 0.0927322 0.13235955 -0.12809604 -0.15625973 0.046839505 0.083995074 -0.12111829
-0.09394873 -0.012922984 0.02069986 0.013636669 -0.13947952 -0.0920959 0.08309835 0.19685969
0.1668147 -0.0066695004 0.05539858 -0.02564227 0.1539136 0.13079903 0.1019262 -0.1413383
0.05608811 -0.10886121 -0.045816798 -0.105646975 -0.0978959 -0.0027175525 0.1592469 0.17429447
-0.13340518 -0.11864909 -0.10231889 -0.06024987 0.091444686 0.13175978 0.0252993 -0.1424532
-0.18868534 0.07452187 0.035736166 -0.023581391 -0.06706536 0.18885183 -0.038949527 -0.13151255
0.12355303 0.14913325 0.13150768 -0.19189994 0.12440397 0.10981642 -0.18686785 -0.19560096
-0.009883278 0.16639803 -0.13919306 -0.05401772 -0.18111181 0.08220932 0.05400679 0.1851061
-0.07248133 0.06752452 0.046081968 -0.10257311 0.18427394 -0.03390895 -0.08790872 0.16332625
-0.033677276 -0.08166392 0.018829504 0.03466348 0.068999976 0.17237493 -0.19964188 -0.16476204
-0.029006539 -0.0795174 0.039685775 -0.0713774 0.06338085 0.17267743 0.018218977 -0.017297069
00000000: 9c02 ce3d ca4f 823d d66f 0e3e 1ec1 4cbd
00000010: 54d0 233e 2985 1b3e 45e9 1c3e b0f1 953d
00000020: baf9 493e bb8e 27be 8d2f ccbd 5fb4 68bc
00000030: 03c1 34be 5499 8abc ab72 083e e0fa 4b3e
00000040: 30ce 28be edfd f53a e0f5 0cbd 8ba0 273d
00000050: 1627 ef3d f509 43be f4b5 143e 8e57 383e
00000060: 8bff 83bd faf4 213e 9b25 5ebd af1f bcbd
00000070: 1117 773d 7a42 8e3d a738 423c 9201 35be
00000080: 6891 eebd 44be f3bd dd43 1e3b 8b5b 403e
00000090: bf16 2d3c d4bd be3d f0c1 ef3d 5d85 de3a
000000a0: 8dc5 833c 8d3e d73d 19c7 d93d de9f 46bd
000000b0: 2c56 8fbb 12f7 403d 55a6 98bd 2e64 0fbd
000000c0: 04f6 a8bd 8b77 143c 442d 2bbe 359d 123e
000000d0: faf3 433e d6c6 cd3d 66c4 3b3e cf97 5c3d
000000e0: 69ca 4abe 083f 303e 9220 2cbe 358f 473e
000000f0: d3de a8bd 1809 88bd 27a7 f43d 8bea 8dbd
00000100: 37da 8dbd c569 54be 47c0 eabd 5cc3 29be
00000110: 727f 2ebd af66 fabd de7c 853d 87da ec3c
00000120: 4382 6dbd 1cf3 d73d 122d 9fbd 54b3 52be
00000130: 1f0c 0c3e 377b f0bd bf64 173d 7894 23be
00000140: 08b2 1b3d c9e3 c8bd b63e 573e 8486 10be
00000150: bf64 eabd 021c fdbc 8ce3 c9bd 820c 25be
00000160: 6b93 5b3d 4559 173e 45e8 89bb b9c3 ac3c
00000170: 49cd 13be bd86 76bd 3178 a5bd ab7f c6bc
00000180: 697b 073e e2a0 03be 48ba 933d 33c6 25be
00000190: 6829 f73c 5157 b43c 868f e2bd f271 06bc
000001a0: 3195 53be 141c c5bc 88d1 abbd 1ae4 053e
000001b0: cfc8 c83d a763 c23d c791 483c 2baf cfbd
000001c0: ddea 4abe 5182 9fbc bc30 f8bc 081c cfbc
000001d0: dc9a 90bc 5f49 4b3e cf55 323e 1794 edbc
000001e0: 4cbc ed3d 439b 143e 695f 20be 72cf 083e
000001f0: 7811 cf3c 26fb b0bd e2e1 363e ee4e 40be
00000200: b525 46bd 9ee5 12be 9e42 ffbc 75d3 2c3e
00000210: ccbb f23b 59b0 f73d 8897 a73c 6c84 be3b
00000220: ba16 14bd 91f8 bfbd 5bef 333d a26c c63d
00000230: a33b 04be f453 313e bff8 cb3d 2bda 893c
00000240: 8f97 8abd 6983 8dbd 1753 ea3d 23e9 3e3d
00000250: d5a8 303c 888d 58bd 362b c13d 539c 9dbc
00000260: b6e9 7d3d 39f6 163d ed00 913d 4656 443e
00000270: 86b4 c1bd 6837 43be f3de b93d 72f4 043e
00000280: 26a8 1dbe bb82 023e eae2 76bd 6a21 8dbd
00000290: 85e0 453e e6ed dcbc 90d6 10be 6e1f 38be
000002a0: 5425 5e3e 61ea bd3d 4389 073e 9c2b 03be
000002b0: 8d02 20be c8da 3f3d 9c05 ac3d de0c f8bd
000002c0: 3168 c0bd ecba 53bc c192 a93c 566c 5f3c
000002d0: b8d3 0ebe c69c bcbd 782f aa3d 9695 493e
000002e0: 79d1 2a3e d38b dabb 9fe9 623d bd0f d2bc
000002f0: 879b 1d3e 2ef0 053e afbe d03d fdba 10be
00000300: a5bc 653d a0f2 debd 65aa 3bbd 715d d8bd
00000310: a57d c8bd f718 32bb 9f11 233e 407a 323e
00000320: 5e9b 08be 4bfe f2bd 918c d1bd 91c8 76bd
00000330: 5a47 bb3d 09ec 063e 7a40 cf3c 40df 11be
00000340: bb36 41be ec9e 983d 1660 123d c32d c1bc
00000350: 9059 89bd 6062 413e 8a89 1fbd 3aab 06be
00000360: 5f09 fd3d 63b6 183e f3a9 063e 6b81 44be
00000370: 82c7 fe3d 6ee7 e03d 495a 3fbe 9e4b 48be
00000380: 79ed 21bc 3f64 2a3e a088 0ebe af41 5dbd
00000390: 6075 39be 5c5d a83d 3936 5d3d 748c 3d3e
000003a0: 1771 94bd 4c4a 8a3d 72c0 3c3d da11 d2bd
000003b0: 4fb2 3c3e 1ce4 0abd 7d09 b4bd ff3e 273e
000003c0: 2ff1 09bd 6a3f a7bd 5540 9a3c 4bfb 0d3d
000003d0: dc4f 8d3d 0e83 303e ec6e 4cbe 61b7 28be
000003e0: 1f9f edbc 05da a2bd 8d8d 223d 502e 92bd
000003f0: d2cd 813d 5ad2 303e f73f 953c 95b2 8dbc

bias f4 [252]
0.17246753 -0.023328735 -0.19044997 -0.18358847 -0.005264947 0.207079 0.13226038 0.11638422
0.1421471 -0.032999538 0.14145096 -0.0020561493 -0.024948621 0.121933274 -0.014681204 0.19092919
0.009258531 0.07540884 -0.014497177 0.024962025 0.046853058 -0.18045028 0.074071154 0.07942713
0.14218697 -0.13295934 -0.10756489 -0.1123018 0.08965195 0.046645403 0.13265157 -0.1753576
0.18265057 0.1587154 0.020464282 0.17335007 0.07575488 -0.12270742 -0.01042667 0.019065186
0.20137331 0.18425083 0.015258687 -0.06954705 -0.12012675 0.11067361 0.2038395 0.009576885
0.07292507 0.1893501 -0.12647797 0.0019630047 0.032337107 -0.058063727 0.032153968 0.063645855
0.08738803 0.12065436 0.051531624 0.1576005 0.08904343 -0.02099186 0.11909106 -0.10646662
0.02641771 0.16723679 0.052709773 0.13048209 -0.07164285 -0.112026066 -0.12484357 0.1344675
-0.039126646 -0.15083082 0.18578155 -0.09606512 -0.19016288 0.027891785 -0.008557355 0.18361674
-0.07644111 0.18465216 -0.18147017 0.08686631 0.048940748 0.10203657 0.023528961 0.12745295
-0.029144708 0.20040683 -0.12282122 -0.06965036 0.12109145 0.15467177 -0.10481061 -0.0623704
0.0019037814 -0.13762712 0.1995813 0.028282268 -0.18010758 0.034103747 -0.12359887 0.05493873
0.17052796 0.15168494 -0.059051976 -0.15529063 0.18193036 -0.16896963 0.13582487 -0.07020482
0.01586905 -0.046269916 -0.13701801 -0.12433954 0.13585705 -0.16009499 -0.08124136 0.028020728
0.11122527 -0.09250837 0.0512421 0.18746546 -0.002313424 -0.0692885 0.16638136 0.15855096
0.19580221 0.07968179 -0.059237268 -0.16607107 0.07950468 0.1389513 -0.10238348 0.0728805
-0.07974112 -0.0044244826 0.003457676 -0.045791518 0.111228295 -0.17582059 0.19351691 -0.034903146
-0.075022675 0.09185494 0.028134612 -0.1669991 -0.13664022 0.11130279 0.022775797 0.008710318
-0.1590136 -0.1390052 -0.07457275 -0.091047004 -0.11910884 0.022464791 0.11758253 -0.15517756
0.13164258 0.15057726 -0.18525347 0.109946795 -0.059800126 0.020943373 -0.03130911 -0.052987788
0.089427896 0.0967201 -0.12491552 0.18236041 0.10975618 0.17230621 0.104011215 -0.06665894
0.16402183 0.07771706 -0.031467862 0.05221079 0.015440885 -0.16032463 0.09777556 -0.1528344
-0.18410276 0.08352854 -0.017951857 0.21396494 -0.14546579 -0.053663813 -0.008266155 -0.12291322
0.062038 -0.02386755 0.16397691 0.18725714 0.16424519 -0.18777947 0.0133088315 0.13722312
0.050766714 -0.06792988 -0.053311683 0.13643256 0.15973248 0.041983012 -0.03138521 -0.13871098
-0.08935008 -0.15360343 0.15801024 -0.02817338 -0.15228866 -0.1632973 -0.17002417 -0.0061712367
0.08079877 -0.04255456 0.13856067 -0.09537219 -0.10979339 -0.0995169 -0.16512986 0.11381454
0.081184134 -0.08995075 -0.18719745 0.044644833 0.15820894 -0.16278584 -0.018043514 -0.05494064
-0.05486218 0.055864528 -0.07938751 0.049261916 -0.08184859 0.050356183 0.013749186 -0.014036108
0.05777736 0.19912006 -0.1102997 0.06451694 0.1085144 -0.17141676 0.04814624 -0.041421246
0.0046716584 -0.18865876 -0.008311326 0.20032108
00000000: 549b 303e e71b bfbc 5105 43be 9efe 3bbe
00000010: 9485 acbb 840c 543e 446f 073e da5a ee3d
00000020: 028f 113e 862a 07bd 85d8 103e 76c0 06bb
00000030: 0d61 ccbc 27b8 f93d 6f89 70bc f182 433e
00000040: 18b1 173c f36f 9a3d 9185 6dbc 297d cc3c
00000050: fee8 3f3d f5c7 38be 9eb2 973d b1aa a23d
00000060: 7699 113e 7e26 08be fb4a dcbd 7cfe e5bd
00000070: 719b b73d 400f 3f3d d0d5 073e f190 33be
00000080: c008 3b3e 4a86 223e b6a4 a73c ae82 313e
00000090: 6025 9b3d 074e fbbd a0d4 2abc 982e 9c3c
000000a0: ce34 4e3e 40ac 3c3e 92ff 793c af6e 8ebd
000000b0: 0305 f6bd d8a8 e23d 4dbb 503e 5ee8 1c3c
000000c0: bd59 953d fee4 413e 7183 01be c1a5 003b
000000d0: ea73 043d 3bd4 6dbd e1b3 033d c258 823d
000000e0: 7ff8 b23d a219 f73d d312 533d 0762 213e
000000f0: 675c b63d 1ff7 abbc 03e6 f33d 2c0b dabd
00000100: f469 d83c 1f40 2b3e 34e6 573d 199d 053e
00000110: 7db9 92bd ec6d e5bd fcad ffbd d9b1 093e
00000120: 4343 20bd 6573 1abe 853d 3e3e cabd c4bd
00000130: 0fba 42be 507d e43c 2634 0cbc 0706 3c3e
00000140: 288d 9cbd 7515 3d3e 51d3 39be f7e6 b13d
00000150: 1876 483d 8df8 d03d cfbf c03c 0783 023e
00000160: e2c0 eebc 7337 4d3e b189 fbbd d9a4 8ebd
00000170: cbfe f73d 4762 1e3e f2a6 d6bd 1b78 7fbd
00000180: 4e88 f93a 20ee 0cbe 0a5f 4c3e 37b0 e73c
00000190: 1f6e 38be 5fb0 0b3d 6821 fdbd 6f07 613d
000001a0: e29e 2e3e 4c53 1b3e 7ce0 71bd 8204 1fbe
000001b0: f44b 3a3e 6006 2dbe ad15 0b3e 8bc7 8fbd
000001c0: cfff 813c 8685 3dbd 734e 0cbe bba5 febd
000001d0: 1c1e 0b3e f1ef 23be df61 a6bd ba8b e53c
000001e0: 13ca e33d 0775 bdbd 3ce3 513d f2f6 3f3e
000001f0: d09c 17bb 21e7 8dbd e05f 2a3e 2f5b 223e
00000200: 6080 483e 3530 a33d c7a2 72bd 890e 2abe
00000210: 5ad3 a23d 4049 0e3e 6eae d1bd 5f42 953d
00000220: 504f a3bd 40fb 90bb 2d9a 623b e38f 3bbd
00000230: a9cb e33d 500a 34be 4c29 463e 9af6 0ebd
00000240: 7da5 99bd 711e bc3d 8f7a e63c d001 2bbe
00000250: 6aeb 0bbe b8f2 e33d 4f94 ba3c b9b5 0e3c
00000260: 76d4 22be 6157 0ebe 99b9 98bd da76 babd
00000270: 56ef f3bd 1508 b83c 1ccf f03d dee6 1ebe
00000280: 50cd 063e ed30 1a3e 16b3 3dbe c92b e13d
00000290: faf0 74bd 7091 ab3c fb3d 00bd b909 59bd
000002a0: f925 b73d 3015 c63d b5d3 ffbd b0bc 3a3e
000002b0: d9c7 e03d 0a71 303e d503 d53d 7b84 88bd
000002c0: 57f5 273e 1f2a 9f3d 72e4 00bd fbda 553d
000002d0: c4fb 7c3c 242c 24be 8e3e c83d 9f80 1cbe
000002e0: 6f85 3cbe 0311 ab3d c60f 93bc a019 5b3e
000002f0: fcf4 14be 96ce 5bbd c46e 07bc edb9 fbbd
00000300: 8f1b 7e3d e185 c3bc 90e9 273e 56c0 3f3e
00000310: e42f 283e 4349 40be 490d 5a3c 3884 0c3e
00000320: c2f0 4f3d d21e 8bbd 5a5d 5abd fab4 0b3e
00000330: e990 233e 61f6 2b3d c78d 00bd 400a 0ebe
00000340: 2dfd b6bd 384a 1dbe 70cd 213e dccb e6bc
00000350: 8ff1 1bbe 6837 27be d11a 2ebe 1638 cabb
00000360: d379 a53d b14d 2ebd d9e2 0d3e 7f52 c3bd
00000370: 5bdb e0bd 84cf cbbd cd17 29be 9917 e93d
00000380: de43 a63d 1938 b8bd b0b0 3fbe 80dd 363d
00000390: 8601 223e 55b1 26be fecf 93bc 7009 61bd
000003a0: 2ab7 60bd 34d2 643d eb95 a2bd ddc6 493d
000003b0: 3ca0 a7bd 4942 4e3d 4444 613c b4f7 65bc
000003c0: f4a7 6c3d 21e6 4b3e cfe4 e1bd 7521 843d
000003d0: cc3c de3d e087 2fbe fe34 453d 53a9 29bd
000003e0: b614 993b c32f 41be 3a2c 08bc f820 4d3e

weight f4 [242, 252]
0.009620938 0.011607918 -0.043996103 0.018533971 0.012084259 -0.060617127 0.042511348 0.0020008655
0.014950406 -0.05208081 -0.04673059 0.011293047 -0.05202852 0.04657455 0.04506628 -0.030475726
0.037589364 -0.044132736 0.05887141 -0.023971776 -0.016038416 -0.052834824 -0.04236038 -0.00357194
0.04200614 0.02289096 -0.009088046 -0.02990533 0.0097342795 -0.013125335 0.0525048 0.047191847
0.0048731244 0.04522959 -0.0044480637 -0.054960463 -0.013840089 0.021871282 -0.035933547 0.04562272
-0.005649475 0.02274806 0.03335021 0.059229333 -0.016691837 -0.05171551 -0.0011517621 0.007506647
-0.048937056 0.056416024 0.019865254 -0.015147791 0.053933714 -0.03211397 0.048471414 -0.054890074
0.010335429 0.04672073 0.02871026 0.055007786 -0.01957163 -0.030500732 -0.051785935 -0.034601204
-0.03817353 -0.023126442 0.021741217 0.06433033 0.004876551 -0.041641414 0.040155735 -0.032989733
0.026389135 -0.04349958 -0.019661842 -0.033840492 -0.020058392 0.026011081 -0.032359116 0.0555436
0.060887534 0.006820745 -0.038886834 -0.004049634 0.016213354 0.051581394 0.03696512 0.020730305
0.017344 0.031639487 -0.002889181 0.0391141 0.01829352 -0.02040894 0.037965793 -0.044211406
-0.027977278 0.063935004 0.009210329 -0.017316898 0.030278929 0.055775758 0.030051528 0.036690813
0.0249812 -0.014153982 0.030312875 -0.038748942 0.013828477 0.04300258 -0.04034822 0.062134475
-0.05763937 0.023349462 0.01567538 0.048079066 -0.0056986674 0.032895967 0.007546681 0.013394324
0.061753493 0.0037958869 -0.039511546 -0.04568238 0.0017128247 -0.025466438 -0.033266705 0.030203888
-0.022710977 -0.0035041005 0.04032468 0.032787353 0.04828713 -0.057160046 -0.039478607 -0.008466433
0.00084962405 0.00853923 0.054763976 0.007986178 0.038224157 -0.055586673 0.029909218 0.020228192
0.0076915883 0.053681616 -0.0542387 0.054778777 -0.03319035 -0.046039168 0.06735822 -0.037139382
0.0031096905 0.028004596 -0.0425637 0.034299295 0.036815204 0.055787593 -0.04062096 0.009392875
-0.050110027 -0.050910868 -0.035747282 0.045276437 0.042559534 -0.03291924 0.0360813 0.0088206045
0.05751201 -0.0055295243 0.0041037467 -0.027551815 -0.056461312 0.026967378 -0.03270883 0.0198422
-0.027657624 -0.031103743 0.04060098 -0.052013792 -0.018874558 -0.052500103 0.032027006 -0.04087909
0.0103742685 -0.058302335 -0.019226693 -0.02767479 -0.054907948 -0.029555794 0.021223078 -0.017284058
-0.0061737266 0.020349476 0.03230188 -0.025820287 0.063728556 0.058710232 0.007906596 0.033151697
-0.033933286 -0.0010606503 -0.057278316 0.020009024 -0.03780393 0.041664314 0.041821435 -0.044586644
0.06644386 -0.028427582 0.008586 0.02510444 0.0027192088 -0.05141894 0.010218919 -0.03461533
0.01854927 0.050347056 0.0012251305 -0.05272792 -0.008174614 0.04813834 -0.03582334 0.039634217
0.015803436 -0.018268788 0.002663425 0.043521572 0.011936089 -0.049386296 0.032524843 0.04371532
-0.057286363 -0.027990563 0.025036015 -0.0071108867 -0.031471487 -0.019042805 -0.003992521 -0.01155656
-0.028729152 0.015201179 -0.057874616 -0.03377487 0.007795148 -0.03674184 0.031673342 -0.0001427254
0.01085134 0.060725633 0.018439554 -0.0412063 0.02430434 -0.01628962 -0.044013064 -0.052269176
00000000: 24a1 1d3c 232f 3e3c 4235 34bd 8ed4 973c
00000010: 0efd 453c aa49 78bd 6120 2e3d f420 033b
00000020: 8cf2 743c b052 55bd 9368 3fbd 7906 393c
00000030: db1b 55bd f5c4 3e3d 6b97 383d 3ba8 f9bc
00000040: 4ef7 193d 87c4 34bd 2623 713d 7560 c4bc
00000050: ff62 83bc 5469 58bd 1482 2dbd 3517 6abb
00000060: a10e 2c3d d385 bb3c 07e6 14bc 06fc f4bc
00000070: 877c 1f3c a50b 57bc 460f 573d 3d4c 413d
00000080: bbae 9f3b aa42 393d 10c1 91bb 391e 61bd
00000090: 8ac1 62bc 672b b33c 0e2f 13bd e4de 3a3d
000000a0: 3b1f b9bb 245a ba3c 3b9a 083d 759a 723d
000000b0: 52bd 88bc a5d3 53bd b9f6 96ba 52fa f53b
000000c0: 3972 48bd 7d14 673d 75bc a23c 712e 78bc
000000d0: 99e9 5c3d f089 03bd f689 463d 6ad4 60bd
000000e0: ee55 293c 3c5e 3f3d c731 eb3c d84f 613d
000000f0: af54 a0bc acdc f9bc 7d1d 54bd feb9 0dbd
00000100: d95b 1cbd aa73 bdbc a31a b23c 9fbf 833d
00000110: 7acb 9f3b 3090 2abd 577a 243d 3e20 07bd
00000120: 072e d83c 9e2c 32bd df11 a1bc 549c 0abd
00000130: 7f51 a4bc 3115 d53c fe8a 04bd b081 633d
00000140: 3565 793d 8e80 df3b cd47 1fbd cbb2 84bb
00000150: ded1 843c 0347 533d bd68 173d 9ad2 a93c
00000160: 0115 8e3c 6898 013d 6a58 3dbb 1b36 203d
00000170: 4bdc 953c a630 a7bc 0582 1b3d 0517 35bd
00000180: 9b30 e5bc 5bf0 823d ebe6 163c 2bdc 8dbc
00000190: 840b f83c 1f75 643d 9f2e f63c 1b49 163d
000001a0: 60a5 cc3c 1ae6 67bc b552 f83c 36b7 1ebd
000001b0: d690 623c 7923 303d 2d44 25bd b880 7e3d
000001c0: 4317 6cbd 5f47 bf3c a869 803c 8eee 443d
000001d0: e3bb babb ecbd 063d 264a f73b de73 5b3c
000001e0: 3bf1 7c3d 6ac4 783b dcd6 21bd 731d 3bbd
000001f0: dc80 e03a fe9e d0bc ab42 08bd 256e f73c
00000200: 5f0c babc 0da5 65bb 7e2b 253d 084c 063d
00000210: bac8 453d a720 6abd 52b4 21bd cbb6 0abc
00000220: 4eb9 5e3a 20e8 0b3c 3150 603d 75d8 023c
00000230: ef90 1c3d daae 63bd 2d04 f53c 98b5 a53c
00000240: b809 fc3b 41e1 5b3d 6629 5ebd b65f 603d
00000250: 9bf2 07bd 9193 3cbd 1bf3 893d 771f 18bd
00000260: f3cb 4b3b e569 e53c 4657 2ebd 6b7d 0c3d
00000270: 8acb 163d 8881 643d 2a62 26bd 93e4 193c
00000280: 2c40 4dbd ea87 50bd be6b 12bd c973 393d
00000290: e852 2e3d 53d6 06bd fcc9 133d 4c84 103c
000002a0: b791 6b3d 0331 b5bb b978 863b 58b4 e1bc
000002b0: fa43 67bd b1ea dc3c b2f9 05bd 1c8c a23c
000002c0: 3e92 e2bc 47cd febc 374d 263d 6a0c 55bd
000002d0: d19e 9abc 590a 57bd c02e 033d d570 27bd
000002e0: d6f8 293c 6ece 6ebd 4c81 9dbc 3eb6 e2bc
000002f0: 28e7 60bd fe1e f2bc 05dc ad3c 4c97 8dbc
00000300: f94c cabb f2b3 a63c fa4e 043d 1185 d3bc
00000310: 1e84 823d 247a 703d ab8a 013c 13ca 073d
00000320: a1fd 0abd 8505 8bba ab9c 6abd f7e9 a33c
00000330: 4bd8 1abd 33a8 2a3d f44c 2b3d 7ca0 36bd
00000340: b813 883d f6e0 e8bc 4bac 0c3c d4a7 cd3c
00000350: c134 323b ab9c 52bd 416d 273c cec8 0dbd
00000360: a4f4 973c b738 4e3d 8f94 a03a 3bf9 57bd
00000370: d1ee 05bc b52c 453d 7fbb 12bd 7d57 223d
00000380: 3576 813c 6da8 95bc db8c 2e3b ad43 323d
00000390: 968f 433c 4949 4abd c538 053d d60e 333d
000003a0: 1ba5 6abd 774c e5bc 5418 cd3c 7102 e9bb
000003b0: 3fe8 00bd a8ff 9bbc b2d3 82bb ba57 3dbc
000003c0: 6659 ebbc 5e0e 793c ef0d 6dbd 8557 0abd
000003d0: 716e ff3b 9d7e 16bd e8bb 013d 8fa8 15b9
000003e0: d2c9 313c 71bb 783d 8c0e 973c f0c7 28bd
000003f0: e519 c73c cf71 85bc 0b47 34bd 3418 56bd

bias f4 [242]
0.021934753 0.07156694 -0.064009644 -0.025618259 -0.05656413 0.0656886 -0.004798565 -0.014538468
-0.017691428 -0.003198739 0.02424789 0.011887752 -0.030166365 -0.034306195 -0.05006472 0.03620906
0.0018183991 0.0570611 0.037826262 0.046260044 0.026358694 -0.049923014 -0.045291815 0.05562655
0.03869298 -0.020196842 0.030480772 0.049361777 -0.04728435 -0.01915612 -0.029110044 0.022431895
-0.03304733 0.0054074624 0.021152424 0.067621164 -0.055347387 -0.010929896 0.018681046 0.029006429
-0.057694122 0.065428026 0.021740695 0.017686365 0.0090681985 -0.05182383 -0.016451785 0.031189287
0.05697395 0.059749372 -0.0075766747 -0.044856895 0.027952518 -0.023642428 -0.007165138 0.009984945
0.043948628 -0.043812796 -0.01798235 0.025695162 -0.042937346 0.047793284 0.013019981 -0.015897227
-0.0332956 -0.029531593 0.053412925 -0.027059069 -0.013255649 0.007821206 0.018844128 -0.0057243933
0.023493748 -0.035431415 0.019605985 0.046785384 0.00963969 -0.031855486 0.06469025 0.05121429
-0.069607526 -0.015990391 0.03216312 -0.02064876 0.06495454 0.051486947 -0.025638526 -0.041666023
-0.01891277 -0.030302878 0.027240187 0.04479176 -0.026164448 -0.0016487506 -0.013985149 -0.017792745
0.00080921827 0.0032907655 -0.037737723 0.0075193285 0.060338676 0.018705368 0.01091258 0.040087417
-0.0029693053 -0.030046891 -0.07142357 0.027011096 -0.052451562 0.05827583 0.039687663 0.04541348
-0.031734817 0.056456782 0.030712161 -0.014181742 -0.015118996 -0.051996265 0.05615221 0.04026812
0.023873935 0.032319915 0.011883971 -0.039876673 -0.034390103 -0.05337349 0.014516223 0.028280305
0.006805989 -0.055074666 -0.015541814 0.023013525 -0.017550617 0.06032512 0.02146864 0.052793093
0.00302398 -0.0077516525 0.0403136 0.018544354 -0.034770954 0.06782294 -0.025117682 0.006093429
0.011678668 0.04633844 -0.0435871 0.024738234 0.020852113 -0.011812287 -0.016029818 -0.03443423
-0.003992942 -0.036160715 0.039491065 -0.040046696 0.020287815 0.07356587 -0.047782376 0.011138518
-0.038661834 0.06842997 0.05337472 -0.02713435 0.06365338 0.057912737 0.06674615 -0.01380311
-0.020659586 0.051463585 0.013544757 0.049336508 -0.021254612 -0.03797481 0.0055500064 0.006863344
0.008572638 -0.033457194 -0.055791385 0.015186142 0.014419646 -0.030240588 0.041251246 -0.05718922
-0.0024589996 -0.009218615 0.028003823 0.041623328 0.017751288 0.06384989 0.040013257 0.017691266
-0.020716919 -0.033258595 -0.01589907 -0.054242764 -0.0029089632 -0.004449001 -0.007663172 0.05785892
-0.0011741843 -0.055955797 0.05676323 0.004387274 0.008957953 0.03542324 -0.056756865 0.05929341
-0.061508987 0.037433863 0.039051175 0.0635532 -0.04385627 -0.026922775 -0.041951578 -0.02721708
-0.032223683 0.05168891 -0.043166768 -0.02720595 0.0702712 0.019244855 0.0684726 0.060103767
-0.035244953 0.07591678 -0.0626758 0.005332532 0.0075248745 0.038875356 0.021268455 0.0311606
0.03260553 0.061643247 0.025403526 -0.044550527 -0.007326204 0.021995658 0.031081015 0.006978658
-0.04564301 0.02569859
00000000: 83b0 b33c b091 923d 7d17 83bd 62dd d1bc
00000010: caaf 67bd bf87 863d 483d 9dbb c132 6ebc
00000020: 9ded 90bc efa1 51bb 83a3 c63c d9c4 423c
00000030: 741f f7bc a784 0cbd aa10 4dbd f44f 143d
00000040: 5957 ee3a e6b8 693d b6ef 1a3d 2c7b 3d3d
00000050: 30ee d73c 137c 4cbd e983 39bd aad8 633d
00000060: 887c 1e3d d973 a5bc d0b2 f93c 932f 4a3d
00000070: 3cad 41bd 4ced 9cbc 3078 eebc 18c3 b73c
00000080: a35c 07bd 1531 b13b d947 ad3c f77c 8a3d
00000090: f1b3 62bd 4e13 33bc fe08 993c e49e ed3c
000000a0: ac50 6cbd 21ff 853d 8b19 b23c ffe2 903c
000000b0: c892 143c 3945 54bd e5c5 86bc ad80 ff3c
000000c0: 845d 693d c2bb 743d c145 f8bb ddbb 37bd
000000d0: aefc e43c c4ad c1bc 89c9 eabb e597 233c
000000e0: 7a03 343d 0c75 33bd b94f 93bc a97e d23c
000000f0: 12df 2fbd e4c2 433d c251 553c e73a 82bc
00000100: f860 08bd 3dec f1bc 83c7 5a3d fbaa ddbc
00000110: 392e 59bc 8424 003c 005f 9a3c b193 bbbb
00000120: f675 c03c 8820 11bd bb9c a03c 08a2 3f3d
00000130: caef 1d3c e67a 02bd 527c 843d 13c6 513d
00000140: 648e 8ebd 48fe 82bc 7abd 033d 9727 a9bc
00000150: e306 853d fae3 523d e307 d2bc fea9 2abd
00000160: f4ee 9abc be3d f8bc d026 df3c 9177 373d
00000170: d356 d6bc e41a d8ba f721 65bc 17c2 91bc
00000180: b821 543a e2a9 573b df92 1abd b364 f63b
00000190: b025 773d 003c 993c aeca 323c b432 243d
000001a0: ad98 42bb e624 f6bc 8546 92bd 6046 dd3c
000001b0: 73d7 56bd a3b2 6e3d 888f 223d 7c03 3a3d
000001c0: 5efc 01bd 3a3f 673d 1298 fb3c 8a5a 68bc
000001d0: aab5 77bc 09fa 54bd dcff 653d 2ff0 243d
000001e0: 4593 c33c e361 043d fdb4 423c b955 23bd
000001f0: a3dc 0cbd 299e 5abd 74d5 6d3c 19ac e73c
00000200: c604 df3b f995 61bd 18a3 7ebc dc86 bc3c
00000210: 50c6 8fbc 7917 773d 00df af3c 923d 583d
00000220: f72d 463b 9301 febb e01f 253d 54ea 973c
00000230: fd6b 0ebd c1e6 8a3d 99c3 cdbc 63ab c73b
00000240: e257 3f3c 60cd 3d3d 6388 32bd d6a7 ca3c
00000250: 0dd2 aa3c 5388 41bc f750 83bc e80a 0dbd
00000260: 3ad7 82bb 421d 14bd 62c1 213d 0108 24bd
00000270: a232 a63c b4a9 963d 74b7 43bd 557e 363c
00000280: df5b 1ebd 0325 8c3d 739f 5a3d db48 debc
00000290: b45c 823d e835 6d3d 35b2 883d 7126 62bc
000002a0: 4b3e a9bc 7bcb 523d d4ea 5d3c 1415 4a3d
000002b0: 271e aebc 798b 1bbd d4dc b53b e7e5 e03b
000002c0: 4074 0c3c 690a 09bd 8285 64bd 4ccf 783c
000002d0: 6140 6c3c 1cbb f7bc 11f7 283d 3e3f 6abd
000002e0: 2b27 21bb ac09 17bc 4668 e53c 397d 2a3d
000002f0: 266b 913c bbc3 823d f1e4 233d 46ed 903c
00000300: 87b6 a9bc 2a3a 08bd c43e 82bc a92d 5ebd
00000310: 4ea4 3ebb edc8 91bb 591b fbbb 7afd 6c3d
00000320: 16e7 99ba e831 65bd 9080 683d 1fc3 8f3b
00000330: 61c4 123c f617 113d e379 68bd a6dd 723d
00000340: d9f0 7bbd 4054 193d 20f4 1f3d 2e28 823d
00000350: a2a2 33bd 278d dcbc 6bd5 2bbd 5bf6 debc
00000360: fbfc 03bd c0b7 533d a3cf 30bd 03df debc
00000370: 59ea 8f3d 63a7 9d3c 5d3b 8c3d 5e2f 763d
00000380: 035d 10bd 427a 9b3d 2b5c 80bd 85bc ae3b
00000390: 3993 f63b c43b 1f3d 2f3b ae3c 8444 ff3c
000003a0: 608d 053d a17d 7c3d 0e1b d03c 9d7a 36bd
000003b0: a710 f0bb 3d30 b43c 9d9d fe3c 3aad e43b
000003c0: 2af4 3abd d985 d23c

weight f4 [45, 242]
0.045387153 0.02471211 -0.06283188 -0.013184297 -0.034849837 0.005454587 -0.06440242 0.04190261
-0.042918514 -0.03123344 -0.046563897 0.051413585 -0.015513367 -0.047136374 -0.054689348 -0.04372035
0.044408534 -0.010891758 -0.040660612 0.057916705 0.03259491 -0.03137617 0.05307513 -0.046636324
-0.033185408 -0.023212954 0.03685123 -0.050895292 -0.02799145 0.028172243 0.02873678 -0.02372322
-0.0021775784 0.04050733 0.022572901 0.030752825 0.006189709 0.03407524 -0.00090655073 0.052279044
0.053229336 0.039506685 0.059022583 -0.05297834 0.018224208 -0.012716082 0.020249467 -0.012181906
0.058797207 0.008083579 -0.020878656 -0.057318352 -0.04377327 0.030801015 -0.046105072 -0.014099543
-0.056526504 -0.055095673 0.05750346 -0.0020371806 -0.019429658 -0.02812273 0.0441099 -0.014821522
-0.044680934 -0.038949676 -0.030398913 -0.05911181 -0.003886115 0.03910111 -0.042255085 -0.03646004
0.048223678 0.010466643 0.011991382 -0.06375333 -0.06696076 -0.030863378 0.05696482 -0.0143064475
0.03905038 -0.014386792 -0.061853703 0.009611377 -0.006218134 -0.02778496 -0.029025672 -0.059907254
0.025300233 -0.012108717 -0.0227044 -0.06321724 -0.065841615 -0.0389963 -0.02553511 0.037574273
0.03955392 0.052720193 -0.06650337 0.048436716 0.014077728 -0.018940005 0.026651643 -0.04041119
-0.04291253 0.023016283 0.059844144 0.04383652 -0.04115798 -0.06169314 -0.04453601 0.0081587
-0.010841433 -0.0061761714 -0.022660004 0.051138345 -0.05532968 -0.056862008 -0.060991224 -0.06686407
-0.044255618 0.014649738 -0.010641214 0.05435512 -0.050261594 -0.05639861 0.03361921 0.018233519
0.04063561 -0.032718167 -0.0045423904 0.010377257 -0.06707479 -0.03615398 -0.04384102 -0.02593625
-0.0011252945 0.03645589 0.049444873 0.020698447 -0.01670105 -0.061315726 -0.019830454 0.010903717
0.0050766184 -0.0066382387 -0.056603417 -0.0065960754 -0.04297609 0.01308463 -0.030710043 -0.025728725
-0.06449652 -0.037739836 -0.06748552 0.03544881 0.042408016 0.027492722 0.028575031 0.031827666
-0.019397924 -0.04348374 -0.055167474 -0.05271939 -0.068837635 -0.06150016 0.060234442 0.04553495
0.042174783 0.040452294 -0.00043323453 -0.0059054587 0.0556489 0.052644104 0.0005287033 0.058744755
0.044610497 -0.02761323 -0.061393782 0.052566186 0.041927733 0.0013838115 -0.036101185 0.056071974
0.0027600923 -0.011210444 0.053642694 0.047363624 0.022833858 0.01525641 -0.024998624 0.05813594
-0.0509816 0.05288224 -0.03753519 0.006082293 0.05954083 -0.06344962 -0.06057666 0.05510752
0.056381166 0.05216557 -0.016303796 -0.008314059 -0.008459846 -0.020268055 0.0154233 0.06045169
0.020215966 0.056575123 0.042847067 -0.04732331 -0.039730597 -0.014452213 -0.061411727 -0.009836836
0.044300936 0.031586576 -0.033312533 -0.045135774 -0.062270686 -0.043185715 -0.015545155 -0.055798247
0.031191874 -0.03318621 0.03683192 0.050818436 -0.028946295 -0.053610157 -0.0032535181 0.056047797
0.016262593 -0.023515476 -0.0025897385 -0.014037054 -0.0061571975 -0.02784951 0.019087011 0.0012096617
0.05194658 -0.0059208977 -0.03299471 0.0104159145 -0.039739907 0.073812835 0.039715614 0.044952158
-0.03494053 -0.016783273 0.059821434 0.017734941 -0.029382737 0.0019456984 0.06151828 0.027271492
00000000: e1e7 393d 0d71 ca3c 00ae 80bd f302 58bc
00000010: b4be 0ebd 64bc b23b 6ae5 83bd 12a2 2b3d
00000020: 53cb 2fbd 45dd ffbc c9b9 3ebd 0d97 523d
00000030: c72b 7ebc 1212 41bd f001 60bd 1c14 33bd
00000040: b9e5 353d 5873 32bc be8b 26bd 113a 6d3d
00000050: 3e82 053d 4d84 00bd 4f65 593d bb05 3fbd
00000060: 6ced 07bd 1829 bebc 51f1 163d 9577 50bd
00000070: 534e e5bc 7ac9 e63c 6569 eb3c 3357 c2bc
00000080: b4b5 0ebb 04eb 253d ceea b83c 59ed fb3c
00000090: 0bd3 ca3b 7b92 0b3d 97a5 6dba 8d22 563d
000000a0: 0107 5a3d c3d1 213d aac1 713d d1ff 58bd
000000b0: ef4a 953c 1d57 50bc 36e2 a53c 9e96 47bc
000000c0: 57d5 703d fd70 043c b709 abbc a6c6 6abd
000000d0: 9a4b 33bd 6952 fc3c acd8 3cbd c501 67bc
000000e0: 5688 67bd 00ac 61bd c088 6b3d 3882 05bb
000000f0: f22a 9fbc a461 e6bc 95ac 343d f8d5 72bc
00000100: 5b03 37bd b289 1fbd 2407 f9bc 3a1f 72bd
00000110: 31ae 7ebb 7c28 203d ab13 2dbd 1f57 15bd
00000120: 3186 453d 487c 2b3c 8077 443c 1b91 82bd
00000130: b922 89bd 32d5 fcbc f153 693d 9765 6abc
00000140: 4bf3 1f3d 94b6 6bbc 4f5a 7dbd 0979 1d3c
00000150: 7dc1 cbbb 499d e3bc 3fc7 edbc 4f61 75bd
00000160: 6f42 cf3c a463 46bc 94fe b9bc 0a78 81bd
00000170: f8d7 86bd 96ba 1fbd 022f d1bc 7be7 193d
00000180: 4b03 223d 21f1 573d eb32 88bd 9465 463d
00000190: 45a6 663c 1228 9bbc 8c54 da3c 3486 25bd
000001a0: 0dc5 2fbd a58c bc3c 221f 753d ec8d 333d
000001b0: 4595 28bd f2b1 7cbd 646b 36bd 11ac 053c
000001c0: 44a0 31bc 7b61 cabb 79a1 b9bc 7176 513d
000001d0: 60a1 62bd 23e8 68bd efd1 79bd 08f0 88bd
000001e0: 6145 35bd 7405 703c 7d58 2ebc 79a3 5e3d
000001f0: 1adf 4dbd 3b02 67bd 4cb4 093d 765e 953c
00000200: 8771 263d 7c03 06bd 55d8 94bb 5f05 2a3c
00000210: 825e 89bd 3216 14bd a492 33bd 4278 d4bc
00000220: 9e7e 93ba c552 153d b586 4a3d ca8f a93c
00000230: a4d0 88bc 3326 7bbd 7a73 a2bc 81a5 323c
00000240: c359 a63b 9585 d9bb fcd8 67bd e423 d8bb
00000250: b207 30bd ea60 563c a193 fbbc 0cc5 d2bc
00000260: c016 84bd 1695 1abd d935 8abd c532 113d
00000270: 07b4 2d3d 6b38 e13c 2f16 ea3c ba5d 023d
00000280: 65e8 9ebc 021c 32bd 4af7 61bd 49f0 57bd
00000290: bffa 8cbd 97e7 7bbd 64b8 763d db82 3a3d
000002a0: 77bf 2c3d 4eb1 253d c123 e3b9 9482 c1bb
000002b0: 1af0 633d 58a1 573d ae98 0a3a 579e 703d
000002c0: 7fb9 363d 2435 e2bc 0c78 7bbd a44f 573d
000002d0: 6abc 2b3d 0261 b53a d6de 13bd baab 653d
000002e0: aae2 343b 03ac 37bc 71b8 5b3d 5c00 423d
000002f0: 120e bb3c 06f6 793c eac9 ccbc f41f 6e3d
00000300: 15d2 50bd 0c9b 583d 80be 19bd f94d c73b
00000310: 16e1 733d e0f1 81bd 3b1f 78bd 6cb8 613d
00000320: f0ef 663d 91ab 553d 8a8f 85bc b137 08bc
00000330: 2a9b 0abc 3109 a6bc 02b2 7c3c 319c 773d
00000340: f49b a53c 51bb 673d 6880 2f3d 16d6 41bd
00000350: 8dbc 22bd fac8 6cbc dd8a 7bbd ae2a 21bc
00000360: e674 353d ed60 013d b972 08bd 4ae0 38bd
00000370: 8c0f 7fbd 81e3 30bd 1bb1 7ebc b48c 64bd
00000380: 1a86 ff3c 43ee 07bd 11dd 163d fe26 503d
00000390: c820 edbc 5396 5bbd fa38 55bb 6092 653d
000003a0: 2139 853c 87a3 c0bc 9ab8 29bb acfb 65bc
000003b0: 51c2 c9bb a824 e4bc 5d5c 9c3c 838d 9e3a
000003c0: f0c5 543d 1704 c2bb 7625 07bd 83a7 2a3c
000003d0: 50c6 22bd 2f2b 973d d7ac 223d c11f 383d
000003e0: cd1d 0fbd 137d 89bc 5207 753d de48 913c
000003f0: 11b4 f0bc ce06 ff3a 98fa 7b3d 7768 df3c

bias f4 [45]
-0.052536182 -0.04300068 0.05706811 -0.039500847 0.052705705 -0.025285129 -0.021183344 0.057503927
0.062363103 0.043476466 -0.030751744 0.041873343 -0.0073838555 0.050814196 0.013131401 0.017710926
-0.024922168 -0.024365434 0.0050140247 0.033835147 -0.004888099 0.012782398 -0.03146141 -0.031703822
-0.043623097 0.030909834 0.05903888 -0.031788852 -0.0502328 0.06902836 0.01487278 -0.052825775
0.020686027 0.023747878 -0.01344028 0.05816557 0.030846687 0.009887753 0.031154728 -0.0500081
0.039264362 -0.04649289 -0.018664347 0.076571636 -0.022291545
00000000: 2e30 57bd 7b21 30bd 40c0 693d a4cb 21bd
00000010: f0e1 573d c222 cfbc b188 adbc 3d89 6b3d
00000020: 7470 7f3d 6114 323d 15eb fbbc 6283 2b3d
00000030: 45f4 f1bb 8c22 503d 1625 573c 8116 913c
00000040: 9329 ccbc 059a c7bc b04c a43b b996 0a3d
00000050: 592c a0bb 436d 513c aedd 00bd dedb 01bd
00000060: 22ae 32bd 9f36 fd3c c1d2 713d 0735 02bd
00000070: e9c0 4dbd be5e 8d3d f6ac 733c d75f 58bd
00000080: be75 a93c e98a c23c 9f34 5cbc 053f 6e3d
00000090: 31b2 fc3c 3e00 223c 3338 ff3c 4bd5 4cbd
000000a0: abd3 203d 546f 3ebd f9e5 98bc 97d1 9c3d
000000b0: c29c b6bc

weight f4 [1, 45]
0.06490071 -0.12395057 0.11062756 -0.09348334 -0.1399354 -0.16440648 0.116187446 0.0661896
0.03998584 -0.05499608 -0.11176247 0.14677152 -0.037767924 0.15528084 -0.03828294 0.15864463
-0.033608798 -0.026755193 0.024343243 -0.17173336 -0.035101596 0.08973653 0.12441941 0.050778046
0.15784644 0.1235957 -0.1466687 0.06920963 0.12419091 0.037978854 -0.08294186 -0.1150015
0.023487164 -0.08172875 -0.045548517 0.09009211 -0.023213277 -0.07072305 0.119011804 0.03410519
0.15674989 -0.0905526 -0.036442876 -0.09156174 0.07512779
00000000: aaea 843d ccd9 fdbd b490 e23d 3274 bfbd
00000010: 3a4b 0fbe 2c5a 28be aff3 ed3d 6a8e 873d
00000020: 31c8 233d 9243 61bd b9e3 e4bd 464b 163e
00000030: 8ab2 1abd f101 1f3e 92ce 1cbd bd73 223e
00000040: 61a9 09bd b52d dbbc 7b6b c73c dfda 2fbe
00000050: b1c6 0fbd c9c7 b73d 9bcf fe3d a4fc 4f3d
00000060: 7fa2 213e be1f fd3d 5230 16be c7bd 8d3d
00000070: ce57 fe3d b78f 1b3d 6cdd a9bd e885 ebbd
00000080: 2768 c03c 6761 a7bd 1591 3abd 3682 b83d
00000090: c529 bebc 3fd7 90bd 76bc f33d e2b1 0b3d
000000a0: 0b83 203e a473 b9bd 2045 15bd b984 bbbd
000000b0: 99dc 993d
