mlruns/335624475037764607/models/m-b5496b408165491fb6e39f9f82eaf985/artifacts/data/model.pth (torch, 366449 bytes, 7 tensors)

weight f4 [89, 25]
000000 cb 8d a4 bc d9 f4 a4 3c eb d1 19 3e 5a 8d 3a bd
       -0.020087143 0.020136284 0.15021484 -0.04554496
000010 00 46 13 3d 0c cc 19 3e 2c a6 33 be e6 46 b7 bd
       0.03595543 0.15019244 -0.17543858 -0.0894907
000020 1a 90 fd bd 1d a2 f6 3d b2 6e 42 be e6 32 06 3d
       -0.12381001 0.120426394 -0.1898754 0.032763384
000030 58 24 99 bd cc 79 1b 3e 22 d5 3c bd c0 03 d4 bd
       -0.07477635 0.1518318 -0.046101697 -0.10352278
000040 72 23 82 3d c3 b2 21 be 8c 8e ad bd 73 a2 3d 3e
       0.06354417 -0.15790848 -0.08474454 0.18519
000050 8b 13 b6 bd b5 3a 83 bd 16 97 95 bc 52 19 3f 3e
       -0.08890446 -0.06407682 -0.01826052 0.18662003
000060 7f ba 4a 3d f0 03 3c bd 40 6a 88 3d 7e ea 13 be
       0.049494263 -0.045902193 0.066608906 -0.1444492
000070 03 29 11 3e b2 e6 06 3e 5f ca e1 bd f7 15 12 3e
       0.14175801 0.13173941 -0.11024927 0.14266191
000080 49 77 2a be 1a c1 97 bd 18 e1 25 be 46 d4 4a ba
       -0.16647066 -0.07409878 -0.16199148 -0.00077373197
000090 63 ee 1c be 6e a0 b3 bd cf 02 cb 3d 38 26 f2 3c
       -0.15325312 -0.08770834 0.09912645 0.02955924
0000a0 f8 4d 45 bd 86 b1 3a 3d df 3a da bd fe 6f 9b 3d
       -0.04817006 0.045579456 -0.1065576 0.0758972
0000b0 cd 31 4f bd 06 af 00 be 5c 6e 18 3e 85 a3 30 3e
       -0.050584603 -0.12566766 0.14885849 0.17249878
0000c0 9a 62 56 bd 92 15 df 3d 1a 8a 5e bd b7 c4 c4 bd
       -0.052340128 0.10892786 -0.054330923 -0.09607833
0000d0 f8 be 36 3d 88 07 62 bd 77 c0 0c be ed 59 e0 3d
       0.044615716 -0.055182964 -0.13745295 0.10954652
0000e0 4f 72 b6 3c 27 a8 fe 3d a0 2d 55 3e fc 83 d2 bd
       0.022271303 0.12434416 0.20818186 -0.1027908
0000f0 38 51 e8 3c 96 53 e1 bc 88 38 24 3e 67 b1 e4 bd
       0.02835904 -0.027505677 0.1603719 -0.11166649
000100 54 1d 36 be 00 97 b5 bd 62 9d a1 3b c5 f2 bd bd
       -0.17784625 -0.088666916 0.0049320916 -0.0927482
000110 29 71 27 3e 1c fa 86 b9 f8 f5 cc 3d bf 95 1a be
       0.16351761 -0.00025744818 0.10007852 -0.15096186
000120 2a 50 ca bd e3 a5 5a 3e 56 1b d4 bd 52 90 20 3e
       -0.09878571 0.21352343 -0.103567764 0.15680054
000130 a8 80 1d be ee 29 ac bd 77 ab 44 3e 23 d8 33 3e
       -0.1538111 -0.08406435 0.19206034 0.17562918
000140 95 4a fb bd 16 ea c5 3b e0 19 28 be 0a 13 b1 bd
       -0.12270085 0.006039868 -0.1641612 -0.086462095
000150 4f ff 3d 3e 21 b7 5f be 15 fc fd 3d 26 a4 a2 3d
       0.18554424 -0.21847202 0.124015965 0.07941465
000160 46 b1 3b 3e c1 07 d1 bd 48 fa 08 be 5c ff e5 bd
       0.18329343 -0.10206557 -0.13376725 -0.112303466
000170 b2 82 19 be a0 61 60 bd d7 7e a2 3d 9f ef 42 3e
       -0.14991263 -0.054780602 0.07934349 0.1903672
000180 f2 e3 3f bd 94 f4 0c 3e b6 91 1c 3d 42 de f0 bd
       -0.046848245 0.13765174 0.0382249 -0.11761142
000190 72 12 de bd 43 d4 ef bc 0f 2e 38 bd bf e7 04 3e
       -0.10843362 -0.029276019 -0.0449658 0.12979029
0001a0 ad fb b1 bd ec f4 5a 3e 7e 42 3c 3d 73 60 e7 3b
       -0.086905815 0.21382493 0.04596185 0.007061058
0001b0 db f1 f3 bd 4c 37 2e be 6b 0c 11 3e 8e 1d e4 3d
       -0.11911365 -0.17013282 0.14164893 0.111384496
0001c0 81 81 7c 3d e6 2a b5 3c 99 26 6d bd 55 94 00 3e
       0.061646942 0.022115182 -0.057898138 0.12556584
0001d0 57 ce 2b 3d e7 23 9e bc 62 f3 68 bd ff bb 38 3e
       0.041944828 -0.019304229 -0.056872733 0.18040465
0001e0 be 13 8f bd 6e a6 b7 bc ba 1a 04 3e c7 33 13 be
       -0.069861874 -0.022418227 0.1290082 -0.1437522
0001f0 41 83 b3 3b 44 0c 8d 3d 58 c3 80 bd c1 31 f9 3c
       0.005478293 0.06887105 -0.06287259 0.030419232
000200 0c 82 30 3e c6 09 04 3d 73 31 7c 3d 05 16 8b bd
       0.17237109 0.032235883 0.061570596 -0.06791309
000210 ee b6 43 bd 6a 78 c2 3d ff 8a 9d bd 68 d1 1e 3a
       -0.047781877 0.094956234 -0.07692527 0.00060584256
000220 57 f5 bd 3d d9 7e c2 3d 4d 77 4c 3c 94 02 fe 3c
       0.092753105 0.094968505 0.012479615 0.031007089
000230 e7 f4 47 3d 79 ec b6 bd 4a 6d 34 be b6 8a 04 be
       0.04881754 -0.08931822 -0.17619815 -0.12943539
000240 88 f4 30 3e d2 1b 34 3e fa 03 ed bd ad 9c 04 bc
       0.17280781 0.17588738 -0.11573024 -0.008093995
000250 2a 40 a4 bd ed a0 c0 3d fc ad d1 3d da e8 ad bc
       -0.08020051 0.09405694 0.10238263 -0.021229196
000260 71 0a 37 3e 8a dc 2f 3d df b9 be bb 4f e4 db bd
       0.17875077 0.04293493 -0.0058204974 -0.10736906
000270 f8 fe 19 3e c1 84 ff bc ed 29 b5 bc 56 a6 93 bd
       0.15038669 -0.031191232 -0.022114718 -0.072094604
000280 49 f4 ec 3c c5 ec 01 3d 61 c6 d4 3d e3 49 07 3e
       0.028925078 0.03171994 0.103894 0.1321178
000290 01 61 c1 bd 1b 8d d2 3d c1 7f fe 3d 80 55 cd bd
       -0.0944233 0.1028082 0.12426711 -0.100260735
0002a0 0d 89 95 bd be a7 0e 3e 81 14 9a bd 8a 18 2f 3c
       -0.07301531 0.13931176 -0.07523442 0.010687003
0002b0 58 57 6f 3d a5 c9 a3 bd b6 71 96 3b f2 7d 27 be
       0.058432907 -0.07997445 0.004591192 -0.16356638
0002c0 4c da d0 bc e2 b4 32 be 87 c5 b5 3d 8f c5 5f 3e
       -0.025494717 -0.17451814 0.08875566 0.21852706
0002d0 c5 7e fb bd a3 4d 57 be fc a6 1a be 86 46 cb 3d
       -0.12280039 -0.2102571 -0.15102762 0.09925561
0002e0 3b 61 1b 3e 72 32 25 3d 52 f3 63 bd 06 8f 81 bd
       0.15173809 0.04033131 -0.05565197 -0.06326108
0002f0 57 59 13 bd ad 86 02 be c6 f4 fd 3d af 17 c9 bc
       -0.035973873 -0.12746687 0.124002025 -0.024547426
000300 4a c5 13 3d 38 dd 03 3e e2 3e 67 3e d6 c0 ad 3d
       0.03607682 0.12877357 0.22582582 0.08484046
000310 33 91 28 be 5c dc 94 bc ae ae 39 3e 1a b3 10 bd
       -0.16461639 -0.018171482 0.18133041 -0.035327055
000320 14 ce ba bd 66 96 05 be 80 80 3b 3d 0a 96 21 3e
       -0.091213375 -0.13045654 0.045776844 0.15779892
000330 c1 2a 6e 3d 38 ee c5 bd 5c bf ef bc 42 ce 15 be
       0.058146242 -0.09664577 -0.029266052 -0.14629462
000340 d7 8b d7 bd 26 ca e3 3d 41 7a 05 be 18 f8 2e bd
       -0.10524719 0.11122541 -0.13034917 -0.04271707
000350 63 24 31 3e 00 e5 f6 3d 91 7e 07 be 61 40 b3 bd
       0.17299037 0.12055397 -0.13231875 -0.08752514
000360 e9 0e c4 bd a7 4e 3f 3d b6 14 08 be 2a 7a 5c 3b
       -0.095731564 0.046705868 -0.1328915 0.0033642151
000370 ff 72 27 be 58 2b e3 3d fb 46 bc 3d 7c 2b 0d 3d
       -0.16352461 0.110922515 0.09193226 0.034465298
000380 c9 57 42 bc 7b 7f b6 3d 5f 5f 38 3e 05 7d d3 3d
       -0.01186175 0.08911034 0.18005131 0.1032658
000390 c8 c4 5b 3d b6 dc 36 3e fe 6c de 3d 5a 15 84 3d
       0.053654462 0.17857632 0.10860632 0.06449385
0003a0 f6 33 90 bd 38 60 e5 3d 5d 2a 9a 3c 42 06 fe 3c
       -0.07041161 0.11199993 0.018819029 0.031008843
0003b0 5c 1c 06 3e 9f 60 3a be 3c 20 08 3e 41 0e 33 3e
       0.13096756 -0.1820092 0.13293546 0.17485906
0003c0 7f 74 94 bd db ea b7 3d 84 03 33 3d 70 88 dd bd
       -0.07248782 0.08980342 0.043704525 -0.10817039
0003d0 0c c8 23 3e 69 a0 ac bd 9a 02 1a 3e 27 5f 30 be
       0.1599428 -0.08429033 0.15040055 -0.17223798
0003e0 43 df d8 bc f1 0d ae bd 57 eb a6 bc 96 05 ce bd
       -0.026473647 -0.08498753 -0.02037589 -0.10059659
0003f0 07 d2 b1 3c 87 33 0f be 91 0b f8 bd 48 b4 c9 3d
       0.021706594 -0.139845 -0.12111581 0.09848839

bias f4 [89]
000000 b6 31 a4 3d 1b ea 5c bd d6 46 bd 3d 6b f8 01 3e
       0.08017294 -0.053934198 0.092420265 0.1269242
000010 ba c4 80 bd db a2 aa 3d 4c 06 da 3d 94 55 55 3e
       -0.062875226 0.083318435 0.10645732 0.20833427
000020 32 59 b6 bd 10 b3 0d 3e 11 2b 10 3e 8b d4 40 3e
       -0.089037314 0.13837838 0.14078929 0.18831079
000030 54 44 2a be 74 33 ab 3d 60 01 27 3e 76 9c b2 3d
       -0.16627628 0.08359423 0.16309118 0.08721249
000040 f9 70 c3 bc c0 f1 3a 3e 6d 31 fd bc 9f 27 a5 bd
       -0.02385758 0.18256283 -0.030907357 -0.08064198
000050 0b b1 1d be 9d 29 f9 bd bb cc ba 3c 65 42 fe bd
       -0.15399568 -0.1216614 0.022802701 -0.124150075
000060 fb 8a 53 bd 00 15 2b 3e ff 15 ff 3d cf 79 25 be
       -0.051646214 0.1670723 0.12455367 -0.16159748
000070 56 f7 a5 3d b8 30 03 3b b9 d5 11 be 0c 62 0f 3e
       0.08103816 0.0020018052 -0.14241685 0.14002246
000080 1c 28 35 be 8a 6e eb bd 08 27 e4 bd 26 92 3f 3e
       -0.17691082 -0.11495693 -0.11140257 0.18708095
000090 96 84 09 be 5e 5f 17 3e e7 4a 02 be ec 1c 9e 3d
       -0.13429484 0.14782473 -0.12723885 0.0772036
0000a0 13 8a e6 bd 45 97 a0 bd 3b c7 3c 3e 22 6b ea 3d
       -0.11256804 -0.078413524 0.18435375 0.11446215
0000b0 a4 b9 2a bc 44 95 04 3e 67 18 21 3e db db bf bd
       -0.010420237 0.12947565 0.15731965 -0.09368106
0000c0 89 04 04 3e 0b 32 97 3c 97 0c 2a 3e 6a f5 85 3d
       0.12892355 0.01845648 0.16606365 0.0654095
0000d0 25 6c c6 3d 0d c0 65 bd 1e 65 c6 3d e2 7e 8d 3d
       0.09688596 -0.056091357 0.09687255 0.069089666
0000e0 0b 17 94 3d 79 03 ae 3c ad a0 89 bd 52 ce 45 be
       0.072309576 0.02124189 -0.067200996 -0.19316986
0000f0 bf dd 76 3d 62 73 28 3e 9a 20 05 be 91 6b 68 3c
       0.060270067 0.16450265 -0.13000718 0.014185802
000100 85 ff c3 3b dd 4b 43 be a5 bb ab bd 8b 1e b1 bc
       0.005981388 -0.19071908 -0.083854 -0.02162101
000110 72 8e 4a bd 47 f5 6a bd 75 2d 32 3e 2e 3c 21 3e
       -0.049452253 -0.05736282 0.17400153 0.15745613
000120 2c 34 a4 bb 68 08 76 bc 5f c0 79 bd c4 e2 0d 3e
       -0.005011102 -0.015016653 -0.060974475 0.13856035
000130 de 58 c5 bd 24 f8 e5 bd 10 e4 d6 bd fb f7 ff bd
       -0.09636091 -0.1122897 -0.10492718 -0.124984704
000140 fb 17 48 3e 0f cc 5c 3d 99 15 1a 3d 76 0f 1f be
       0.19540398 0.053905543 0.037618253 -0.15533242
000150 ee 85 e3 3d c0 b0 92 bc 50 b6 ac bc 4f ec b3 bc
       0.111095294 -0.017906547 -0.021083027 -0.021963267
000160 2c 73 fc bd
       -0.12326655

weight f4 [255, 89]
000000 a5 2e dc 3c ea 42 55 bd 82 ee b7 bd 3d 30 a6 bc
       0.02687771 -0.052065767 -0.08981039 -0.020286674
000010 31 69 41 3d f3 e7 da 3d 56 4d 9a bb da bd 9f bd
       0.04721946 0.10688772 -0.004708926 -0.07799883
000020 f4 b5 05 3d 49 1e b3 3d a8 86 c9 bd 29 7c db bd
       0.032644227 0.08746011 -0.09840137 -0.10717041
000030 b7 3e 2f bd 9d f2 d2 3d 13 f8 74 3d dd 4e c8 3d
       -0.04278442 0.10300181 0.059806895 0.09780667
000040 6e 5c 9a bc 4b a1 24 3d bf ac d4 3d 9f f0 f0 3c
       -0.018842902 0.040192883 0.10384511 0.029411612
000050 59 24 e3 3a 9c b8 41 bd 2f 01 ca bd 0e 87 c5 3c
       0.0017329558 -0.047295198 -0.09863507 0.02411225
000060 47 bb da bc 3d 9b ac 3c d6 1e b5 3d e2 8b c0 3d
       -0.026700629 0.021070117 0.08843772 0.094016805
000070 ee 66 03 bc ed db 7f 3d 59 25 d0 bd 78 bc b1 3d
       -0.008020146 0.062465597 -0.101633735 0.08678526
000080 76 cb 49 3d 8d d2 7f bd 21 52 3e 3d dd 7e 57 3d
       0.0492663 -0.062456656 0.046465043 0.05261122
000090 b1 58 40 bd e7 c9 d0 bd e2 ab 97 3c 26 b2 b7 3d
       -0.046959583 -0.1019476 0.018514577 0.08969526
0000a0 64 71 77 3d 92 84 49 bb 6d d9 2d 3d be 7a 07 3c
       0.060410872 -0.0030749184 0.04244368 0.00826901
0000b0 80 63 6c 3d 02 87 1c 3d 79 ff 6a 3d 4f e6 1d bd
       0.057712078 0.03821469 0.057372544 -0.038549718
0000c0 fc 67 52 bc aa 40 49 3d 98 09 c3 3c d3 42 99 3c
       -0.012842175 0.049133934 0.023808286 0.018708622
0000d0 bf e6 1c 3d 45 c9 64 bd b7 c7 92 3d e4 f0 23 bd
       0.038305994 -0.055856008 0.07166999 -0.040024653
0000e0 cb 23 d1 3d 2c c3 d7 3d 83 43 99 bc db 83 e2 bc
       0.10211905 0.10535273 -0.01870895 -0.027650764
0000f0 68 d5 00 bd 5f 52 70 bd 2f 4a 63 bd 7e dc 92 bd
       -0.03145352 -0.058672305 -0.05549067 -0.07170962
000100 c3 eb a7 3d 28 06 4b 3d d8 42 51 3d a6 82 4e 3c
       0.08199265 0.049566418 0.051089138 0.012604391
000110 03 6c 3e bd 3d de 27 bd 6b 01 bd bd e4 56 23 3d
       -0.046489727 -0.040983427 -0.09228786 0.039877787
000120 13 27 01 bd 92 3c d6 bb 28 ed 9a bd de c9 8a 3c
       -0.031531405 -0.0065379823 -0.07564765 0.01694196
000130 57 47 33 bd b4 f2 81 3c db b8 b6 bd e9 5c aa bc
       -0.043769207 0.0158628 -0.08921977 -0.020796256
000140 0d 1c f2 bc 86 11 83 ba 8b 85 56 3d 43 e4 0a bc
       -0.029554391 -0.0009999729 0.05237345 -0.008477273
000150 75 58 ee bc 4c 6f 74 bd 2e ff 40 bd 46 f3 45 3c
       -0.029094914 -0.059676453 -0.04711836 0.012081927
000160 a3 22 5c bd 84 0a b9 3c 05 73 76 3d d8 80 b3 bd
       -0.05374397 0.022588022 0.060168285 -0.08764809
000170 ad b4 c7 bb 81 e4 8c 3c 18 60 a1 3d 52 0b 50 3d
       -0.0060945363 0.017198803 0.078796566 0.050792046
000180 f1 2e 5a 39 28 80 ba 3d 6a 60 b4 3d 38 ed e1 3c
       0.00020807587 0.09106475 0.08807452 0.027578935
000190 2e 0f 0e 3d 78 ef 86 3d 19 ad 60 3d 8c 42 c5 bd
       0.034682445 0.06588644 0.05485258 -0.096318334
0001a0 74 f7 21 3d 95 d2 c9 3d 38 d0 29 bd f7 49 78 3d
       0.03954263 0.098546185 -0.04145834 0.060617413
0001b0 dd 58 2c 3d 06 19 8a 3d b4 32 99 3d de bb 91 3d
       0.042076934 0.06743054 0.07480374 0.07115911
0001c0 79 e2 c9 bc e6 25 45 3d 17 1c 73 bd 1c 37 95 3d
       -0.024644123 0.048131846 -0.05935296 0.07285902
0001d0 08 20 5f 3d dc 60 c6 bd f0 50 9f 3d 52 5c e6 bd
       0.054473907 -0.09686443 0.077791095 -0.112480775
0001e0 6d ec 13 bc 36 07 bd 3d 17 69 85 3b a9 cc c0 3d
       -0.009028536 0.09229891 0.0040713656 0.09414036
0001f0 2a 95 fd 3c 14 03 c8 bd da 83 55 3d 86 77 0f bd
       0.030954916 -0.09766212 0.052127697 -0.035026096
000200 71 96 37 bd f0 53 a3 bd 1e 96 c1 3d d1 72 1f bd
       -0.044821206 -0.07974994 0.09452461 -0.038927857
000210 31 d2 3a 3d eb c2 26 bd f6 6d c0 3d 2f d4 92 bc
       0.04561061 -0.040713232 0.093959734 -0.017923443
000220 86 12 81 bd 16 01 7a bd 71 07 e0 bd 33 97 11 3d
       -0.06302361 -0.061036192 -0.10938919 0.035544585
000230 76 7d 78 3c f1 a2 d1 3c f3 4e bd bd d0 b9 9a 3d
       0.015166631 0.025590392 -0.09243574 0.07554972
000240 e5 7e 53 3d 0e 9c a6 3d 29 23 2f 3d 9e 92 9b bd
       0.051634688 0.08135234 0.04275814 -0.075963244
000250 9c d3 b2 bd f0 23 1b bc ad 3f 9a ba a6 e9 35 3d
       -0.087317675 -0.009469017 -0.0011768244 0.044412278
000260 d3 03 69 3d 5c 32 15 bd a4 c6 ae bd 04 39 57 bd
       0.056888413 -0.03642498 -0.085339814 -0.05254461
000270 5e 20 63 bb 0c ac 74 bd ec 63 94 3b 79 6c 89 3d
       -0.0034656744 -0.05973439 0.004528513 0.06710143
000280 63 9d 2e 3d fe 06 e0 bd eb 39 82 bd 3b aa b7 3d
       0.042630564 -0.10938834 -0.06358703 0.08968016
000290 4b c0 c4 3d 2d d8 d9 bd e4 09 a9 bb 9f a1 bb 3d
       0.096069895 -0.106369354 -0.0051586498 0.09161686
0002a0 6b a5 1a 3c 16 f5 b4 bd 48 48 c8 bd 58 6c b7 3d
       0.009438853 -0.08835809 -0.097794116 0.08956212
0002b0 33 15 92 3d 79 b0 a7 3d 4d 59 e9 bd 4c 7c 4e 3d
       0.0713295 0.08187956 -0.11393986 0.050411507
0002c0 4b 2a af 3d 8b 27 e5 bc e6 df c4 3c f3 fc d0 3b
       0.085529886 -0.027972957 0.024032544 0.00637781
0002d0 04 cb 11 3c 00 da 36 3d 9a ff 50 3d 96 6a ab 3d
       0.0088985 0.044641495 0.05102501 0.08369939
0002e0 77 1c 68 bd fe 4c 89 bd 3c 4d b6 3d 27 af ba bd
       -0.05666777 -0.06704138 0.0890145 -0.09115439
0002f0 0b c7 85 3c fb 14 25 3d b7 00 78 3c cf 37 71 bc
       0.016330263 0.04030321 0.015136889 -0.014722778
000300 9a 65 6e bd 90 4c fa 3c 32 10 c1 3d ca 75 00 bd
       -0.058202364 0.030554086 0.09426917 -0.031362332
000310 83 92 59 3d b3 73 fd bc 96 10 b7 3d 30 95 d2 bd
       0.05311824 -0.030938959 0.089387104 -0.102823615
000320 15 1e d4 3d 20 f9 a4 bc c2 d6 08 3d 90 68 ef bb
       0.103573 -0.020138323 0.033407934 -0.007306166
000330 00 5d b6 3d ff 7a ad 3c 36 9a 43 3d cb 4a 8a 3d
       0.08904457 0.021176813 0.04775449 0.06752547
000340 59 ce b9 bc 34 7a 84 3d 21 f9 e6 3c 28 11 63 3d
       -0.022681402 0.06468621 0.028194966 0.055436283
000350 a0 2f 37 3c 89 c0 8b 3c b7 4e be bd d1 8b 1f bb
       0.011180788 0.017059581 -0.092923574 -0.0024344812
000360 ce 4c d7 bc b5 41 aa bc cd 5c c4 bd 62 88 45 3d
       -0.02628174 -0.020783285 -0.09588013 0.048225768
000370 ad a8 2d 3d dd cd b4 bd a8 0b 2f bd a6 ee 4a bd
       0.04239719 -0.08828328 -0.042735726 -0.049544
000380 e8 7d b2 bc 7f d2 96 bd 4a 6e db 3d 47 b1 24 bd
       -0.021788552 -0.07364368 0.10714395 -0.040208127
000390 41 7f 39 3d 36 8f 84 bd 8a 36 dc 3d b1 64 a5 3c
       0.045287374 -0.06472628 0.1075259 0.020189615
0003a0 00 0f 8e 3c 61 29 6f 3b 8a 2e d1 bd 95 7e a0 3c
       0.017341137 0.003649317 -0.10213955 0.019591609
0003b0 9f f3 a5 bd a9 98 8f bd 1e 9e 61 3d 5a 2c dc bd
       -0.08103108 -0.070115395 0.055082433 -0.10750647
0003c0 ac 4b 06 bd c1 0c 69 3d b3 2f 33 bd 0b 32 ad bc
       -0.03278701 0.05689693 -0.04374666 -0.021142026
0003d0 f0 c5 e4 3d 32 2a bb bd fc 14 ef bc af 67 89 3c
       0.11170566 -0.091389075 -0.02918481 0.016773073
0003e0 0f 2b 7d 3d d2 1f 2f 3d f4 6e 8b 3d 7b 0b 9a bd
       0.061808642 0.042754956 0.06808272 -0.07521721
0003f0 f9 ea eb bb a4 5e be bc 2c 15 b6 bd c6 09 b2 bd
       -0.007199642 -0.023238488 -0.08890757 -0.086932704

bias f4 [255]
000000 3a e0 c5 3d d5 6f 94 3d e9 85 95 3c 6d e0 30 3d
       0.096619084 0.07247893 0.01825233 0.04318278
000010 60 97 85 3c 05 15 9b bc bb 47 d3 bc f4 39 9c bd
       0.016307533 -0.018930921 -0.02579104 -0.07628241
000020 1d 1f 6a bd d7 8a 83 bc 9a b7 c2 bd 7e 0a da bd
       -0.05715858 -0.016057415 -0.095076755 -0.106465325
000030 53 56 6d 3d b7 70 15 bc 80 87 9d bd b8 44 15 bc
       0.057943653 -0.009121112 -0.0769186 -0.009110622
000040 b5 61 59 3d 0a ab 85 3d 7b 79 30 bd 84 cb a4 bd
       0.053071696 0.06526764 -0.043084603 -0.0804663
000050 c2 24 92 3d 4a 5a ad bd 33 1f a6 3d 58 96 d1 3d
       0.07135917 -0.08464487 0.081114195 0.10233754
000060 40 fb 06 3c 4c e0 9f 3d ba 56 4e 3d 59 a9 28 bd
       0.008238614 0.07806453 0.050375678 -0.041177128
000070 02 7b a7 3d 5e 61 c1 3d 3f 41 8c bd e1 d6 76 3d
       0.08177759 0.094423994 -0.06848382 0.06026352
000080 ce 77 87 3d c3 d4 c3 bd 3b 92 66 bd 49 2e 07 bd
       0.06614648 -0.095620655 -0.0562918 -0.033003125
000090 dd 14 60 3d 7e 59 d2 3d bf d5 dd b9 31 9b df 3d
       0.054707397 0.102709755 -0.00042311658 0.10918272
0000a0 f7 17 b7 3c dd 06 56 bc b7 7f 84 3c c5 38 1a 3d
       0.022350295 -0.01306316 0.01617418 0.037651796
0000b0 07 71 bd 3d 89 26 a5 3d cb a0 25 bd 40 f4 0c 3d
       0.09250074 0.080639906 -0.040436547 0.034412622
0000c0 22 b6 46 bd 00 66 3f 3d 3d cd 44 bd d6 16 c6 bd
       -0.04851354 0.046728134 -0.048047293 -0.09672324
0000d0 36 56 0f bc 9c f7 9f 3d 03 6a 90 3d 1a c3 10 bd
       -0.008748582 0.078108996 0.0705147 -0.035342313
0000e0 db c6 d0 3d 08 02 38 bc bb d1 a4 3c 96 c4 48 3d
       0.10194179 -0.011230953 0.020119539 0.049015604
0000f0 cc 5e 00 bc 6a 4e 16 bd fb fe 75 bd 51 aa 8b 3d
       -0.007835101 -0.036695875 -0.06005762 0.06819595
000100 96 c0 af 3d ea 39 be bc 2d f3 96 bd eb eb 13 bc
       0.08581655 -0.023220975 -0.07370601 -0.009028415
000110 2e 05 f5 bc f8 bc 33 bd 6d d2 17 3c d1 e9 4f bd
       -0.029909696 -0.043881387 0.009266478 -0.050760094
000120 f8 b4 aa 3d d4 12 8e 3d 2a c0 94 3d 6c 70 0d bd
       0.08335298 0.06937185 0.07263215 -0.034531042
000130 1d 0b 32 3c 0e aa af 3d 6d 87 cc 3d 72 52 3a 3c
       0.010866907 0.08577357 0.09986768 0.011372196
000140 d7 ae ae 3d 7a 41 4c 3b fc 11 f8 3c 00 25 88 3c
       0.08529442 0.0031166957 0.030282013 0.016619205
000150 74 6d 86 3c 17 53 88 bd 05 3d ab 3d fe 0a c2 3c
       0.016409613 -0.06656473 0.08361248 0.023686882
000160 9e 56 9b bd 65 fb 28 bd f1 0a b6 3d 96 44 a3 3d
       -0.0758488 -0.041255374 0.08888806 0.07972066
000170 eb 24 a6 bd b0 67 0a 3d 20 e0 c4 bd 95 13 2a 3d
       -0.0811251 0.03379029 -0.09613061 0.04152258
000180 41 53 a8 3d b2 49 64 bc a4 99 39 bd a3 48 74 3c
       0.082190044 -0.013933586 -0.04531254 0.014909896
000190 c7 5b ca bb 3a 39 a0 3c b4 57 71 bd 30 4e 49 3d
       -0.0061754915 0.019558538 -0.05892153 0.04914683
0001a0 97 24 e0 ba 23 15 c8 bd 34 61 03 3c 82 cc c2 bd
       -0.0017100748 -0.097696565 0.0080187805 -0.09511663
0001b0 04 11 36 bd c8 c3 14 bd 55 83 db bc e7 54 a2 3c
       -0.04444982 -0.036319524 -0.026796022 0.019815875
0001c0 52 a2 e3 3d 8f fc a9 bd ca d0 8b bd 1b 71 9f 3d
       0.111149445 -0.08300125 -0.06826933 0.07785245
0001d0 d9 4f e1 bc 19 56 98 bd f4 0c a3 bc e5 3d dd bc
       -0.027503895 -0.07438297 -0.019903637 -0.027007053
0001e0 e4 ae 6f 3d 9b 65 8f bd 9b 6c 20 3c 8b 13 e2 bc
       0.058516398 -0.070018016 0.009791519 -0.02759721
0001f0 0f 5b 3c bd 3b 70 7c bc cf 84 c2 3b ee 80 9c bd
       -0.045985278 -0.015407617 0.005936242 -0.07641779
000200 10 bf b7 3d 1a e4 25 3d f4 77 f2 3c 62 0c 24 3d
       0.08971989 0.040500738 0.029598214 0.04005087
000210 f2 fb 73 bd 4c ae c4 bd 95 04 55 3d 14 50 99 3d
       -0.059566446 -0.09603557 0.052006323 0.07485977
000220 ea 3e 87 3c 57 10 e5 3d 1d b4 b7 bc df 81 34 3d
       0.016509492 0.11184757 -0.022424752 0.044069167
000230 6f 20 76 3c e6 ab 62 3d 18 c4 a5 bd ab b0 dc 3d
       0.015022381 0.055339716 -0.080940425 0.10775884
000240 07 81 a1 bd e9 3a 7c 3d d2 d7 50 3c 5c c6 d4 3d
       -0.07885938 0.06157962 0.012746768 0.103893965
000250 b7 48 9f bc f2 1c e2 3d 66 f8 49 3d 4b c6 c0 bc
       -0.019443853 0.11040677 0.049309157 -0.023532053
000260 73 9f 8b 3d 4d 83 46 3d fb 63 cb 3d 37 22 5e 3d
       0.06817522 0.048465062 0.09931179 0.05423185
000270 6b e2 9b bd ee 09 af 3c 67 88 7b 3d 61 cd d8 3c
       -0.07611545 0.02136704 0.06140938 0.02646512
000280 39 c9 41 bc 26 bb 02 bd ea a7 90 3c d9 02 81 bd
       -0.01182776 -0.03191676 0.017658193 -0.06299371
000290 ad a9 eb 3d 2c 19 b3 bd 6b f7 57 bd 21 a6 fb 3c
       0.115069725 -0.087450355 -0.05272619 0.030718865
0002a0 76 fe c1 3d 0e 0f 56 bd 93 94 2a bd 9d 1e 9e 3d
       0.09472363 -0.05226045 -0.041645598 0.07720683
0002b0 53 e3 98 3c 13 79 ec 3c ca 0b af 3d 80 6b e3 bc
       0.018663084 0.028866326 0.085471705 -0.027761221
0002c0 00 44 9a bd 62 f1 e9 bc b8 9f 9d bb d5 2a ce 3d
       -0.07532501 -0.028557483 -0.0048102997 0.10066763
0002d0 41 6e a8 3d 1a 34 2e bc e6 00 ce 3c fe d4 83 3d
       0.08224154 -0.010632539 0.025146913 0.064371094
0002e0 25 d6 7c bb 0b a2 8b 3d 0e 0f 8f 3d 55 e9 02 bd
       -0.0038579789 0.068180166 0.06985293 -0.031960804
0002f0 23 1d 9d bd 0d d7 90 bd b4 57 8c bd a0 b5 8a 3d
       -0.07671573 -0.07072268 -0.068526655 0.067729235
000300 1c a5 bc 3d b8 67 f4 bc 11 f3 88 3d 38 c6 29 bd
       0.092111796 -0.029834613 0.06686986 -0.0414488
000310 a4 4a 85 3d 95 5b 72 3d f9 ae 31 bd 7e 43 aa bd
       0.06508377 0.05916937 -0.043379758 -0.08313654
000320 32 3f 5e 3d cf 23 95 3d 4a 13 25 bd f8 53 94 3d
       0.054259486 0.072822206 -0.0403016 0.07242578
000330 0f 3a 96 3d 69 b5 12 bd 16 70 28 3d 9a 17 a5 bc
       0.073352925 -0.035817537 0.04112252 -0.020152856
000340 e2 c2 1b bb 8f fb 10 bd 9a a0 c1 3d 20 73 de 3c
       -0.0023767282 -0.035396155 0.094544604 0.027154505
000350 de fd ad bd 12 ac 2c bd 41 b1 b1 bd 2a 1f 9d 3d
       -0.08495687 -0.042156287 -0.086763866 0.0767196
000360 72 f6 87 bd 84 f4 f1 3b 25 5d 32 bd 1e e1 53 bc
       -0.066388026 0.007383885 -0.04354586 -0.01293209
000370 fe b9 24 bb 02 ae 69 bd b1 f1 88 bd 5d 8e 7c 3c
       -0.0025135274 -0.057050712 -0.06686724 0.015414801
000380 6f f7 51 bb b9 88 5e bd c0 05 64 bd 42 a2 b6 3d
       -0.003203835 -0.054329608 -0.055669546 0.08917667
000390 f2 c9 bc 3d 88 8a 68 bd 3b c2 a4 3c db 62 4a 3c
       0.092182055 -0.05677274 0.020112148 0.012352671
0003a0 c4 ec cf bd d0 2b dd 3d 03 c0 bc bd 44 c2 83 bd
       -0.10152581 0.10799372 -0.09216311 -0.064335376
0003b0 d3 a4 c8 bc ec f1 b9 3c 46 cb 45 bd cc a6 96 bd
       -0.024492657 0.022698365 -0.04828956 -0.07356033
0003c0 e6 c1 31 bd 88 96 53 bd 96 59 c3 3d ff 29 db bd
       -0.043397807 -0.05165723 0.095385715 -0.107013695
0003d0 41 c7 b9 3b 94 02 d7 3d 79 b9 d8 3d 51 aa 90 bd
       0.005669505 0.104985386 0.10582251 -0.07063735
0003e0 60 3a 67 3d 95 a3 1e bd a8 93 8f 3c 7a 4b 9d 3b
       0.056452155 -0.038730223 0.017526463 0.0048002573
0003f0 29 05 7a bd 9d d9 47 3b 46 35 3d 3d
       -0.061040077 0.0030494698 0.046193384

weight f4 [249, 255]
000000 38 9f e5 bc 6b 3a 3d bd dc 6c 93 3c fa 03 43 3d
       -0.028030023 -0.04619829 0.017996244 0.047611214
000010 26 93 cb bc b2 91 67 3d f4 aa e8 bc 5e b4 0d bd
       -0.02485044 0.05653543 -0.02840183 -0.03459584
000020 b2 3c 24 bd 59 0b d4 bb 63 19 3d bd c7 dd 36 3d
       -0.040096946 -0.0064710793 -0.04616679 0.044645097
000030 b1 de 46 3d fa ae e4 3b 0e 9d b6 bc 46 e9 12 3b
       0.04855222 0.0069788666 -0.022291686 0.0022416874
000040 be c4 7c 3d 77 97 96 bc 06 08 df bc 52 7a c8 bc
       0.061711065 -0.018382771 -0.027225506 -0.02447239
000050 31 93 69 3d 7b c8 2c bc cf 6b 8c 3d 00 19 1c bc
       0.05702514 -0.010545845 0.068565 -0.009527445
000060 6e 25 64 bd 5a 73 fa ba bc 34 8b bd 2e 2c 97 3d
       -0.05569976 -0.0019107864 -0.06797168 0.073814735
000070 b5 9c 9a bb 66 28 02 bd 48 2b 5f bd 3b f9 d5 3c
       -0.004718388 -0.03177681 -0.054484636 0.026119819
000080 42 4f 7d 3d 56 dd 1c bd f7 df 03 bd 21 bc 84 3d
       0.061843164 -0.03829702 -0.03219601 0.06481195
000090 17 a6 19 bd 2c b0 a7 3c 41 ae e9 3c 0f ea 1d bd
       -0.03751191 0.020469747 0.028525474 -0.038553294
0000a0 15 88 12 bd 98 30 48 bd 7b a8 95 bb 44 a6 19 bd
       -0.03577431 -0.048874468 -0.0045672036 -0.03751208
0000b0 18 b9 61 3c 64 3b 1b bd fb c6 86 bb 9c 99 26 3d
       0.01377704 -0.037898436 -0.004113076 0.040673837
0000c0 6c e6 b7 bb dd a4 5f 3c 7c 92 44 3d b7 e2 a4 3c
       -0.005612185 0.013650146 0.04799126 0.020127637
0000d0 bb 68 3d 3d a8 07 3d bb 0a af a4 bc a2 21 1e 3d
       0.046242457 -0.0028843675 -0.020102996 0.038606293
0000e0 fa 51 2b bd 13 9d 3b bd c7 89 43 3d 59 0b 9d 3b
       -0.041826226 -0.045804095 0.047738817 0.0047926125
0000f0 87 b9 84 bc 08 70 72 bd 0d 69 95 bc 0e 31 82 bd
       -0.016201748 -0.059188873 -0.018238569 -0.06357013
000100 3b 84 15 3d 94 c2 74 bd 0e ef 29 bc b4 eb 51 bc
       0.036503058 -0.059755877 -0.0103719365 -0.012812544
000110 6f a8 7f bb c0 8c 21 3d 2f 4d f8 bc 62 81 81 bd
       -0.0039010306 0.03944087 -0.030310242 -0.06323506
000120 e3 64 1f bd fe 0f f3 bb 9e 0d 2d bd a8 95 2a bd
       -0.038914572 -0.007417678 -0.042249314 -0.04164663
000130 7b bf fe bc 05 ed a0 3c 88 c9 92 bb 16 ab 6b bd
       -0.031097164 0.01964427 -0.004479591 -0.057536207
000140 3b d4 a6 bc 3b ce 1b bd dc 7a 7c 3d a6 19 b4 3c
       -0.020364871 -0.038038474 0.061640605 0.021984886
000150 df b0 1d 3d 5b 06 8c bc 4c 61 31 3d 64 cc 13 bb
       0.038498756 -0.017092874 0.04330568 -0.0022552246
000160 9b a2 15 bd 91 30 6e 3d 3f 12 5c bd 61 b0 9b ba
       -0.036532026 0.058151785 -0.05372834 -0.0011878127
000170 f5 4b 05 bc 24 81 6c bd b8 ed 5a 3d aa b2 ad 3c
       -0.008135785 -0.057740346 0.053449363 0.021203358
000180 7f a0 06 bd d8 38 e5 bc b4 4b 21 3d 65 3d f8 3b
       -0.032867905 -0.027981207 0.039378837 0.007575678
000190 08 b2 63 bc 59 b3 01 3d 9b 2a aa bc 7a 58 4b bd
       -0.013897426 0.03166518 -0.020772269 -0.049644925
0001a0 39 04 d6 3c 16 3e f4 bb b2 00 4e bd 90 ef 3b 3d
       0.02612506 -0.0074536903 -0.05029363 0.04588276
0001b0 28 02 47 bd a9 6e bf ba 62 fa 21 bd 3b 5f 7c 3d
       -0.04858604 -0.0014605123 -0.039545424 0.061614256
0001c0 32 d0 21 bd 05 f9 78 3c 87 34 03 bd 10 99 86 3b
       -0.03950519 0.01519609 -0.032032516 0.004107602
0001d0 f1 b3 00 bd 15 bc c0 bc c1 3f 0f 3d 51 90 8f 3c
       -0.031421605 -0.023527185 0.03497291 0.01752487
0001e0 8a 11 1f 3d cc 36 26 3d cd dd 2d 3d 1f 14 94 bc
       0.038835086 0.040579602 0.042447854 -0.018076
0001f0 e1 a3 c4 bc a8 09 4d 3d ad ef 4d bd 2d af 5f bd
       -0.024003925 0.050058037 -0.0502774 -0.05461042
000200 58 cb 87 3c c2 28 a4 bc 3a 73 ca bc 29 c5 95 3c
       0.016576454 -0.020038966 -0.024713147 0.01828249
000210 d4 bf 07 bc cb 44 b5 bc 83 da 19 bd 95 bb 71 bc
       -0.0082854815 -0.02212753 -0.037561905 -0.014754196
000220 b6 38 94 bc fa f5 73 3c db 0c af 3c 6a af c8 3c
       -0.018093448 0.014890188 0.021368435 0.024497706
000230 59 7e 8e 3c 13 e2 f9 bb a9 18 5a 3d c2 df 77 bb
       0.017394232 -0.007625827 0.053246174 -0.003782258
000240 84 bd e8 3c 01 43 db 3c 02 78 5d bd 0f 14 57 3d
       0.02841068 0.026765348 -0.054069526 0.052509364
000250 c7 bc 23 bb fc 3c 85 bd 94 7a 85 3c 71 94 16 3d
       -0.0024984346 -0.065057725 0.016293801 0.03676266
000260 b7 70 74 3c 49 67 41 3d f9 ae 25 3b d9 64 2b 3d
       0.014919451 0.04721764 0.0025281294 0.041844223
000270 94 2b 0c 3d fd b8 23 3d bf 79 9c bc 28 e1 0d bd
       0.034221247 0.03997134 -0.019101022 -0.034638554
000280 bd f2 81 3d 4d 55 bc bc 35 60 4e 3d 9a de 27 bb
       0.06345127 -0.022989893 0.05038472 -0.0025614859
000290 ff 07 04 3d 18 4e ad bc b1 73 55 3c 65 50 62 bc
       0.03223419 -0.021155402 0.013028071 -0.013813113
0002a0 04 66 50 bd 48 1e ae 3c df 56 be 3c 69 bd 50 3d
       -0.05087854 0.021254674 0.023234783 0.050961886
0002b0 c9 db 29 bc 4d ab 35 3d 35 2b 6e bd 64 c0 44 bc
       -0.010367342 0.04435282 -0.058146674 -0.01200876
0002c0 55 72 e9 3c 32 e9 ef 3c fd 36 b9 bc ec f0 9c 3c
       0.0284969 0.029286 -0.022609228 0.01915785
0002d0 d7 1e f2 3c 62 c7 58 3d f0 74 1e 3d af 8b 87 3b
       0.029555721 0.05292452 0.03868574 0.0041365246
0002e0 8a e4 4c 3c 64 a4 b0 bc 56 99 09 3d d1 d5 77 3c
       0.01250566 -0.021562763 0.0335935 0.015126661
0002f0 6a 9e 7a 3d d0 be 3b bb f6 a3 78 3d 57 c8 c6 3c
       0.06118623 -0.0028647669 0.06070324 0.024265451
000300 35 2c 36 3d a5 5f d9 bc fb 08 55 3d a8 f6 f5 3b
       0.044475753 -0.026534865 0.052010518 0.0075062104
000310 d9 f6 63 3d a9 bf 2e 3c 2e 3c ba 3c 9c 15 25 bd
       0.055655334 0.0106658125 0.022733774 -0.04030381
000320 4d ed 4e 3d 58 28 85 bb c6 af 1b bc 62 72 7f 3d
       0.050519276 -0.0040636472 -0.009502357 0.062364943
000330 64 26 34 3d 05 9d a9 bb 0e 04 04 bd 5b b8 d6 bc
       0.043981925 -0.005176189 -0.03223043 -0.026210954
000340 3e 17 52 bd 6a 4f 9d 3c 67 0e 7c bd 22 5c 3f 3d
       -0.051291697 0.019202907 -0.061537173 0.046718724
000350 6b 54 a1 bc a6 47 37 3d e0 52 da 3c 88 4a 03 3d
       -0.019693574 0.044746064 0.026650846 0.0320535
000360 a1 77 0c 3c 78 cb 56 3d c7 a0 f3 bc 98 9d ae 3c
       0.008573444 0.052440137 -0.02973975 0.02131538
000370 e6 83 da bc 7e 2c d4 bc a3 6c c8 bc 7c 45 2c bd
       -0.026674222 -0.025900122 -0.024465865 -0.042058453
000380 ad a8 90 bd ef cc a5 ba 77 4b b4 bc d4 c7 4f 3d
       -0.07063422 -0.0012649576 -0.02200864 0.05072768
000390 bd eb 5d bc cd 7f 57 3b a3 29 5f bc 11 1a 6f bb
       -0.013544974 0.0032882572 -0.013620767 -0.0036484043
0003a0 51 94 45 bd 12 81 82 bc 7d a6 6d 3d d5 07 2a 3a
       -0.04823715 -0.015930686 0.058020104 0.00064861524
0003b0 5b 39 25 bd 80 1c b0 bc f5 b2 2c bd f6 1e 88 3d
       -0.0403379 -0.021497965 -0.042162854 0.0664653
0003c0 39 a5 8e 3c 32 b6 34 bd 6c a3 57 3b 72 e9 f2 bc
       0.017412769 -0.044119067 0.0032903804 -0.029652331
0003d0 78 bd de 3b f2 4f 88 3d e7 fa 75 bd e4 86 01 bd
       0.006797489 0.06655873 -0.060053732 -0.031622782
0003e0 6a 89 52 3d 50 49 d4 3a 0e 4b 4c bd 8c e2 84 3d
       0.05140058 0.0016196165 -0.049876265 0.06488523
0003f0 dc 9e ac 3b cc fb f5 3c 8e 86 0f 3d 4f f5 41 3c
       0.005267961 0.030027293 0.03504043 0.011838271

bias f4 [249]
000000 f7 4c db bc 99 9b 5e 3c 87 cd 94 3c ad f0 42 3d
       -0.026770098 0.013586902 0.01816441 0.047592808
000010 f6 54 71 3d ca 87 05 bd 06 87 0d bd 5d 58 f1 3c
       0.058918916 -0.0326002 -0.034552597 0.02946108
000020 a7 45 ec 3c 9b 09 03 bd 94 d3 3e bd 2d 6b 67 bd
       0.028841807 -0.031991582 -0.046588495 -0.056498695
000030 9d b3 85 3c 19 46 6a 3d c9 a8 57 bd 54 2e 5e 3d
       0.016320998 0.057195757 -0.0526512 0.0542434
000040 05 49 37 3d 69 7e 5c bd d0 13 21 bc bb 3a 4e bc
       0.04474737 -0.05383149 -0.009831384 -0.012587245
000050 4e 33 4a 3d ae fb 80 3d ff 3d b7 3c ed 25 09 bd
       0.049365334 0.06298004 0.02236843 -0.033483434
000060 c7 d6 e5 bc 25 3d 1f 3d 25 d7 a9 3c a5 08 18 bd
       -0.028056515 0.03887667 0.020732472 -0.03711762
000070 3d 32 84 3b c7 3d f7 3c 88 ee 00 bd 1e b9 2e 3c
       0.004034309 0.030180825 -0.03147748 0.010664253
000080 36 3a 76 bc ef 70 dc 3c 1f 35 0b 3d 0e 1c e8 3b
       -0.015028527 0.02690932 0.033986207 0.0070834225
000090 88 87 23 bd 16 2c 5f bd e6 fe 87 3c 9b 14 25 3d
       -0.039924175 -0.054485403 0.016601037 0.040302854
0000a0 7a 78 d3 bc fb 5d a7 bc 01 4c fc 3b 10 57 7b 3d
       -0.025814284 -0.020430556 0.00769949 0.061362326
0000b0 e4 04 06 3d fb e6 81 3d cc d0 81 bc 5a ce 33 bd
       0.032719508 0.06342884 -0.015846632 -0.043897964
0000c0 de 00 a9 bc 4e 72 32 3d 12 2f f6 3c 85 88 3a 3c
       -0.020630296 0.04356604 0.030051742 0.011385088
0000d0 6b 0c 68 bd 7e d3 f3 bb 0b 54 6b bc 79 51 ff bb
       -0.056652468 -0.0074409833 -0.014363299 -0.0077916947
0000e0 c5 7f 0d bd 09 25 43 bd 18 6e cc bb 95 00 b2 bb
       -0.03454568 -0.04764274 -0.00623871 -0.0054321983
0000f0 80 01 4d bd 2f f1 63 3d f2 70 91 3b 22 d4 5f 3d
       -0.05005026 0.055649932 0.004438513 0.054645665
000100 bf 39 14 bc 00 bb c2 bb b9 75 72 3d 44 f9 80 3a
       -0.009046971 -0.0059427023 0.0591943 0.0009839912
000110 c3 2b e5 bb f0 0b 1d 3d 3c 42 98 bc 73 18 0a 3d
       -0.006993742 0.038341463 -0.01858627 0.033714723
000120 db ad 93 3c 03 33 26 3d 46 20 11 bb a5 d2 70 3d
       0.018027237 0.040575992 -0.002214448 0.058794636
000130 42 fe c7 bc 29 13 df 3c 0e 22 27 3d 92 53 fd bc
       -0.024413232 0.027230816 0.04080396 -0.030923638
000140 c0 a7 01 bd 5e e0 81 39 6c bd c2 3c fb 04 51 3c
       -0.03165412 0.00024771964 0.023771964 0.012757535
000150 b3 64 48 3d 28 bb 58 bd 27 11 81 bc 71 98 24 bc
       0.04892416 -0.05291286 -0.01575525 -0.0100461105
000160 16 e4 78 3c f4 ea 3c 3c 5f ea 4b bd 76 07 ab bc
       0.015191099 0.011530627 -0.04978406 -0.020877581
000170 2c 0d ce bc 42 aa 1f bd 33 fd bf 3c 47 2a 51 bd
       -0.025152765 -0.03898073 0.023436164 -0.05106571
000180 ad a4 14 bb 2a 03 f6 3c d3 4d 57 3d 7e 5e 2d bd
       -0.0022681162 0.030030806 0.052564453 -0.042326443
000190 b8 6a 25 3d 02 d9 60 3d 87 60 ea 3c 4b c0 4c 3d
       0.040384978 0.054894455 0.028610481 0.049988072
0001a0 36 99 5a bd 4e 4d 2a 3d a1 3b 6f 3d c1 dc 04 3d
       -0.05336877 0.04157763 0.058406476 0.03243709
0001b0 bd a8 d5 3c 94 c4 05 3d ad d3 64 3d e8 61 62 3d
       0.026081437 0.032658175 0.055865932 0.055269152
0001c0 72 47 f0 3c 1d 02 57 3d f1 ec 2b bd ed 5a 33 bc
       0.029330943 0.05249225 -0.04197401 -0.010946971
0001d0 61 b3 27 3d ab 16 55 bd d4 2a 58 3d 30 8a 2c 3d
       0.040942553 -0.05202357 0.05277522 0.042123973
0001e0 e6 8f de 3b 04 bd 0d bd cd 26 90 bb 9f 68 81 3d
       0.0067920564 -0.034604087 -0.0043991567 0.06318783
0001f0 1e 42 15 3d c1 a9 d4 bb c7 34 8e 3d cd 6f c7 3c
       0.036440007 -0.006489963 0.0694366 0.024345303
000200 08 09 d1 bc a7 aa 1c bd 85 39 41 3c d9 2d 30 3d
       -0.025517002 -0.038248684 0.011793499 0.043012474
000210 12 a7 22 bd f9 c1 09 3d cd c7 d1 3c 48 70 2f bd
       -0.039710112 0.033632252 0.025607968 -0.04283169
000220 79 bd 84 3d 92 04 42 bd d0 f6 99 bc 12 2e 64 3d
       0.064814515 -0.04736764 -0.018794447 0.055708
000230 f1 cd 23 bd fb 30 50 3d b8 da 0a 3d a4 a0 37 bd
       -0.039991323 0.05082796 0.033899993 -0.044830933
000240 6b d2 17 bd 3d 9b 39 3d 69 5c d5 bb cf fa c0 bc
       -0.037065905 0.045314062 -0.0065112603 -0.023557095
000250 47 3e 1d 3d 0d 17 58 bd bf 56 23 3d d4 b3 37 3d
       0.03838947 -0.052756358 0.03987765 0.04484923
000260 b2 bb be bc 61 ca 7f 3d 0d 5b 79 3d b0 10 5d 3d
       -0.02328286 0.062448863 0.06087785 0.053970993
000270 44 6b 64 3d 8a 69 a2 bc fb 5f 9a 3a fa 78 95 3c
       0.05576636 -0.019825716 0.0011777872 0.018246163
000280 ca aa 37 3d b4 c9 72 bd 8f 22 81 bc d6 68 17 bd
       0.04484061 -0.05927439 -0.01576355 -0.036965214
000290 4c 22 5d 3d 32 2b a8 bc 8c 12 b1 ba ba 48 3c 3c
       0.053987786 -0.02052841 -0.0013509556 0.011491949
0002a0 74 00 d4 3c 61 0b d6 3c 88 18 fd bc 44 26 87 bc
       0.025879122 0.026128473 -0.030895486 -0.016497739
0002b0 c9 91 80 3c 32 69 23 bd 63 0e 25 3a bc e6 23 bc
       0.015694516 -0.039895244 0.0006296394 -0.010003742
0002c0 e4 53 85 bd 9b 56 4d bd 70 7b 78 3d 03 f4 71 3d
       -0.065101415 -0.05013142 0.060664594 0.0590706
0002d0 84 79 56 bd 32 f5 74 bd b5 67 1b 3c 40 d1 75 3d
       -0.05236198 -0.05980415 0.009485175 0.06001401
0002e0 70 2d 36 3d 26 d5 35 bd 9b 9e 7e 3d 38 a1 bf bb
       0.044476926 -0.044392727 0.062162977 -0.005848076
0002f0 96 4d 9f bc 8b c2 16 bc cc 8c de 3c af 4b f6 3c
       -0.019446176 -0.009201656 0.027166747 0.030065386
000300 51 c9 16 3b ea 3f 60 bd 5c cd fa bc 1c ed 60 3d
       0.0023008178 -0.054748453 -0.030615501 0.054913625
000310 b8 b0 14 3d 86 8b 0e bd 66 71 d4 3c 69 e3 f6 bc
       0.036301345 -0.03480103 0.025932979 -0.030137734
000320 9b f6 b2 bc 69 08 f4 bc 3d 62 24 bc 3d 28 13 bd
       -0.021846106 -0.029789167 -0.010033187 -0.035927046
000330 ee 42 2d bc b2 b1 90 bb 27 1c 26 bd 3d 91 5f 3a
       -0.010575039 -0.004415714 -0.040554192 0.0008528417
000340 4e a1 34 3d 8e 8d 2d 3d 84 4b f0 bc 99 2a c6 bc
       0.044099145 0.042371325 -0.029332884 -0.024190234
000350 9a 58 fe bc f3 d0 6d 3c a7 43 22 3d 0d 96 2a bc
       -0.031048108 0.014515149 0.0396153 -0.010411751
000360 09 ca 26 bc 01 78 fc bc 6a ba 89 3d c3 0a 12 bd
       -0.010180005 -0.030818941 0.06725009 -0.035654794
000370 e5 02 0f 3d aa 17 19 3d 4f 23 f9 3c e4 3f fa bc
       0.03491487 0.037376083 0.030412344 -0.030548044
000380 7e 08 c2 3b bb 94 86 bc 36 7c 2b 3d a5 49 11 bd
       0.0059214225 -0.016428342 0.041866504 -0.035470624
000390 42 39 0c 3d b4 23 08 3d 40 f0 c9 bc 0d f1 05 3d
       0.034234293 0.033237174 -0.024650693 0.032700587
0003a0 b5 a0 a7 bc 21 0e 24 bc 98 3f 81 3d d5 9c 06 bd
       -0.020462373 -0.010013134 0.06310958 -0.03286441
0003b0 40 d3 ab 3c f8 33 37 bd a6 19 6d 3d 43 b8 90 3c
       0.020974755 -0.044727296 0.05788579 0.017665988
0003c0 2f 53 42 3c 57 87 52 bd cd 1b 1f bd 0e ce 52 bc
       0.011860653 -0.0513986 -0.038844872 -0.01286651
0003d0 ec eb 7d 3d 3c 8a 7b 3d 8c 49 83 bd 22 38 33 bd
       0.06199257 0.061411127 -0.06410512 -0.043754704
0003e0 67 b7 4b bd
       -0.049735453

weight f4 [1, 249]
000000 9e 56 c8 3c 05 e8 85 3d 3d 8f 7e bd ae f4 78 bd
       0.024455365 0.06538395 -0.06214832 -0.06078022
000010 56 ed f8 bc 4a 93 0f bd c9 14 8b 3d a2 5c 99 bd
       -0.030386608 -0.035052575 0.06791074 -0.074883714
000020 38 44 98 3d f4 1f e0 3c 7e b2 96 3d fe 8a 34 bc
       0.07434887 0.027358986 0.073582634 -0.011019466
000030 e3 b3 83 3c 8b 77 50 3d 02 82 7b bd 53 88 06 3c
       0.016076988 0.050895255 -0.061403282 0.008211213
000040 aa 35 80 3d a6 da a0 3c 7d 66 ab 3c 57 9f 25 3d
       0.062602356 0.01963551 0.020922894 0.04043516
000050 f5 e7 03 3d f8 e6 8a bc 31 18 8b bd 5a cf 52 bd
       0.032203633 -0.016955838 -0.067917235 -0.051467277
000060 58 19 38 bd 4b 55 2f 3c 07 a6 3f bd 94 e4 90 bd
       -0.044946045 0.010701488 -0.046789195 -0.07074848
000070 3c 98 2a 3d 49 22 3f bd 0b a0 b3 bc 48 b0 32 3d
       0.04164909 -0.046663556 -0.0219269 0.043625146
000080 14 a2 8c bd e1 36 bf bc 32 20 f6 3b 97 2f 73 bd
       -0.068668514 -0.023341598 0.007511162 -0.059371557
000090 ed de 01 3c 4e df a0 bc 54 ee 11 3c d0 ff 6b bd
       0.007926685 -0.01963773 0.0089069195 -0.05761701
0000a0 2e 7b 89 3d f1 fc 00 bd 21 2e 04 bd cb 15 2f bd
       0.06712948 -0.031491224 -0.032270554 -0.042745393
0000b0 b3 df 83 bd c3 b2 09 bd b0 04 55 bd c4 17 3b 3d
       -0.064391516 -0.033617746 -0.052006423 0.04567696
0000c0 4f 02 9f 3c 34 d0 67 3c c3 3f 88 3d fe 08 96 bc
       0.01941028 0.014148761 0.066527866 -0.018314835
0000d0 80 63 82 bd e5 fa e0 3c 47 97 35 3d 94 0a 07 bd
       -0.06366634 0.027463386 0.044333722 -0.032969072
0000e0 89 60 28 bd db b2 af 3c 23 44 c1 3b 9e 21 60 3d
       -0.041107688 0.02144759 0.005898015 0.05471956
0000f0 39 88 03 bc 33 b5 23 3d c2 1a 4f 3b 2a 8e 99 bd
       -0.0080280835 0.039967727 0.0031601642 -0.07497819
000100 c9 08 53 bd 25 b9 06 3d 62 e4 01 bd bb 4b 3f bd
       -0.05152205 0.03289141 -0.031711943 -0.04670308
000110 91 49 6a 3c 55 7f 1d 3c 6e 77 86 bd 36 33 cc 3c
       0.014299766 0.009612878 -0.06565748 0.024926763
000120 34 ad 50 3d 5c 05 01 bd db 58 2c 3d 96 c3 42 3d
       0.05094643 -0.03149925 0.042076927 0.047549807
000130 ae dd 8d bc 83 06 6a bd ad 4d dd 3c 15 1c 47 3d
       -0.01731762 -0.057135116 0.027014578 0.048610765
000140 18 d2 a0 bc 82 cc 2b bd ef 22 7e 3d a8 f6 fb bc
       -0.01963143 -0.04194308 0.062045034 -0.030757263
000150 10 05 61 3d 55 0c 9e 3c 21 3f 26 bd 0a 9d ae 3c
       0.05493647 0.01929299 -0.04058755 0.021315116
000160 79 3a 47 3d 4a 7d 4a 3d f3 bf 00 3d de a1 26 3d
       0.04863975 0.04943589 0.031433057 0.040681712
000170 98 13 e7 bc 07 18 88 3d 64 cd a7 3b 69 df 5b 3d
       -0.028207585 0.06645208 0.00512092 0.053679857
000180 98 a3 21 bd 6b 1e 9c bc 64 eb 68 3d af 4d 30 3d
       -0.039462656 -0.019057473 0.05686511 0.043042835
000190 31 b1 8e 3d 1f 8c 8c bd 1c f7 23 bd 7c dd 35 3d
       0.0696739 -0.068626635 -0.040030584 0.044400677
0001a0 53 6d 36 3d dd 85 3b 3d 01 68 93 bd 46 8d b0 bc
       0.044537853 0.04578196 -0.071975715 -0.02155174
0001b0 c7 fb ca bc 9f 2a 89 bd 42 92 fd 3c ee d7 44 3d
       -0.02477826 -0.066975825 0.03095353 0.04805749
0001c0 bb c0 38 3d de cf 94 bd f7 b0 4b 3d 7f fa 3d 3d
       0.045105677 -0.0726621 0.049729314 0.04638147
0001d0 d1 7d cc 3c 35 a9 2b bd e9 2a 37 3d f4 79 22 bd
       0.024962338 -0.041909415 0.044718657 -0.039667085
0001e0 20 58 be bc 16 53 53 3d 52 79 9a bd e7 e4 21 bd
       -0.02323538 0.05159291 -0.07542671 -0.03952494
0001f0 a0 4c 8a bc 7f 58 04 bd dc 21 18 3d 9c dd 33 bd
       -0.01688224 -0.03231096 0.037141666 -0.043912515
000200 92 e0 8c 3d d7 4b 49 3d 05 45 86 3d 29 c6 a4 3c
       0.06878771 0.049144592 0.06556133 0.020114021
000210 05 72 47 3d 1c d5 f9 b9 35 e5 7a 3d e4 6b 76 bc
       0.048692722 -0.0004765176 0.061253745 -0.015040372
000220 85 09 01 bd ee c1 d9 3c 43 b2 3c bd ed 55 39 bc
       -0.03150322 0.02658173 -0.04606844 -0.01131199
000230 3d e7 a4 bc 83 f2 16 3d 0f 48 c2 bc d9 80 24 bd
       -0.020129794 0.03685237 -0.023716 -0.04016194
000240 3f 39 84 3c 50 df b8 bc ec af 4d 3b cf c5 fb 3c
       0.016140578 -0.022567421 0.0031385375 0.03073397
000250 3b e3 a7 bc 94 53 71 3d dc c2 90 3c 09 c7 55 3c
       -0.020494094 0.058917597 0.017671041 0.013047942
000260 2e 1f 7a bd c2 46 80 3d d6 7f 91 3d ae 26 86 bc
       -0.06106489 0.06263496 0.07104461 -0.016375866
000270 f5 3f 0a bd 93 5c 53 3d 78 36 0b 3d c6 e0 80 3d
       -0.0337524 0.051601958 0.033987492 0.06292872
000280 8c a0 c7 3c ed bb 4a bd 88 80 4b bd f3 00 b6 bc
       0.024368547 -0.049495626 -0.049683124 -0.02221725
000290 f1 a3 20 3d e3 21 23 3d a7 87 9e bc 73 7b 91 bd
       0.039218847 0.03982724 -0.019351793 -0.07103624
0002a0 87 23 7f bd 40 1d 3d 3d 38 37 1a 3d e7 b4 f3 bc
       -0.06228974 0.046170473 0.037650317 -0.029749347
0002b0 37 50 a4 3c 0e 28 89 3c 34 8a c1 3c d1 f0 17 3d
       0.02005778 0.016742732 0.02362547 0.037094895
0002c0 8e d9 81 3b 7d f9 4e 3d af 9c 81 bd fc 9d 60 bd
       0.003962702 0.0505309 -0.06328713 -0.054838166
0002d0 6c 69 fa bc 8c 0c c6 3c 20 8a 88 bd ba be 12 bd
       -0.030567847 0.024175905 -0.0666697 -0.035826422
0002e0 ac df 6e bd cc b0 06 bd e1 b6 a1 bc 29 3f 5e 3d
       -0.05831878 -0.03288345 -0.019740524 0.054259453
0002f0 0d b8 98 bd a5 1a 0e bd aa 84 fa bc f8 b1 7c bd
       -0.0745698 -0.03469338 -0.030580837 -0.06169316
000300 be 05 5e 3d 9d 28 c9 bc 98 43 58 3d c1 08 e3 3c
       0.054204695 -0.024555499 0.052798837 0.027714135
000310 6e 3e 5a 3d 03 36 28 bd a8 f2 fa 3c 49 5f 7d 3c
       0.053282194 -0.041067135 0.030633286 0.015464612
000320 44 84 28 bd 69 9d b9 bc 1d d0 53 bd f2 f4 7c 3d
       -0.041141763 -0.022658067 -0.051712144 0.061757036
000330 8b 6d e4 3c 1e 00 ba 3c 6c 5f 8c 3c fe d1 4c bd
       0.027884265 0.022705134 0.017135344 -0.05000495
000340 2f eb d2 3c e2 91 44 bd 73 bd 54 3d 24 16 c2 bc
       0.02574691 -0.047990687 0.051938485 -0.023692198
000350 d1 14 55 3d 36 3a 62 3d 3d 48 6b 3d 57 95 ea 3c
       0.052021805 0.055231296 0.05744194 0.028635664
000360 09 c3 34 3d 4f ca ab bb 1a 38 8e bd c6 ef c4 bc
       0.044131313 -0.005242623 -0.06944294 -0.024040114
000370 be b2 23 bd a3 21 85 3d b7 55 c2 3c 8d 3a 46 bd
       -0.039965384 0.06500556 0.023722513 -0.048395682
000380 19 d6 43 bd a4 4d fe 3c 17 b0 83 bc 3a cf 91 3d
       -0.0478116 0.031042881 -0.016075177 0.071196035
000390 56 b4 99 3d 7d 44 32 3c 63 de 5d 3d 2f ea 33 bd
       0.075050995 0.010880587 0.054167163 -0.043924507
0003a0 e7 c9 e2 3c 22 73 59 3d 71 f3 2a bd 43 52 69 bd
       0.027684165 0.053088315 -0.04173607 -0.056963217
0003b0 6c 7f af bc 23 8f 95 3d 3f 34 aa bc 5c f6 8f bd
       -0.021423064 0.07302692 -0.020776866 -0.07029411
0003c0 c9 ea 28 bc 48 62 18 3d e3 a4 dd bc fd 08 2a bc
       -0.010309883 0.037203103 -0.027056163 -0.01037812
0003d0 50 b3 7d 3d 78 17 4d bd 18 9a 1e 3d 69 ca 13 3d
       0.061938584 -0.05007121 0.038721174 0.036081705
0003e0 96 45 f8 3c
       0.030306619
