mlruns/335624475037764607/models/m-d8689a6f8ca242ea97bdbc2d40626fbf/artifacts/data/model.pth (torch, 23945 bytes, 3 tensors)

weight f4 [156, 25]
000000 5b 41 1c be 6d 52 83 3d 50 63 de bd 69 70 ee bd
       -0.15259306 0.06412206 -0.10858786 -0.11642534
000010 cf 9c 44 bd 9d 20 2b 3e 6c ee 80 bc 10 04 6b 3d
       -0.048001107 0.1671166 -0.015738688 0.05737692
000020 a8 e7 13 3d e5 8a f0 bd 6f 86 57 be 4b 1a f9 3d
       0.036109596 -0.11745242 -0.21047376 0.12163218
000030 ee 23 37 3d ae 7e ec bd a1 36 b8 3c 17 fd 08 3e
       0.044712 -0.115476 0.022486987 0.13377796
000040 b0 46 16 3e 39 f8 3b 3e b3 44 0d 3e 4a 81 20 3e
       0.14675403 0.18356408 0.13795738 0.1567432
000050 25 f7 d9 bd 60 37 90 3d e9 5c aa bd d8 cc 1a 3e
       -0.10642842 0.07041812 -0.083185025 0.15117204
000060 d5 a2 25 be 68 f7 2d 3e f4 83 ba 3d 67 40 cd bd
       -0.16175397 0.16988909 0.09107199 -0.100220494
000070 38 c1 91 3c 1d c8 27 3e b5 fb 33 3e 48 03 83 3d
       0.01779233 0.16384931 0.17576487 0.0639711
000080 be 82 2d be 97 c3 23 be 46 7c 0d be d3 06 b8 3d
       -0.16944405 -0.1599258 -0.13816938 0.089856766
000090 cb e4 0b 3e d5 d4 46 3e 46 cf ff bd ee 6c a1 3d
       0.13661496 0.19417126 -0.12490706 0.07882105
0000a0 6b 7b 08 be 3f 0f bb bb ab 8b e9 bd 90 70 03 bd
       -0.1332833 -0.0057086046 -0.11403593 -0.03208977
0000b0 84 dd 81 bd cb b0 42 3e d1 15 a8 bd 92 fa 75 bd
       -0.06341079 0.19012754 -0.08207286 -0.060053416
0000c0 cd e9 2b 3e ba 3a 41 be 89 59 3a bd 60 95 04 3e
       0.16788407 -0.18870059 -0.045495544 0.12947607
0000d0 9f df 93 3d 06 23 cd bd e2 25 43 3d b6 d6 d2 3d
       0.07220387 -0.10016446 0.04764355 0.10294859
0000e0 fa 6c ee 3c 13 69 19 3e 71 fc 8a 3c 03 36 43 3d
       0.029104698 0.14981489 0.016966077 0.04765893
0000f0 26 bb 80 3d 9d cb 75 bd e4 90 27 be b6 a1 55 be
       0.06285696 -0.060008634 -0.16363865 -0.20862469
000100 6d 40 94 bd d2 84 7f 3d 01 bf d5 bd 9b e0 04 3d
       -0.07238851 0.062382527 -0.10436822 0.032440763
000110 be e0 69 be 45 9e 23 be ae f6 fe bd 0d 6c 1a 3e
       -0.22839639 -0.15978344 -0.12449394 0.1508028
000120 f2 23 61 3d a2 db a1 3d 49 5a 50 3e f8 ac d3 3d
       0.05496592 0.0790322 0.20346941 0.103357255
000130 1c 5a 79 3d 66 2f 05 be 1d 43 43 3d 5a c1 c0 bd
       0.06087695 -0.13006362 0.047671426 -0.09411879
000140 d8 54 4c 3a 2f 83 37 3e 9c a7 f3 bc 38 35 b4 3d
       0.0007794625 0.17921136 -0.029743008 0.08799213
000150 06 8a c3 bd 0e da f8 bd 15 dc 1d 3e 93 90 0c 3e
       -0.0954781 -0.12150966 0.15415986 0.13727026
000160 63 c9 ab 3c 86 93 b4 bd 0e 7a 01 be 6c 42 3f 3d
       0.020970052 -0.088172 -0.12644216 0.046694204
000170 48 0c 28 3e 3b 3d 0f 3e 59 d3 13 be 9b 09 06 be
       0.16410935 0.13988201 -0.14436091 -0.13089602
000180 fc 40 01 bc cb c9 52 3e b8 9d 2a be 8a ca 43 3e
       -0.007889029 0.2058479 -0.16661727 0.19120231
000190 45 3d 04 3e a7 c0 24 bd 5d 70 36 bd a3 c1 db 3d
       0.12913997 -0.04022279 -0.04454075 0.10730293
0001a0 1d ad 3e 3e d7 95 41 bd 33 71 b3 bd 8f b1 d2 bc
       0.18620725 -0.04726204 -0.087618254 -0.025719432
0001b0 5e 4e de 3d 94 e9 b9 3c be 4d 61 be 56 f6 5e 3e
       0.10854791 0.022694387 -0.22002313 0.21773657
0001c0 a2 ad da 3c 85 b8 ae 3d 8b ab 0d be 24 11 2d 3e
       0.026694123 0.08531288 -0.1383497 0.1690107
0001d0 35 c7 3c be 12 59 76 3c d7 ce 6a 3d 22 35 99 3d
       -0.18435366 0.015035884 0.057326164 0.074808374
0001e0 9c fa e1 3d b4 aa 59 bd 48 58 4b be f2 7f 2e bd
       0.11034128 -0.05314131 -0.19857895 -0.042602487
0001f0 b6 95 2d bd ab f0 e3 bd b9 2c e4 bd 0c 96 dd 3d
       -0.042379104 -0.11129888 -0.11141343 0.10819635
000200 d6 fd 3f 3e b3 fb cf bd cd 22 12 3d a8 41 5b be
       0.18749174 -0.1015543 0.03567772 -0.21411765
000210 e2 33 9c bd 07 59 8d bc 5c 33 0c be 14 9b 1f bc
       -0.07627083 -0.017254366 -0.13691467 -0.009741563
000220 bb 7b ee 3b 36 7d 4c be 28 2c 41 bd c1 85 d4 bd
       0.0072779334 -0.19969639 -0.04716125 -0.10377074
000230 2a 56 c4 3d a0 49 fc 3d 53 13 16 3e a2 be 45 bd
       0.09586747 0.1231873 0.14655809 -0.048277505
000240 3d 26 a8 3d 78 28 01 bd ef 95 44 bd bd ab 30 3e
       0.082104184 -0.031532735 -0.04799455 0.17253013
000250 5f 00 4d 3e 70 87 a5 bd f1 b8 bb 3d 8d e8 e8 3d
       0.20019673 -0.08082473 0.09166134 0.113724805
000260 dd 5b f5 3d cc 4d 06 3e f4 9e 26 3e f5 06 11 3d
       0.11980412 0.13115615 0.16271573 0.035407025
000270 8d 1f 18 be 1e 6d 4b be 0a d6 ab bd 4b 8f 09 3e
       -0.14855786 -0.19865844 -0.08390434 0.13433568
000280 18 89 e7 bb 64 49 15 be 99 c0 de bd 67 d8 19 bb
       -0.0070659034 -0.14578778 -0.10876579 -0.0023474933
000290 5a be 39 3e 87 51 db 3c 3d a3 1f be f4 13 6c bd
       0.1813902 0.026772274 -0.15589614 -0.057636216
0002a0 ec c6 2b be 68 7c 81 3d 09 91 fc 3c 1f 0c 24 3e
       -0.16775101 0.06322557 0.030830877 0.16020249
0002b0 79 89 e3 bd 36 61 47 3e d3 50 0e be 1e b4 19 bc
       -0.11110205 0.19470677 -0.1389802 -0.009381322
0002c0 12 76 80 3d 04 90 d3 3d 7e de 2d 3e de 20 6c 3d
       0.0627252 0.10330203 0.16979405 0.057648532
0002d0 ed 6d aa 3d 5c 0b b2 bd 5b 46 55 3c 7b 2c 16 3e
       0.08321748 -0.08693573 0.013017262 0.14665405
0002e0 61 4d 7a 3c 7e 1c ac bb f4 46 c6 3d 37 d3 4b 3d
       0.015277238 -0.00525242 0.09681502 0.049761977
0002f0 52 9c 2a 3e 61 45 a0 bd 84 11 f6 3d 39 d2 8e 3b
       0.16661194 -0.07825733 0.120150596 0.0043585566
000300 4a 29 47 be d1 97 3b bd 13 70 51 3d 99 1f f7 3d
       -0.19449344 -0.04579908 0.051132273 0.12066574
000310 ab 4f ab 3d 95 c2 af bc 4f 4c 94 bd 3d 1f a3 3d
       0.08364805 -0.021455089 -0.07241117 0.079649426
000320 39 19 ce 3d a5 ae 0d 3e e8 12 7e 3d ec e5 27 3e
       0.100634046 0.13836153 0.06202975 0.16396302
000330 11 c6 0b 3e 4e 34 d6 bd 22 3b 56 be ba ef f3 3c
       0.13649775 -0.10459195 -0.20920995 0.029777396
000340 10 4d b0 3d 72 00 35 be 5c e8 00 be 1a 7a 9c bd
       0.086084485 -0.17675951 -0.12588638 -0.076404765
000350 4e ab 08 be b2 b9 c7 bc fd ae 95 3d bb 91 b6 3b
       -0.13346598 -0.024380539 0.07308767 0.0055715716
000360 1f 28 23 be 7f 52 0f 3e 6d 21 f1 3c 53 fa 30 3d
       -0.15933274 0.13996314 0.029434884 0.043207478
000370 10 7a f9 3d d8 c6 d9 bc a6 12 a7 bd df ca 66 3d
       0.12181485 -0.026584074 -0.08157854 0.056345817
000380 a6 1f e5 bd 2f df 1e be f3 ce 1e 3e 89 19 6d 3d
       -0.11187677 -0.15514825 0.15508632 0.05788568
000390 aa 79 ad bd 3e 3d 51 3d 4c ee 36 3d 2b b9 86 3d
       -0.08470471 0.051083796 0.04466085 0.06578287
0003a0 da 7a 1a be 99 fc 12 be 21 db 45 3e 25 19 64 be
       -0.15085927 -0.14354171 0.19321872 -0.22275217
0003b0 24 2e 99 3d 92 14 43 3e cc 1d 28 be f4 eb 00 be
       0.07479504 0.19050816 -0.16417617 -0.12590009
0003c0 7c e4 ab bd 6e 36 35 3d df 60 19 3e ed 1f a1 3d
       -0.08393189 0.04424136 0.1497836 0.078674175
0003d0 77 ed 4b 3e 67 f3 f3 bd 4b 91 3f be 8b 39 d9 3d
       0.19914804 -0.1191166 -0.18707769 0.106066786
0003e0 47 dd e5 3d 06 3f d3 bd 7a 4b 08 3e 5c c3 34 bd
       0.11223846 -0.10314755 0.13310042 -0.04413162
0003f0 b2 67 b4 3d 50 f2 2a be 24 9c fe 3d b9 f2 35 be
       0.08808841 -0.16693997 0.12432125 -0.17768373

bias f4 [156]
000000 63 43 1b 3d a1 e4 16 bd 31 03 5d 3e 47 84 10 3e
       0.03790606 -0.03683913 0.21583249 0.1411296
000010 c6 32 d4 3d 54 64 e6 bd ab 26 98 bd 67 c6 4b be
       0.10361247 -0.11249605 -0.0742925 -0.19899903
000020 28 46 b8 3d ac b4 56 bd 9c c5 38 be 13 72 34 3e
       0.08997756 -0.052418396 -0.18044132 0.17621641
000030 24 15 ce 3d 4a db fb bc 4f 27 1d be 5b 2f 01 3e
       0.10062626 -0.030744214 -0.15347026 0.12615721
000040 c1 c9 34 bd 0d 16 77 3d 5f bc ce bb d8 3b 26 3d
       -0.04413772 0.060323764 -0.0063090767 0.040584415
000050 77 d2 0e be 56 65 a5 bc 00 7b 46 3e 8b 54 22 be
       -0.13947473 -0.020189922 0.19382858 -0.15852563
000060 34 08 6e bc 44 ad 9c 3d 45 82 89 3d 70 37 10 be
       -0.014528323 0.07650235 0.067143 -0.14083648
000070 9e 2e 27 3d bc 0d 45 bd ba 71 33 3e 5b 20 04 3e
       0.040815942 -0.0481088 0.17523852 0.12902968
000080 23 ac 0f be af 4c 06 3d bd b3 3a 3e 79 7c a8 3d
       -0.14030509 0.032787975 0.18232627 0.08226866
000090 1d a4 cc 3d 47 12 0f 3e 3a 88 60 bc b5 92 b2 3d
       0.099922396 0.13971816 -0.013704354 0.087193884
0000a0 7d 17 24 3e b0 4a bb bd 7b e0 8d 3d 6a 5e e9 3d
       0.16024585 -0.09145105 0.06927582 0.11394961
0000b0 c6 c6 27 3d 73 e9 d8 3d 1e ba 7b 3d a7 13 3e bd
       0.04096105 0.10591402 0.061456792 -0.04640546
0000c0 84 28 3d 3e 01 b2 0e 3e ed 43 38 3e 66 cc da 3c
       0.18472487 0.1393509 0.17994662 0.026708793
0000d0 3b 87 20 be 02 7d 96 bd fc 12 44 be 35 7c 6e 3c
       -0.15676586 -0.07348062 -0.19147867 0.01455598
0000e0 d8 7e 39 bd 4d 30 e3 3d 3e 1b 76 3d 06 ab 1b bc
       -0.045286983 0.11093197 0.060084574 -0.009501224
0000f0 92 60 87 bc d1 67 89 bd f4 65 a4 bc ab 44 eb 3c
       -0.01652554 -0.067092545 -0.020068146 0.028719267
000100 af 6f 12 be 92 83 8f 3d d2 46 a7 bc 9d d0 d5 3c
       -0.14300416 0.07007517 -0.020419512 0.026100451
000110 e2 c4 e2 3d 52 ee 17 3e 1f 1a 72 3d 34 d6 b4 bd
       0.11072709 0.14837006 0.059106942 -0.088299185
000120 6a 63 ac bd 4e 79 eb 3c 97 65 08 be 9e 9a 0f be
       -0.08417399 0.028744366 -0.13320003 -0.14023826
000130 00 ea 81 3c 3d 44 2f bc 58 2a 33 be 72 9c 60 3e
       0.01585865 -0.010697422 -0.17496622 0.21934679
000140 a8 6f 14 be e8 27 cc bd f0 e4 a6 bc 76 c9 1b be
       -0.14495718 -0.09968549 -0.020372838 -0.1521357
000150 1e a4 fc bd b0 58 29 be c6 a7 26 bd 03 5a e0 3d
       -0.1233599 -0.16537738 -0.040687345 0.109546684
000160 45 8d 13 be 9b cb 00 3d e1 ce a0 bb 15 df 15 3e
       -0.14409359 0.031444173 -0.0049074744 0.1463588
000170 d0 2e ba 3d 27 fc 8f bc 91 a2 b7 bd 09 86 9e 3d
       0.0909096 -0.01757629 -0.08966554 0.07740409
000180 4b 20 4b bb 25 bf 0c b9 00 88 1a be b2 a1 dc 3c
       -0.003099459 -0.00013422647 -0.15090942 0.026932571
000190 63 ad 04 be 8f 9f 37 3c 72 19 2c 3e 55 33 45 3d
       -0.12956767 0.011207475 0.16806582 0.048144657
0001a0 45 5f ce bd dc fc 20 3d 95 57 cc 3d 4d 56 f5 3c
       -0.10076765 0.039303645 0.099776424 0.029948378
0001b0 37 87 b7 3d 50 7b 83 3b 43 db bc 3d e4 03 29 bd
       0.08961337 0.0040125027 0.09221508 -0.041263476
0001c0 da d9 a7 3c 4e 68 50 3e 23 c9 59 3e af 00 42 bd
       0.020489622 0.20352289 0.21268134 -0.047363933
0001d0 fb 44 95 3d 95 41 2e bd 34 0b 06 3e cb d6 16 be
       0.072885476 -0.042543013 0.13090211 -0.14730375
0001e0 ac aa 89 bd d7 15 b2 3c b4 85 06 3d b9 69 33 be
       -0.06722006 0.02173893 0.032842353 -0.17520799
0001f0 db 73 a7 bd 1c 79 27 be d9 af 09 bd c1 af 33 bd
       -0.081763946 -0.16354793 -0.033614967 -0.043868784
000200 d7 7b ef bd 1a 9d 03 3e c2 ef 32 3d 76 6e 09 3e
       -0.116935425 0.12852898 0.043685682 0.13421044
000210 5f c8 33 3e 9a 93 0a 3e cd 46 09 be e5 8b 30 3e
       0.17556904 0.13532868 -0.13405915 0.17240866
000220 f5 85 eb 3d 0d bf 53 bc ea 1a 28 bd d2 7a c0 bd
       0.1150016 -0.012923968 -0.041041292 -0.09398426
000230 2c 94 fa 3d d0 33 ce bd fe 5a c2 3d 65 d8 b5 3d
       0.12235293 -0.10068476 0.09490012 0.088791646
000240 c4 c2 3b 3e d2 c0 0b bd e4 f0 39 be f6 81 ea 3d
       0.18336016 -0.034119435 -0.18158299 0.11450569
000250 20 ec 5c 3e 72 3e 80 3d 84 b9 d5 bd 8f 44 2e bd
       0.2157445 0.062619105 -0.10435775 -0.04254585
000260 5d cd 20 3e af fc 53 3e 08 c0 fc 3d cc a8 34 3e
       0.1570334 0.2070186 0.123413146 0.17642516

weight f4 [1, 156]
000000 db 37 d1 bd 5d 09 06 bd b7 e3 c0 3d a5 60 38 bc
       -0.10215732 -0.032723773 0.09418433 -0.011253511
000010 38 a3 eb bc 56 99 90 bd 36 c4 9c bd c5 84 6f 3c
       -0.028764352 -0.070604965 -0.07654612 0.014619057
000020 01 97 d7 bd a8 68 05 bd 1f 31 ae 3c a4 0c 2a 3d
       -0.105268486 -0.03257051 0.021263657 0.04151596
000030 f9 9f 10 bd 7a 92 fc bc d7 c7 9b bd fa 9a 1e bd
       -0.03530881 -0.030831564 -0.07606476 -0.038722016
000040 21 32 f1 bb 23 23 df 3b e2 32 eb 3c 01 cd bb bc
       -0.007360712 0.0068096085 0.028710786 -0.022924902
000050 1b 8b bd 3c c0 c3 b4 bd 65 26 c4 3d 13 69 24 3d
       0.02313762 -0.08826399 0.09577636 0.04013927
000060 bc 06 9f 3d 93 e6 ad 3d d9 a1 05 bc 78 5e f0 3c
       0.07764956 0.08491244 -0.008156263 0.029341921
000070 a5 76 6f bd 76 27 f9 3c bf 5f 14 3d ae 96 55 3d
       -0.058462758 0.030414324 0.036224123 0.052145652
000080 89 09 1f 3d e0 d5 78 3d 0a e4 bc bd 75 ab 99 3d
       0.038827453 0.060750842 -0.092231825 0.07503406
000090 6e 04 2b 3d 21 1f f1 bc c5 95 c0 bd a5 b3 a3 3d
       0.04175227 -0.029433789 -0.09403566 0.07993249
0000a0 23 03 83 3d a2 39 09 3d 9d 3c da 3c 42 43 94 bd
       0.06397083 0.03350223 0.02664023 -0.07239391
0000b0 b9 63 4e bd 79 cf 18 bc fa a8 26 bd 26 bd 49 3d
       -0.05038807 -0.009326809 -0.040688492 0.04925265
0000c0 40 90 12 3d 77 69 8c bd e0 51 58 bd 8c 35 9b bd
       0.0357821 -0.06856053 -0.052812457 -0.07578573
0000d0 ff 00 96 bd cf 91 6e 3d 8f 12 26 bd c9 ec c3 bd
       -0.07324409 0.058244523 -0.040545043 -0.095666476
0000e0 8e a0 f5 3c 31 09 af bd 42 dd 2f 3c 12 b9 91 bd
       0.029983785 -0.08546675 0.010733904 -0.071153775
0000f0 94 ba c5 3d d2 2e 1b 3d ac 52 48 bc fe 63 05 3d
       0.096547276 0.03788645 -0.012226742 0.032566063
000100 c9 ea b3 3d 63 ee 52 3b 35 7b 8f 3c 15 85 8a 3d
       0.08785016 0.0032185547 0.017514804 0.06763665
000110 eb 97 bf bd 20 c7 9e bd f0 57 7b 3d 13 5b 8f 3c
       -0.09355148 -0.07752824 0.06136316 0.017499482
000120 11 fd 9d bd cd f4 41 bd 51 94 31 bd 6c 3f 16 3c
       -0.07714284 -0.0473526 -0.043354336 0.009170394
000130 a9 b5 7d 3d 47 a0 ab bd 0d d9 af bd 4b 63 11 bd
       0.061940823 -0.0838018 -0.08586321 -0.035495084
000140 26 b5 d7 39 d3 6a 35 3d e5 7e 75 bd 87 d4 68 3a
       0.00041142962 0.04429133 -0.05993547 0.00088817667
000150 62 7f c8 bb 18 b4 35 bd e7 bd 78 bd 95 06 12 3d
       -0.006118701 -0.044361204 -0.06072798 0.03565081
000160 6a 5c de 3c 77 17 2a 3d 68 7e 50 bd 0a 6b 5e bd
       0.027143676 0.041526284 -0.0509018 -0.0543013
000170 53 01 bd 3a 1d 47 a8 3c 91 8c 6d bd 25 41 a1 bd
       0.001441995 0.020541722 -0.057995383 -0.078737535
000180 45 52 87 bc 5a 27 88 3c 17 e1 be bd 10 52 8f bd
       -0.016518721 0.016620327 -0.09320276 -0.06998074
000190 dd c4 00 bd 30 8c 6a 3d 52 9d c1 3c e2 37 5a bd
       -0.031437743 0.0572626 0.023634586 -0.05327595
0001a0 0a 3f 0b 3d ad d3 3f 3d 1d 13 90 3d 89 f1 d1 bd
       0.033995666 0.04683273 0.070348956 -0.10251147
0001b0 60 3d 8b 3d d6 d5 84 3d 15 84 d9 bc 4e 82 c2 3c
       0.06798816 0.064860985 -0.02655224 0.023743775
0001c0 c9 e0 cf 3c 67 86 d6 bd 03 11 65 3d fb c8 2b 3d
       0.02537574 -0.10474854 0.055924427 0.041939717
0001d0 3f 17 50 bd 90 18 7e bd 03 33 a4 3c 7b 00 58 bd
       -0.05080342 -0.062035143 0.020043856 -0.052734833
0001e0 00 04 dc 3d 3e 5b d1 3b 4c 57 54 3d e9 40 7a bd
       0.107429504 0.0063890507 0.051841065 -0.06109706
0001f0 56 df 2f bd b5 3d c6 bd 0b f3 25 3d 2d e5 1e 3d
       -0.0429376 -0.096797384 0.040514987 0.038792778
000200 4f 91 cd 3d 35 ef 63 3d 34 d3 97 3d 02 6d db 3c
       0.10037481 0.055648047 0.07413331 0.026785377
000210 7e 11 9a 3d 58 67 02 3d b5 f8 97 bd 93 13 5a bd
       0.075228676 0.031836838 -0.07420484 -0.053241324
000220 92 7d 33 bd c7 bf 9b bd 50 af b4 3c b5 dd c8 3c
       -0.043820925 -0.07604938 0.022056252 0.02451978
000230 19 eb 65 3c 68 42 3f 3d 03 2f ed bc 4a ce 82 bd
       0.014033102 0.04669419 -0.028953081 -0.06387003
000240 1a 4e 02 bc 9a f7 b4 bc c8 5f 95 bc 6a 91 18 3d
       -0.007953191 -0.022090722 -0.018234149 0.037248053
000250 e7 30 cb bd 9c 74 b9 3d f6 b1 63 3c 94 9e 45 3d
       -0.09921437 0.090554446 0.01389741 0.048246935
000260 47 fc 63 3d dd 88 ae bd 06 c3 63 3d 57 2f 8b bd
       0.055660512 -0.08522198 0.05560591 -0.06796139
