mlruns/335624475037764607/models/m-5b5377080eb0490abd2405f31884a2ea/artifacts/data/model.pth (torch, 53885 bytes, 5 tensors)

weight f4 [70, 25]
-0.048950866 -0.08856037 -0.083213374 -0.16978712 -0.15608323 0.17117587 0.16814235 -0.099165946
-0.026601933 0.13967131 0.04146572 -0.19085957 -0.039026015 0.12220242 -0.037725866 -0.09084756
-0.15584625 -0.08613406 0.012360513 -0.02929128 -0.18704574 0.07757982 0.01191939 -0.011397027
-0.10112903 0.118881226 -0.1237022 0.005002668 -0.06381441 -0.19811612 -0.050305296 -0.0075727943
-0.11294864 -0.12700629 -0.12937461 0.21982047 0.08260321 0.13234973 -0.19437523 -0.102376424
0.08468572 -0.025601754 0.028991727 -0.16485435 -0.10133592 -0.17913005 0.16199183 0.16823661
-0.18612054 -0.008274416 -0.15978055 -0.07341963 -0.13439146 -0.11119337 -0.22724724 0.07742764
-0.13385206 0.050089225 0.1326155 0.14269236 0.22619812 0.04040893 -0.09669691 -0.11786524
-0.019206904 -0.19272129 -0.13963479 -0.1575327 -0.016073896 -0.21370156 -0.027119525 0.18737994
-0.10580885 -0.07297091 0.013022272 -0.08867934 0.0175642 0.04775243 -0.022879094 0.07998637
-0.014673475 -0.15104708 0.11608304 0.18634975 -0.023028808 -0.18542844 0.11234721 -0.03014503
-0.1679836 -0.115413934 0.014582986 0.15106769 0.041132454 0.13395031 0.03394189 0.05420751
-0.053043894 0.10219407 0.22493435 0.14968081 0.13110436 0.036900245 -0.1044741 0.09517796
0.16721901 -0.022300504 -0.06615036 -0.040715244 0.15317917 0.09299774 -0.18298742 0.18144788
-0.15848885 0.10019602 -0.1890223 -0.058090206 -0.2223476 -0.066086784 -0.08016262 0.00060126995
0.13884833 0.1659651 -0.1291551 0.15666564 -0.009222037 -0.14239003 -0.0929956 0.16209678
-0.01133588 -0.069016755 -0.03142808 -0.06488394 0.017313581 0.10763835 -0.070114054 -0.14675665
0.012645289 -0.058690727 -0.095612265 0.0861188 -0.053503424 0.16740516 -0.08303528 0.13166143
0.09247765 -0.13591933 0.11739893 0.0052720886 0.2041858 0.1643351 0.16926621 -0.19905578
-0.046167955 0.012356538 0.081887424 -0.13372448 0.14242668 0.07370205 0.11783244 -0.096154414
0.13549735 0.06122243 0.11738018 0.035945587 0.036345113 -0.05591727 -0.19005829 0.08369223
-0.09304876 0.17363486 -0.160473 -0.14149818 0.12493484 -0.09524631 -0.15638974 -0.034994714
-0.15174176 -0.12604722 0.089703046 0.24567388 0.0879849 0.09089398 -0.056834932 -0.111771874
0.1374575 -0.16497402 -0.005395731 0.005570861 -0.1558847 0.15416428 -0.007956631 -0.037048604
-0.15390122 0.21645206 0.2661387 -0.10814721 0.09908713 -0.03826235 -0.017069688 -0.16637807
-0.046817966 -0.063120976 0.009995858 0.07879648 0.108733416 -0.058504753 0.14185877 -0.115446284
0.04217293 0.088828176 -0.23912618 -0.13297138 0.11188784 0.14119987 -0.051937286 0.11794808
0.14500007 0.08828429 -0.034808725 -0.11267074 -0.051884647 -0.07685487 -0.024636758 0.13556522
-0.02127347 -0.037635405 0.09133066 -0.09386278 -0.08607283 0.100545675 0.016296102 0.033035375
0.13139425 -0.08430828 0.056693826 0.15228672 0.099942714 0.0049428707 -0.06582201 -0.11194476
-0.06470107 -0.066792205 -0.08543903 0.12555115 -0.14596684 -0.12523343 -0.048872426 -0.03553207
-0.07342729 0.184715 0.06508409 -0.031625584 0.14534232 0.042900372 0.053561293 0.022783702
00000000: b480 48bd 245f b5bd c66b aabd addc 2dbe
00000010: 48d4 1fbe ba48 2f3e 822d 2c3e 8417 cbbd
00000020: 4cec d9bc ff05 0f3e f5d7 293d b170 43be
00000030: bed9 1fbd 4345 fa3d 7086 1abd 490e babd
00000040: 2996 1fbe 0e67 b0bd c083 4a3c 44f4 efbc
00000050: eb88 3fbe 2be2 9e3d 8c49 433c 99ba 3abc
00000060: bd1c cfbd 0078 f33d 9457 fdbd 6ced a33b
00000070: 21b1 82bd f4de 4abe ed0c 4ebd 3425 f8bb
00000080: 9e51 e7bd f00d 02be c77a 04be 9e18 613e
00000090: df2b a93d b086 073e 4d0a 47be bbaa d1bd
000000a0: b56f ad3d c5ba d1bc 0f80 ed3c 94cf 28be
000000b0: 3589 cfbd de6d 37be 30e1 253e 3846 2c3e
000000c0: 6296 3ebe 6b91 07bc 839d 23be 085d 96bd
000000d0: ea9d 09be 59b9 e3bd 80b3 68be 6292 9e3d
000000e0: 8410 09be 5c2a 4d3d 5ccc 073e f21d 123e
000000f0: 7ba0 673e d683 253d 0809 c6bd 5563 f1bd
00000100: cc57 9dbc bb58 45be 6cfc 0ebe 4150 21be
00000110: 67ad 83bc 95d4 5abe c429 debc 87e0 3f3e
00000120: 4fb2 d8bd c671 95bd 5e5b 553c 849d b5bd
00000130: cce2 8f3c 0d98 433d f06c bbbc e5cf a33d
00000140: 0469 70bc 16ac 1abe f2bc ed3d 78d2 3e3e
00000150: e9a6 bcbc f4e0 3dbe 4b16 e63d b6f2 f6bc
00000160: e503 2cbe 245e ecbd 7aed 6e3c 7db1 1a3e
00000170: 817a 283d 452a 093e a706 0b3d b208 5e3d
00000180: 8e44 59bd 204b d13d 3155 663e ed45 193e
00000190: 3940 063e b624 173d 84f6 d5bd aaec c23d
000001a0: 763b 2b3e 8caf b6bc d779 87bd 07c5 26bd
000001b0: 00db 1c3e 9975 be3d 0e61 3bbe 79cd 393e
000001c0: e74a 22be 9233 cd3d 108f 41be ffef 6dbd
000001d0: 17af 63be 8258 87bd 4d2c a4bd 8b9e 1d3a
000001e0: 422e 0e3e c1f2 293e 3c41 04be f56c 203e
000001f0: 0718 17bc b1ce 11be 7a74 bebd b3fc 253e
00000200: 20ba 39bc a858 8dbd bbba 00bd dfe1 84bd
00000210: 36d5 8d3c 7f71 dc3d f597 8fbd 6047 16be
00000220: 302e 4f3c b065 70bd 5dd0 c3bd 0e5f b03d
00000230: 6826 5bbd 426c 2b3e 670e aabd 41d2 063e
00000240: ec64 bd3d 702e 0bbe da6e f03d 7cc1 ac3b
00000250: 1516 513e 7647 283e 1f54 2d3e 47d5 4bbe
00000260: 9c1a 3dbd 1473 4a3c 98b4 a73d 12ef 08be
00000270: 4dd8 113e 1af1 963d 2252 f13d 9bec c4bd
00000280: d1bf 0a3e 5fc4 7a3d 0565 f03d ae3b 133d
00000290: 9dde 143d 8209 65bd a49e 42be d566 ab3d
000002a0: 5990 bebd 56cd 313e 0953 24be e6e4 10be
000002b0: d6dd ff3d 7f10 c3bd a224 20be 9e56 0fbd
000002c0: 3162 1bbe 8612 01be 3bb6 b73d ef91 7b3e
000002d0: 6d31 b43d 9f26 ba3d bfcb 68bd a7e8 e4bd
000002e0: a9c1 0c3e f3ee 28be acce b0bb c58b b63b
000002f0: 3da0 1fbe 3edd 1d3e 875c 02bc 47c0 17bd
00000300: 4898 1dbe 9ca5 5d3e 5543 883e 497c ddbd
00000310: 31ee ca3d fbb8 1cbd bbd5 8bbc 035f 2abe
00000320: 32c4 3fbd 9245 81bd abc5 233c 0d60 a13d
00000330: a0af de3d aea2 6fbd 6d43 113e 1a6f ecbd
00000340: 86bd 2c3d 8ceb b53d 7edd 74be a629 08be
00000350: 7425 e53d b396 103e 31bc 54bd c38e f13d
00000360: e67a 143e 65ce b43d 9893 0ebd ebbf e6bd
00000370: ff84 54bd 1666 9dbd 07d3 c9bc 9cd1 0a3e
00000380: b345 aebc 9527 1abd 920b bb3d 213b c0bd
00000390: f446 b0bd e4ea cd3d 677f 853c 1a50 073d
000003a0: 378c 063e d2a9 acbd c937 683d 0df1 1b3e
000003b0: c4ae cc3d cef7 a13b b1cd 86bd 4b43 e5bd
000003c0: ff81 84bd 5aca 88bd a8fa aebd 7b90 003e
000003d0: 5578 15be 313d 00be 742e 48bd 138a 11bd
000003e0: 0c61 96bd ee25 3d3e cf4a 853d d489 01bd
000003f0: 9ed4 143e 4db8 2f3d 1663 5b3d e3a4 ba3c

bias f4 [70]
0.088490866 0.120812014 -0.017157646 0.19487455 0.15044332 -0.006877771 -0.021431735 0.043917947
0.13796432 0.10862454 -0.1528752 -0.08507582 -0.0316717 -0.080074094 -0.02617235 0.042632103
0.027951 -0.09133582 0.077914126 0.04803516 -0.179894 0.10059455 -0.030673668 0.1832943
-0.018224793 -0.14873119 0.17467144 -0.038531188 -0.07341796 0.13994774 0.1946111 0.094698936
0.19473238 0.20171425 -0.023824947 0.04668315 -0.06700184 0.099963084 -0.14165497 -0.02430671
0.08518377 0.17016196 0.08553075 -0.13774824 -0.031277485 0.19706507 -0.1697063 -0.05181258
0.15233952 -0.088162914 0.0073557496 -0.1499203 -0.11702417 -0.079846404 0.15451163 -0.11468938
0.14935978 -0.16908349 0.03484358 0.1025824 0.08112658 0.09623437 0.11725878 0.066646375
-0.13516657 0.06568387 0.0949449 0.14523768 -0.011499238 0.085594065
00000000: b33a b53d 4a6c f73d 318e 8cbc 328d 473e
00000010: d00d 1a3e ed5e e1bb 9b91 afbc 4ee3 333d
00000020: 8546 0d3e 8b76 de3d 518b 1cbe 3b3c aebd
00000030: 2fba 01bd e3fd a3bd 6567 d6bc 009f 2e3d
00000040: 7ff9 e43c 460e bbbd 7191 9f3d 84c0 443d
00000050: 2236 38be 8404 ce3d 5847 fbbc 80b1 3b3e
00000060: 294c 95bc fd4c 18be 12dd 323e e1d2 1dbd
00000070: 285c 96bd 764e 0f3e 2248 473e 84f1 c13d
00000080: ed67 473e 2e8e 4e3e 892c c3bc d536 3f3d
00000090: 4338 89bd 72b9 cc3d 000e 11be de1e c7bc
000000a0: d474 ae3d f03e 2e3e bf2a af3d e00d 0dbe
000000b0: d21c 00bd 6dcb 493e 7dc7 2dbe 6e39 54bd
000000c0: e4fe 1b3e c28e b4bd 8008 f13b b584 19be
000000d0: 5eaa efbd 8386 a3bd 4c38 1e3e 44e2 eabd
000000e0: c5f1 183e 3924 2dbe 24b8 0e3d b916 d23d
000000f0: b125 a63d 8616 c53d 5f25 f03d e57d 883d
00000100: 1b69 0abe 4485 863d 7972 c23d 30b9 143e
00000110: 4d67 3cbc f14b af3d

weight f4 [133, 70]
0.11357008 -0.0035973957 -0.002953154 -0.09082615 -0.081067406 0.055241358 -0.052828476 -0.08175831
-0.087382026 -0.043305084 0.0021853342 -0.041122757 0.063261375 0.11572271 0.113127425 -0.083323725
0.036783673 0.06412754 -0.08899022 0.03454223 -0.06449532 -0.0037967586 -0.06392282 -0.074575834
0.053099234 -0.032244746 0.005741753 0.07347853 0.07902593 0.0018093231 0.095951684 0.050819445
0.006996758 0.018507194 0.042161893 -0.09850365 0.09451779 -0.10087289 0.04395754 0.0021724151
0.114100315 0.08114216 -0.0177835 0.13303411 0.091762744 0.003217305 0.050380245 -0.03801773
0.05948698 0.08320298 -0.0009868226 -0.012639462 0.050961487 -0.056809906 0.12049814 -0.042770106
-0.08370122 -0.08846371 -0.07391923 0.009702619 0.042239044 -0.050924744 -0.055978887 0.061014596
0.0019424896 0.06441124 -0.0711773 0.11109335 0.0077361776 -0.01007676 0.017960746 0.14500989
8.152704e-05 0.0941267 0.024578216 0.11286133 -0.11144925 -0.12016687 -0.03162285 -0.04415023
0.14727667 0.02494577 0.019418033 0.03729208 -0.0047106356 -0.0021355078 0.033300895 0.060530897
0.04243207 -0.0015276589 -0.100855105 -0.124708265 0.03145091 0.06274134 0.09027063 0.0457108
-0.06393262 0.10032989 0.06126862 0.07190438 -0.0028568958 0.12069363 -0.05579029 -0.021339415
-0.110768095 -0.0045849653 0.04863839 -0.031067653 0.12430645 -0.009908876 0.004257818 0.10025914
0.08768955 -0.069603875 0.08775879 0.1196352 -0.07968607 -0.09902493 -0.08192176 0.0659322
-0.070635624 -0.021112464 -0.009465993 -0.004449211 0.10833043 0.03269548 -0.060878515 -0.032397356
-0.05734866 0.047081333 0.10217735 -0.012989273 0.11184114 -0.034936886 0.08293747 0.03141702
-0.05862701 -0.07820592 -0.13962698 -0.044480097 0.124167964 0.023996089 -0.09831991 -0.027193386
-0.055013306 -0.05673063 -0.08973498 -0.04121243 -0.07650927 -0.08626242 -0.049486637 -0.051556226
0.08125324 0.09596039 0.017980257 0.06262173 -0.0006891532 0.08184782 0.0013008994 0.040198524
0.096113905 -0.09055616 -0.044153333 0.09539595 0.13449171 -0.107811205 0.08766049 -0.015495967
-0.012920323 -0.043612912 0.13400221 0.0774815 -0.100637466 0.09058437 0.009129506 -0.007809123
-0.057483982 -0.02321373 0.0094838105 -0.11034635 -0.107417725 -0.04282795 0.111301124 0.09537995
0.0063114827 0.13391787 -0.021308288 -0.017162928 0.062212884 0.050106727 0.04177472 0.0725095
-0.00093626993 0.1493625 0.07218397 -0.040758096 -0.08207042 -0.046859883 0.045652423 0.102438144
0.09221594 0.09212598 -0.05323701 0.022590974 0.10558732 0.07673766 -0.07788027 -0.029937373
-0.053470258 0.112776265 0.07335144 -0.04074521 -0.0109057585 -0.12817626 -0.01201933 0.035384312
-0.07263113 0.07058505 -0.0041290913 -0.043409254 0.12708563 0.035901994 0.10204072 0.110648274
-0.0031271467 0.09219603 0.020368533 -0.099352956 0.08346501 0.05803171 -0.10371007 0.08777895
0.0741026 -0.115034826 -0.09883109 -0.13850948 0.09494445 -0.08470304 -0.017956706 0.09000236
0.10046508 -0.054686483 0.04794394 0.052029077 -0.013823202 0.008909934 -0.020153873 0.015383861
0.040270604 0.026394507 0.044500925 0.041956544 -0.10492987 0.034900583 -0.04824207 -0.040052466
00000000: 6e97 e83d 49c2 6bbb b489 41bb 0f03 babd
00000010: ab06 a6bd c344 623d ac62 58bd e770 a7bd
00000020: 59f5 b2bd ac60 31bd d337 0f3b 5670 28bd
00000030: 2e8f 813d 0700 ed3d 5aaf e73d a1a5 aabd
00000040: 7aaa 163d 4d55 833d 8140 b6bd 277c 0d3d
00000050: 1f16 84bd 0ad3 78bb f8e9 82bd 37bb 98bd
00000060: 957e 593d 1113 04bd 5125 bc3b e97b 963d
00000070: 59d8 a13d cf26 ed3a 5182 c43d 0d28 503d
00000080: 0f45 e53b 669c 973c f3b1 2c3d 48bc c9bd
00000090: 8b92 c13d 7296 cebd d20c 343d 145f 0e3b
000000a0: 6dad e93d dc2d a63d b4ae 91bc 183a 083e
000000b0: 1bee bb3d 6cd9 523b 845b 4e3d 7bb8 1bbd
000000c0: 9fa8 733d 5366 aa3d 4658 81ba bf15 4fbc
000000d0: febc 503d 81b1 68bd bbc7 f63d b52f 2fbd
000000e0: 8c6b abbd 762c b5bd f762 97bd bcf7 1e3c
000000f0: d902 2d3d 7796 50bd 1e4a 65bd 71ea 793d
00000100: 239b fe3a 0aea 833d 67c5 91bd e984 e33d
00000110: c37f fd3b ff18 25bc 6a22 933c 797d 143e
00000120: 7ff9 aa38 80c5 c03d 4158 c93c d723 e73d
00000130: 813f e4bd 0c1a f6bd f686 01bd dfd6 34bd
00000140: b2cf 163e 125b cc3c 9112 9f3c 94bf 183d
00000150: ad5b 9abb e0f3 0bbb 8566 083d 3fef 773d
00000160: 40cd 2d3d ba3b c8ba 1f8d cebd 0c67 ffbd
00000170: abd2 003d 887e 803d cfdf b83d 3f3b 3b3d
00000180: 1bef 82bd c279 cd3d cef4 7a3d 9b42 933d
00000190: c23a 3bbb 392e f73d 5c84 64bd ffcf aebc
000001a0: 62da e2bd 7a3d 96bb 0c39 473d 9781 febc
000001b0: 6194 fe3d d758 22bc 2b85 8b3b aa54 cd3d
000001c0: 9496 b33d 7a8c 8ebd e1ba b33d 4d03 f53d
000001d0: 7332 a3bd 95cd cabd 99c6 a7bd 7607 873d
000001e0: 69a9 90bd 0cf4 acbc 4117 1bbc b0ca 91bb
000001f0: 58dc dd3d b2eb 053d c05b 79bd 17b3 04bd
00000200: 6ee6 6abd 5bd8 403d 5c42 d13d f6d0 54bc
00000210: f80c e53d fb19 0fbd 1fdb a93d 22af 003d
00000220: e022 70bd 6d2a a0bd 60fa 0ebe c330 36bd
00000230: c64b fe3d 7293 c43c f35b c9bd aac4 debc
00000240: a255 61bd 615e 68bd f9c6 b7bd 5dce 28bd
00000250: e4b0 9cbd 5aaa b0bd 80b2 4abd 9f2c 53bd
00000260: 1968 a63d e286 c43d 554b 933c d23f 803d
00000270: 4aa8 34ba d49f a73d f182 aa3a 35a7 243d
00000280: 5ed7 c43d 8275 b9bd 20da 34bd f45e c33d
00000290: 32b8 093e 1fcc dcbd 5887 b33d cce2 7dbc
000002a0: c3af 53bc 74a3 32bd e037 093e 9fae 9e3d
000002b0: 041b cebd 4c84 b93d ec93 153c ace3 ffbb
000002c0: 5374 6bbd b82a bebc fc61 1b3c 44fd e1bd
000002d0: d3fd dbbd 5c6c 2fbd d8f1 e33d 9056 c33d
000002e0: 8ed0 ce3b c421 093e b88e aebc 4599 8cbc
000002f0: f0d2 7e3d b63c 4d3d f81b 2b3d dc7f 943d
00000300: 0370 75ba 7cf2 183e 30d5 933d f6f1 26bd
00000310: 8914 a8bd 26f0 3fbd 09fe 3a3d 17cb d13d
00000320: b6db bc3d 8cac bc3d 0d0f 5abd b510 b93c
00000330: 2a3e d83d a228 9d3d b17f 9fbd 393f f5bc
00000340: a103 5bbd 3ef7 e63d 4839 963d 73e4 26bd
00000350: 11ae 32bc a340 03be b9ec 44bc 24ef 103d
00000360: a1bf 94bd e58e 903d 544d 87bb e7cd 31bd
00000370: bc22 023e f80d 133d bafa d03d 909b e23d
00000380: d1f0 4cbb 46d1 bc3d e9db a63c 9079 cbbd
00000390: b4ef aa3d a9b2 6d3d f265 d4bd 73c5 b33d
000003a0: 1bc3 973d 6197 ebbd f467 cabd 6ed5 0dbe
000003b0: 3c72 c23d ca78 adbd f119 93bc 2853 b83d
000003c0: a3c0 cd3d effe 5fbd dd60 443d 711c 553d
000003d0: b67a 62bc f9fa 113c bc19 a5bc 970c 7c3c
000003e0: caf2 243d 4b39 d83c 9a46 363d a0da 2b3d
000003f0: 79e5 d6bd eaf3 0e3d 7a99 45bd 0e0e 24bd

bias f4 [133]
0.14587869 0.11029638 0.0066957935 -0.12058386 0.036996998 -0.03280066 0.12319816 -0.0011974196
-0.058359876 0.06972688 0.0024624404 0.00572899 0.013799332 -0.035661533 -0.04448962 0.0035903722
0.08790491 0.08151125 0.06532658 0.005983965 -0.086437136 -0.09403135 0.038836036 0.100722186
-0.05121978 0.03232615 0.0020170195 -0.016210048 -0.0458638 0.06829029 0.13147901 -0.020605167
0.05651144 -0.10281832 -0.065032 0.10460186 0.093587466 -0.07232719 0.07630735 0.057569005
-0.07076939 0.026004102 0.11849999 -0.00024435372 0.058623496 -0.04425861 0.14003643 -0.097561285
0.028958881 0.10251471 0.08801121 0.05348263 0.06535961 -0.10453865 -0.041554984 -0.10688296
-0.11571714 -0.029752662 0.036878295 -0.037304398 -0.07953512 0.038607683 -0.09207278 0.035079177
0.080277786 0.0909809 -0.016008476 0.079259336 -0.028796239 0.014764833 0.055468608 -0.026220897
-0.0105341375 -0.04405798 -0.028316783 0.05294735 -0.0346445 0.05124601 0.15861566 0.0044271224
-0.07182357 0.066113256 0.0019183928 0.053677533 0.08548576 -0.057821266 -0.010492556 0.02446709
0.0014958256 0.06901143 -0.060513716 -0.014426983 -0.08411437 -0.021459457 0.0146791665 -0.009879182
-0.12186563 -0.06828115 -0.053316128 -0.0412586 -0.0727587 0.018229604 -0.020614568 -0.051683582
0.11813428 0.10733218 0.048786897 -0.05020335 0.08039082 0.08425791 0.103844546 -0.07745899
-0.008200941 -0.017574234 0.085619815 -0.063818485 0.06888977 -0.016715266 -0.038507234 -0.0597703
0.048540898 -0.0021425968 0.104109906 0.115457535 0.079482816 0.01941491 0.047465738 -0.112011954
-0.043341693 -0.012507801 -0.04648779 0.033507217 -0.03659823
00000000: 3961 153e 12e3 e13d 6368 db3b acf4 f6bd
00000010: 2a8a 173d fc59 06bd 514f fc3d bcf2 9cba
00000020: c40a 6fbd f7cc 8e3d e560 213b 40ba bb3b
00000030: 9816 623c d411 12bd bf3a 36bd 734c 6b3b
00000040: 7d07 b43d 5fef a63d f1c9 853d 2315 c43b
00000050: f405 b1bd 8293 c0bd 8912 1f3d 6f47 ce3d
00000060: d5cb 51bd 6d68 043d f92f 043b efca 84bc
00000070: aedb 3bbd c8db 8b3d 6fa2 063e 2bcc a8bc
00000080: 8a78 673d 6992 d2bd 7f2f 85bd 8039 d63d
00000090: c9aa bf3d 4720 94bd 0747 9c3d 7acd 6b3d
000000a0: 8bef 90bd 8e06 d53c 1fb0 f23d 9a1c 80b9
000000b0: 311f 703d 8448 35bd b665 0f3e 36ce c7bd
000000c0: 2d3b ed3c 3bf3 d13d 393f b43d 9a10 5b3d
000000d0: 42db 853d 5c18 d6bd 8f35 2abd 74e5 dabd
000000e0: 1cfd ecbd dbbb f3bc b20d 173d 7fcc 18bd
000000f0: 4fe3 a2bd 1723 1e3d a790 bcbd 2faf 0f3d
00000100: ae68 a43d 3254 ba3d 3524 83bc b852 a23d
00000110: 17e6 ebbc 33e8 713c 0d33 633d 35cd d6bc
00000120: 6097 2cbc 2476 34bd 99f8 e7bc 52df 583d
00000130: 64e7 0dbd 56e7 513d 256c 223e 6511 913b
00000140: 3c18 93bd 6366 873d 9572 fb3a f9dc 5b3d
00000150: 2813 af3d fed5 6cbd f8e8 2bbc 356f c83c
00000160: 940f c43a dd55 8d3d 3bdd 77bd 275f 6cbc
00000170: 2844 acbd becb afbc e380 703c 4bdc 21bc
00000180: b094 f9bd fdd6 8bbd 0362 5abd c7fe 28bd
00000190: 8302 95bd 4056 953c e2df a8bc 2ab2 53bd
000001a0: 63f0 f13d f9d0 db3d c5d4 473d 07a2 4dbd
000001b0: f1a3 a43d 698f ac3d 73ac d43d d2a2 9ebd
000001c0: 3d5d 06bc d7f7 8fbc 7159 af3d 44b3 82bd
000001d0: 1416 8d3d 74ee 88bc c3b9 1dbd b4d1 74bd
000001e0: d2d2 463d cf6a 0cbb 9337 d53d 0075 ec3d
000001f0: e3c7 a23d 040c 9f3c 6f6b 423d 8666 e5bd
00000200: 0f87 31bd 85ed 4cbc fb69 3ebd dd3e 093d
00000210: 07e8 15bd

weight f4 [1, 133]
0.110141516 0.061637197 0.10573564 0.049437217 -0.1280618 0.035327684 0.09821288 -0.041975573
-0.03685194 -0.035524547 -0.03902473 0.0381903 -0.022196075 -0.07689033 0.026756931 -0.021406064
-0.094445944 -0.04074523 -0.008750705 -0.04859043 -0.080443494 0.08490566 -0.1209317 -0.057226498
-0.07388615 -0.10904944 0.08875701 -0.06779416 -0.045012575 -0.019476404 0.029478254 -0.07854063
-0.055073384 -0.018671872 0.060057804 0.035128333 -0.061049074 -0.0718338 0.0644876 0.06385989
0.06644484 -0.10106979 -0.045069795 -0.076339245 0.09565688 0.12370634 0.09207588 -0.115385205
-0.11608106 -0.0735222 -0.09899293 0.053452935 -0.07676791 0.0155784795 -0.043171663 -0.09441502
-0.06994713 -0.053783722 -0.038958717 0.04832176 -0.04881869 -0.09678339 -0.06907253 -0.06892282
-0.075237036 -0.07959282 0.09517716 0.11727891 -0.031018263 -0.09417465 -0.07934986 -0.017939808
0.03580434 0.09422294 -0.058880914 0.025149884 -0.020359118 -0.08808655 0.056621827 -0.065505594
0.06527215 0.039597377 0.09329345 0.046202756 0.088016756 0.02109791 0.02841716 0.058193494
-0.106785566 0.065567985 0.04995722 0.06963629 0.08426721 -0.06946764 -0.027802154 0.019903313
0.06281089 0.03384951 0.09776229 0.05940566 0.06275309 -0.058276087 -0.06865707 0.0034143804
-0.057704892 -0.054857902 0.11905245 -0.037776515 0.04121947 0.03984159 0.039531525 0.026906546
0.08282384 -0.07011271 -0.033458877 -0.056091096 0.0586869 0.043953538 -0.047508523 -0.077953644
-0.07595869 0.014316974 0.09800882 -0.060430855 0.030475184 -0.12388251 -0.087329365 0.026808817
0.014342646 0.07288586 -0.021475531 -0.07489248 0.042799596
00000000: e091 e13d 4977 7c3d ed8b d83d ae7e 4a3d
00000010: a222 03be c3b3 103d d623 c93d 94ee 2bbd
00000020: 0ff2 16bd 3082 11bd 65d8 1fbd 6f6d 1c3d
00000030: 8bd4 b5bc ad78 9dbd 5a31 db3c c55b afbc
00000040: e06c c1bd 78e4 26bd 1e5f 0fbc c206 47bd
00000050: 8fbf a4bd 05e3 ad3d 0aab f7bd 5566 6abd
00000060: 9f51 97bd 5055 dfbd 3cc6 b53d aad7 8abd
00000070: 1b5f 38bd fb8c 9fbc 617c f13c e9d9 a0bd
00000080: a194 61bd c1f5 98bc 2cff 753d bae2 0f3d
00000090: 980e 7abd 991d 93bd 1312 843d f9c8 823d
000000a0: 3b14 883d aefd cebd 1b9b 38bd c057 9cbd
000000b0: c1e7 c33d c059 fd3d 4792 bc3d 144f ecbd
000000c0: e8bb edbd cf92 96bd cebc cabd 77f1 5a3d
000000d0: 7e38 9dbd e13c 7f3c c5d4 30bd a95c c1bd
000000e0: 7140 8fbd 524c 5cbd 2d93 1fbd 0aed 453d
000000f0: 1bf6 47bd 5f36 c6bd e675 8dbd 6827 8dbd
00000100: e015 9abd 8f01 a3bd 3eec c23d ed2f f03d
00000110: 031a febc a4de c0bd 2e82 a2bd 81f6 92bc
00000120: 92a7 123d f5f7 c03d 1d2d 71bd 2107 ce3c
00000130: 2ac8 a6bc b966 b4bd 4aec 673d cc27 86bd
00000140: 68ad 853d dc30 223d a310 bf3d 1a3f 3d3d
00000150: 2142 b43d 86d5 ac3c 1bcb e83c 4d5c 6e3d
00000160: 64b2 dabd 8248 863d f19f 4c3d 799d 8e3d
00000170: 4994 ac3d 0d45 8ebd 58c1 e3bc 460c a33c
00000180: ffa2 803d c9a5 0a3d 9837 c83d 5953 733d
00000190: b184 803d e8b2 6ebd 149c 8cbd ccc3 5f3b
000001a0: f75b 6cbd aeb2 60bd c5d1 f33d 8cbb 1abd
000001b0: bfd5 283d ef30 233d cfeb 213d 1e6b dc3c
000001c0: 8c9f a93d 4197 8fbd 2d0c 09bd c7bf 65bd
000001d0: ad61 703d a008 343d 4c98 42bd 29a6 9fbd
000001e0: 3b90 9bbd be91 6a3c d9b8 c83d 5886 77bd
000001f0: 18a7 f93c 1db6 fdbd bdd9 b2bd 2a9e db3c
00000200: 6bfd 6a3c 2f45 953d 74ed afbc 3b61 99bd
00000210: a14e 2f3d
